iteration(models)/Iterating Models/dqn_highway_faster_laneswitching.pt (torch, 342085 bytes, 6 tensors)

net.0.weight f4 [256, 70]
00000000: 4872 19bc df86 b13c 87c8 123d 9869 78bd
00000010: 939b 053e 37e2 4a3a 3672 b93a 27b7 783d
00000020: 717b 853d 4da3 c1bd 5394 8cbe fbcc 023c
00000030: 5067 23bd 1e80 38be 5fe5 da3d 44e5 0bbd
00000040: 1c9a 363a 1f5a 0e3e aeed 463b 2263 9f3d
00000050: 736b c5bd 05a6 bf3d 6923 c03c e018 04be
00000060: aaf6 a53c 7ac3 7e3c 81a7 673c 8599 153d
00000070: b0ca bdbd 0b36 453e 9fec 423c ee6a ec3d
00000080: 94ec e0bd 8273 453d 7801 efbd 5a9d bdbd
00000090: c9ff 2b3e 0d55 9ebd c749 94bd ea55 263d
000000a0: 3704 bb3d b7f3 73bd 677f 373b c979 063d
000000b0: 497c 0fbd 61f0 c43d aa6b 2bbe 44d1 b1bd
000000c0: d474 8cbd 6c80 c13d 8855 5c3a b3fc be3c
000000d0: 691e e73d a6d6 b1bd f4a4 b73d 1875 e23c
000000e0: 55a0 ae3d c3d3 713d e1de a43d f211 5abd
000000f0: 0148 8fbd ee9d 433d 157b 89bc 3b16 783d
00000100: 2e01 8ebc 6c09 163e 7685 cfbd f89e 073d
00000110: b78d 473d 6195 80bd 5142 443d e239 f3bc
00000120: 1780 cf3d 2488 903d b8a2 9f3d 7c43 a7bc
00000130: 0728 59bd 5eab c13c 96d9 573d 8708 44bd
00000140: 2357 98bd 2a0f e83a 1b78 c8bd 7962 2d3d
00000150: 08ac e1bd 820d cf3d 93ad 313d a521 193d
00000160: 7ebc dbbd 6190 b5bd dc47 67bd 99c9 e03c
00000170: 01f1 b73d fe70 bb3d 114b d4bd deda 82bd
00000180: 832b 2abd 159c 5ebd fef3 88bd 764f c3bd
00000190: 8ad6 adbd 58ae 95bc c882 cf3d abe0 84bd
000001a0: 4545 bbbd eaa4 103d 36b7 a2bd 9d07 debd
000001b0: 2dbd 463c 8550 743d b0a9 f2bd 9258 c2bd
000001c0: 701f 93bd 1ce3 c33d 895e cc3d 7d1f 303c
000001d0: 0e06 41bd 7662 1abd 6037 a0bc f69f d7bc
000001e0: 3740 ebbd cf66 d03d 07ed 98bd b955 123d
000001f0: b205 d8bd d929 d6bd d2b6 353d 3a83 6f3a
00000200: aa3a 523d 75b0 903d ba16 063c 2630 98bb
00000210: 2f70 04bd cd30 b6bd 9bf0 783d 7ced 8c3d
00000220: 8ad4 2cbd 2fb3 e43d b056 46bd 2e2a cebd
00000230: e8ce 8abd ed99 d2bb 9b74 2f3d 70fa 3639
00000240: 20da 1dbd 2e14 dfbd 6cdf e73d d873 26bc
00000250: 644f c8bc 26fd 143d 8b81 acbd a3c0 903d
00000260: e745 b33c ceea dd3d 58b6 e6bd 6616 bc3c
00000270: 5e57 47bd b51f b2bd f107 acbc 9617 c23d
00000280: 2777 1abd f91c b9bd f57c 743d c7a7 c33d
00000290: f9cc aebd 335c 063d a19b e0bd c9f9 f0bc
000002a0: da56 a03d 92e9 c0bd 0cee cabc dc10 0dbd
000002b0: 1b7f b8bd b277 5f3c 0393 c4bc 0dbe 61bd
000002c0: 87bd 93bd e358 71bc ca84 a9bd bb33 c93c
000002d0: cab3 28bd bdb3 653c 3302 a93d 27e1 a93d
000002e0: 5ecc 7cbd c51c 823d b5f2 b93d 7a71 2f3d
000002f0: b4bc ee3d ffd3 52bd 3a9c b8bb 438d d5bc
00000300: 2410 933d d30e 44bd 9949 f3bc dc82 cdbd
00000310: 236e 093d 6cfb b1bd 4293 893d ce96 c9bd
00000320: 68e6 b1bd ee82 163c 3282 ecbd ee92 513d
00000330: 7a68 313c a8d5 16bd 97bd bc3d 473a 42bd
00000340: c099 d2bd ea64 b7bd c9cf 03bc 76f8 13be
00000350: 768a 5d3d df69 d83d 30e0 a3bd 50c8 19bd
00000360: c8d4 28bb 3acd a73d 2825 d7be d49b cd3d
00000370: 9bbb 78be ef7c a8bd 2a2e e6bd a28c 293e
00000380: ffd7 80bc 9c33 3ebe 2b3f 133e f047 bd3d
00000390: 1ae3 87bc f9c7 b9bd 03fa c53e 7603 e03d
000003a0: 2490 e0bc be22 dc3e 502b a1bc 60b9 ff3c
000003b0: eb48 fa3d 4191 96bd dee1 803d 5ac7 fd3d
000003c0: 82c2 2e3d 9066 f13d 15c4 f83c 787d 9c3d
000003d0: e42a a73d 1cad e53d 90db 22bc f46c 14be
000003e0: 5bbc 013e 8736 b9bd 3904 d7bd 10ca 5abd
000003f0: 26f2 c23d 7af2 91bd ae5c 83be 1a83 693d
-0.009365626 0.021670757 0.03583577 -0.060647577 0.13047628 0.0007739397 0.0014148417 0.060721543
0.06517685 -0.09454975 -0.27456912 0.007983441 -0.03989345 -0.18017623 0.1068828 -0.03415419
0.0006965713 0.13901566 0.003035407 0.0778258 -0.09639635 0.093578376 0.023454385 -0.12900114
0.02025922 0.015549535 0.014139057 0.03652336 -0.09267175 0.19258897 0.011897235 0.11543833
-0.10982624 0.04820586 -0.11670202 -0.09258528 0.16796793 -0.07731066 -0.072406344 0.040609278
0.09131663 -0.059558596 0.0027999522 0.032830987 -0.035030637 0.09616161 -0.1674029 -0.086824924
-0.06858221 0.09448323 0.0008405079 0.023313856 0.11285097 -0.08683519 0.08967009 0.027643725
0.08526675 0.059039842 0.08050323 -0.05323977 -0.069961555 0.047758035 -0.016782323 0.060568076
-0.017334547 0.14652032 -0.101328775 0.03311059 0.048719134 -0.06278492 0.047914807 -0.029690687
0.10131853 0.07057217 0.07794708 -0.020417921 -0.05301669 0.023641285 0.05269774 -0.047859695
-0.07438495 0.0017704715 -0.09788533 0.04233024 -0.110191405 0.10109998 0.043378424 0.0373856
-0.107293114 -0.08865429 -0.056465015 0.02743988 0.08981515 0.09152411 -0.1036588 -0.06389402
-0.041545402 -0.05434807 -0.06687163 -0.0953664 -0.08488186 -0.01827161 0.101323664 -0.064881645
-0.091440715 0.035313524 -0.07945101 -0.10841296 0.012130064 0.059647102 -0.118487716 -0.0948955
-0.071837306 0.09564802 0.09978969 0.010749695 -0.047124915 -0.037691556 -0.019557655 -0.026321393
-0.114868574 0.10175859 -0.074670844 0.035726283 -0.10547961 -0.104572006 0.044363804 0.0009136681
0.051325478 0.070649065 0.008184129 -0.0046444116 -0.03233355 -0.08896027 0.060776334 0.06881234
-0.04219488 0.11166989 -0.048422515 -0.10066639 -0.067777455 -0.006427041 0.042835813 0.00017450168
-0.0385381 -0.10892521 0.11321911 -0.010159455 -0.024451919 0.036374234 -0.08423146 0.070679925
0.021883918 0.10835801 -0.11265248 0.0229599 -0.048667304 -0.08697454 -0.02099988 0.09477155
-0.03771129 -0.09038729 0.05968948 0.09553485 -0.08535189 0.03280277 -0.10967184 -0.029415982
0.078290656 -0.0941955 -0.024771713 -0.034439906 -0.090086184 0.013639377 -0.023995882 -0.055112887
-0.07213884 -0.014730665 -0.08277281 0.0245608 -0.041187085 0.014019904 0.082523726 0.082948975
-0.061718337 0.063531436 0.09079496 0.04283283 0.11657086 -0.051471706 -0.005633858 -0.026068335
0.07180813 -0.0478657 -0.02969818 -0.10034725 0.0335523 -0.08690533 0.0671754 -0.09843217
-0.08686525 0.0091864895 -0.1154827 0.051165514 0.010828132 -0.036824852 0.09215849 -0.04741886
-0.10283232 -0.08954795 -0.008045145 -0.14450249 0.054087125 0.10567068 -0.08001745 -0.03754455
-0.0025761593 0.08193441 -0.42020535 0.100394875 -0.24290316 -0.08226954 -0.11239274 0.16557553
-0.015727995 -0.18574375 0.14379565 0.092422366 -0.016587783 -0.09071345 0.38667306 0.1093816
-0.027412482 0.42995256 -0.019673973 0.031216323 0.12220939 -0.07351924 0.06293081 0.12391539
0.042665966 0.1178714 0.030366937 0.07641119 0.081624776 0.112146586 -0.009940043 -0.14494687
0.12669508 -0.090436034 -0.10498852 -0.053415358 0.095188424 -0.07126327 -0.25656646 0.057009794

net.0.bias f4 [256]
00000000: 11b3 78bd 0959 a53d 6b4b 353c c623 f7bb
00000010: dd62 1a3d 2411 f93c bdc8 b93c b75b 70bc
00000020: 491d 0c3e 0992 8a3d f7f2 aebc 9946 04bd
00000030: 914f b43c be7e db3d c12d 1c3e c584 663c
00000040: ef4b 213d 2e7e ad3d 33f9 e439 23e9 4bbd
00000050: 38e9 abbd d13d c03d b2c3 8c3d 4afb 8ebd
00000060: b1b3 293d 3a50 8a3d f486 b13d c94d cbbd
00000070: dc15 83bd c451 bebd f9db 0a3e eb96 84bd
00000080: f779 fdbc ccf3 09bd 2636 0dbc 2223 3d3c
00000090: c796 80bd bb0f a0bd 0f21 85bd d38d cebc
000000a0: 4219 9fbc eb50 3d3d 8a4d a73c f880 fd3d
000000b0: dcf5 edbd e2e5 76bd 6793 d5bd 8272 c33c
000000c0: 352f 173d cb9e 083d 5439 393d c364 fa3b
000000d0: b636 ccbd f205 f43d 4b6e d83d ae66 1b3c
000000e0: 931d fdbd ba8e 6c3d d54d 973d b229 94bd
000000f0: 527b cbbd 8dd9 733d 2505 363d f8f1 a9bd
00000100: 38c9 a9bd 6ed9 31bd f4fe 013d 6a1f a53d
00000110: b1b4 b13d 6fbc f8bc 388e e3bc 8430 acbd
00000120: e039 e33c bf58 52bd 4f00 a33d 19cf ba3d
00000130: b8cd c63d 49f0 e73d 9e5d de3d e96c 3b3d
00000140: ac92 d5bd b060 9dbc e7dd 103d 2a2d c93c
00000150: 973d 93bd 6c50 4bbd dbce c9bd cdb6 ca3c
00000160: 9634 583c 96b0 e33d 78dd 61bc 4bc5 c2bc
00000170: 9125 91bc f6d1 503d 21bb f33c a988 89bd
00000180: 36e9 fa3c 9495 d03d a112 3bbd a98e f33c
00000190: 0c46 79bd 7a44 543d 9d61 b0bc a038 563d
000001a0: 61dd 5bbd dc8b f33b 7662 d1bd b7f6 b8bd
000001b0: 165a ae3d 939c d3bd 0cc4 813d a9f3 75bc
000001c0: 4e09 b13d bcc6 a5bd 26d1 dabd 519b 193d
000001d0: 05dc de3d f32a 83bd f934 a53d d100 a43d
000001e0: b6de 583d 7dbe dfbd 9fe4 2abc fcf7 393d
000001f0: bd74 cc3d 6cea cd3d d03b fe3d 2667 6dbd
00000200: d12f 9c3d 432b d2bc f449 d6bd b22d dabc
00000210: 96f5 97bd a214 1e3d 8d2c f73d 8087 2f3d
00000220: 06c8 d63d 306c 9abb da0b 9f3d 7110 183c
00000230: a079 85bc 5fd2 0a3e 8d98 cb3d 4055 013b
00000240: c86f bf3c 5835 25bc e38a a9bd 8641 d3bc
00000250: 5fac ecbc 7166 27bc 43b3 893d 38a6 c03d
00000260: c20a 773d b498 86bd ebc2 c13d c099 9fbd
00000270: 6aea d9bd 3c9b a9bd b45f 4fbd 6fbc f33c
00000280: a720 85bd 4896 98bd c034 c33c f0ff 7cbc
00000290: 9242 8ebc 57a2 80bc b272 92bd 68f0 8abb
000002a0: 5a8f 1a3e 1e97 cb3d f2c5 eabd 4311 df3d
000002b0: d586 7ebc 3b07 913c ee12 033e e6dc 203d
000002c0: e100 8e3d c2ac 033d f2e7 94bd 4809 f3bd
000002d0: af17 693d 493d ecbc 5c36 9a3d a587 7dbd
000002e0: 843b 973c 4268 c03d 1172 6c3d e348 983d
000002f0: 2bd4 09bc 5a42 d9bd f225 283c b176 263d
00000300: 7e2f b2bb 7cf8 babc acac efbd 221e de3d
00000310: e0dc 8dbd aa05 a83d 7c69 df3d e7f0 87bb
00000320: 3047 7ebb 22d7 03be 4e3c 93bd 94f1 823c
00000330: 51fa c9bc 304c 113d ba82 9bbd b7dc 5e3c
00000340: fa24 e73b a8e4 e1bc 27d2 113c eb85 cdbd
00000350: 5abc aa3d 91da db3d 9377 2f3d a70c dcbd
00000360: 698a 733d 215d acbd 4ce9 0a3e c272 263d
00000370: 6892 6f3d 0209 ec3d ce54 ae3d a56b 0d3e
00000380: fa5d c3bd 2207 6a3c fedb dfbd 2e89 493c
00000390: d272 f63c 8dd5 be3d 16f1 713d b315 81bd
000003a0: 3e9b 44bd 9188 413d a54e adbd 9fea 5abd
000003b0: 543d d83d e3c5 c1bb ba0f 8bba 4a6a 713d
000003c0: 7695 f4bb 5c79 033c ef21 b4bd 9338 f5bc
000003d0: e795 7d3d a3b5 dfbd 4540 a9bd f681 8c3d
000003e0: c160 aebd 5738 043c c079 c1bd c686 9ebd
000003f0: 4349 2fbd fc43 bf3d 931f 563d 362c f5bd
-0.060717646 0.08073623 0.011065344 -0.0075421063 0.03769194 0.030403681 0.022678727 -0.014670304
0.13683046 0.06766135 -0.021356089 -0.03229389 0.022010596 0.107175335 0.15251829 0.014069741
0.039379057 0.084713325 0.00043673217 -0.049782883 -0.08394092 0.093867905 0.068732634 -0.06981523
0.041431133 0.06753583 0.086683184 -0.09926946 -0.06400654 -0.09292939 0.13560475 -0.06474098
-0.030941946 -0.03367977 -0.008618867 0.011544021 -0.062787585 -0.078155 -0.06500446 -0.025214111
-0.019421224 0.046219748 0.020422716 0.123781145 -0.116191596 -0.060277827 -0.104285054 0.023858313
0.036910255 0.03335456 0.045220688 0.0076414063 -0.09971373 0.119151965 0.10567912 0.00948493
-0.123591565 0.057753302 0.07387892 -0.07234515 -0.09935631 0.059533644 0.0444385 -0.08298105
-0.082903326 -0.043420248 0.031737283 0.080626324 0.08677042 -0.03036329 -0.027777776 -0.08407691
0.027737558 -0.051354166 0.07959043 0.09121532 0.097072065 0.11325128 0.108577 0.04575816
-0.10428366 -0.019211143 0.035367873 0.024557669 -0.07189482 -0.049637243 -0.09853908 0.02474537
0.013196131 0.111176655 -0.013785712 -0.023775717 -0.017718108 0.050981484 0.029752316 -0.06715519
0.030628782 0.1018478 -0.045672063 0.029731112 -0.060857818 0.051823117 -0.02153092 0.052300096
-0.05367792 0.007432444 -0.10223858 -0.09031432 0.08513276 -0.103325985 0.06336221 -0.015011706
0.08644353 -0.08094546 -0.10684423 0.037501637 0.10881809 -0.06404676 0.08066744 0.08007968
0.05294677 -0.10925005 -0.010430484 0.045402512 0.099832036 0.10054478 0.12413752 -0.0579597
0.07626308 -0.025655394 -0.10463324 -0.026633117 -0.07419889 0.038593896 0.12069044 0.042853832
0.1048737 -0.004712604 0.077659324 0.009281264 -0.016293347 0.13556813 0.09941206 0.001973465
0.023368731 -0.010083519 -0.08278444 -0.02578808 -0.028890787 -0.010217295 0.067236446 0.09406704
0.060312994 -0.065720946 0.09461006 -0.07792997 -0.10640414 -0.08281562 -0.05062838 0.029752938
-0.065003686 -0.07450539 0.023828864 -0.01544188 -0.017365728 -0.01570241 -0.07150783 -0.0042400844
0.15093747 0.09940933 -0.11463536 0.10891964 -0.015535076 0.017703643 0.1280019 0.039273165
0.069337614 0.032147177 -0.072708026 -0.11867005 0.056907352 -0.028837817 0.075298995 -0.06189694
0.018460996 0.093948856 0.05772597 0.07435777 -0.008412401 -0.10608359 0.010262953 0.040640537
-0.0054377904 -0.022823565 -0.117028564 0.10845591 -0.06926894 0.08204205 0.109087914 -0.004148591
-0.0038799755 -0.12875035 -0.071892366 0.015984334 -0.024655493 0.03547305 -0.075932935 0.013602427
0.0070539685 -0.027574852 0.008900202 -0.100353085 0.083367065 0.107350476 0.042838644 -0.10744601
0.05945817 -0.084162004 0.13565558 0.040636785 0.058489233 0.115251556 0.08512269 0.13810594
-0.09539409 0.014283927 -0.10930632 0.012300773 0.030084047 0.09318075 0.059067808 -0.06302967
-0.047999613 0.04724938 -0.08462266 -0.05344641 0.105585724 -0.0059134825 -0.0010609545 0.058939256
-0.007464106 0.00802454 -0.08795535 -0.029934203 0.061910536 -0.10923316 -0.082642116 0.068607256
-0.08514548 0.008070073 -0.0944705 -0.0774055 -0.042794477 0.09339139 0.052276205 -0.11971323

net.2.weight f4 [256, 256]
00000000: 2073 033d 9add 4b3d 42ad e63c c6b9 51bd
00000010: bc9d 16bd f1e0 103d 8857 fc3b 061c 47bd
00000020: c94b 293d 749a 6b3c 61f0 c2bc b472 593d
00000030: 8bfd 15bd 03e2 12bd 0a44 5c3c 8551 f2bc
00000040: 8687 55bd 0b5e 2e3d 04ef 6bbd 1d50 ee3c
00000050: d260 ff3b fb07 993c c0d4 243d 8c33 5bbc
00000060: 65ac cd3c 0a1d 8dbc 6628 3cbc f9cc ab3c
00000070: d23f f4bc ae6e 32bd fccc f6bc d31c 5c3d
00000080: f37a 44bd b6ef 27bd 9493 45bd fd65 44bd
00000090: 64f0 00bd 2560 11bd 06c4 fbbb c995 83bd
000000a0: 15f0 453d b6b0 5b3d 3b0a 21b8 2c72 c1bc
000000b0: 1ea3 443d e034 aa3b 1a6d 2dbd 38eb b53b
000000c0: 86c9 0f3d 9c0f 313d 4800 3e3d 1cda d8bc
000000d0: 198e 533d aced 333d a515 fdbb add3 85bd
000000e0: 0cd0 743c fdf5 ff3a 1655 54bd 0f8f c53c
000000f0: dbcf 123d 800c a5bb 8446 00bd 7a11 3abd
00000100: 41fa 38bb 8139 393d d837 43bb 4b35 9cbc
00000110: 1e26 3abd 2c40 d5bc fb90 813d e997 00bc
00000120: df64 2d3b 285b 5d3d fd2f 10bc 3f0e 043d
00000130: 9c48 a8bc f99b 363d aa85 26bd 58af 64bd
00000140: 7c6e 50bd 076a 0a3c 1536 123d 2c71 3f3d
00000150: 0717 d73c 76de 373d 8088 83bd 5b82 73bc
00000160: 7c29 3e3d 87fe 0fba 3c89 edbb f163 3bbd
00000170: 0065 d3bc 76ba 353d 7039 8cbc 8526 5f3b
00000180: b765 76bd 1252 cabc c66d 71bb ca72 393c
00000190: 0516 3a3b eed3 263c f472 2238 582f 59bd
000001a0: b261 13bd 1b3d 96bc 789a 353c 72d0 6cbd
000001b0: 0794 7cbd 2895 653c 6d40 6c3a eefe 45bd
000001c0: 38ae 04bd fc1a 2d3d 3899 fb3c 6e62 8fbc
000001d0: 219f 963b dad0 a8bb cfbf 30bb 61e8 513d
000001e0: 686d 1ebd af5a 113c b706 b9bc 9e35 12bd
000001f0: 5a48 1abc 3035 303d fc0e 4b3c 1c2a debc
00000200: 6137 82bd d0d7 243c c493 36bc 3506 203c
00000210: c257 89bd e24a a63b 35af 8b3c 1ced 8f3c
00000220: 52f4 18bd 887b 643d 946c 6c3c 1750 893c
00000230: ff18 84bd 2e58 233d 62ad 39bd bb47 4a3d
00000240: 3009 303c c149 643d acf5 8bbd 00ae fe3c
00000250: 1458 953c ee97 5ebc a5f1 7c3d 1cc8 f1bc
00000260: 91b2 213d 8ff2 643c 7182 85bd 10d0 bebb
00000270: c06e fc3c 8e82 c8bb ac04 06bc a6ed 3bbd
00000280: 93c7 253d 3743 8cbd 25df 23bc 7857 33bc
00000290: 6592 bebc 977b 27bd 4666 83bc c6a2 83bc
000002a0: 9216 eebc 803a ab3c 12c0 493d cb56 423d
000002b0: ddea d7bc 6f2e 0abd 2a36 01bc 3c38 f4bc
000002c0: 79d5 a33c 3a72 0a3d 5116 cd3c 32f7 983c
000002d0: 0c4e 063c 406f f6ba a74b a63b e925 61bd
000002e0: 60d7 c5bb 4986 3b3d 2ebd 63bd 3b7f 44bd
000002f0: 90c4 4c3d 8174 7bbd f760 943c ab72 c63c
00000300: 0485 193d dff0 8abd 20c6 7bbc 8949 163d
00000310: 43a1 773c 2fde 7d3c 0bee 96bc 318f 48bd
00000320: 147b 6f3c e736 03bd 4adc 75bd b089 133c
00000330: 14a7 d73b a4a5 30bd 5946 253d 2f0e ccbc
00000340: d0bc 30bd f6b5 26bd 30a1 e1bc aab8 00bd
00000350: ffb0 95bd 234f 4c3d a63a ac3c 543e 38bd
00000360: 4e46 d63a 6565 013d 65b5 d6bc d984 29bd
00000370: a5b3 83bd 73d9 3abd 8c8f 013d 40c8 28bc
00000380: 7695 e83c 10c9 e83c 006c 9abc 8acb debc
00000390: a662 b63c e899 61bd 4516 3abd a658 173c
000003a0: 7c0e 4fbd a249 ce3c 7f95 83bb 39ba f1bc
000003b0: 1fe8 8ebc 92a1 25bd 4672 5d3c 52c8 953b
000003c0: 6e04 b93c 2832 503a 3ff4 043d 4817 523d
000003d0: 8841 72bd 2265 babc ac2b 31bc bc90 debc
000003e0: 5f06 73bd b641 70bd 2075 313d 2023 633c
000003f0: d8e5 a33c 9bd3 8e3c 8080 9e3a cf71 9d3c
0.032092214 0.049771883 0.028158788 -0.051202558 -0.03677152 0.03537077 0.007700864 -0.04861071
0.04133204 0.014380086 -0.023796262 0.053087905 -0.03661875 -0.035860073 0.013443956 -0.029579887
-0.0521312 0.042570155 -0.05760099 0.029090935 0.0077935243 0.018680563 0.040241957 -0.013378989
0.025106618 -0.017225761 -0.011484241 0.020971762 -0.029815588 -0.043562584 -0.030127041 0.053738426
-0.047968816 -0.04100009 -0.048236445 -0.047948826 -0.031479254 -0.03549208 -0.00768328 -0.064250536
0.048324663 0.05363532 -3.839492e-05 -0.023614012 0.048007123 0.0051942915 -0.042340375 0.005551722
0.035104297 0.043227777 0.046386987 -0.02647119 0.051649187 0.043927833 -0.0077235275 -0.065345146
0.01494218 0.0019528266 -0.051838957 0.024116067 0.035842758 -0.0050368905 -0.03131725 -0.045426823
-0.0028225335 0.045220856 -0.0029787924 -0.01906838 -0.045446508 -0.026031576 0.06326481 -0.007848718
0.002645783 0.05404201 -0.008800504 0.03224015 -0.020542435 0.04458234 -0.040654816 -0.055831283
-0.050886616 0.00844813 0.035696108 0.04673879 0.026256097 0.04488989 -0.0642252 -0.014862622
0.04642628 -0.00054929446 -0.0072490256 -0.04574961 -0.025804996 0.044367276 -0.017117232 0.003405006
-0.060155597 -0.024697337 -0.0036839112 0.011318872 0.0028394472 0.010182364 3.873087e-05 -0.053023666
-0.03598184 -0.018339684 0.0110841915 -0.057815976 -0.061664607 0.014012612 0.0009012286 -0.048338823
-0.03239271 0.042262062 0.030712709 -0.01750299 0.0045966064 -0.00515185 -0.0026969796 0.051247004
-0.038678557 0.008871718 -0.02258621 -0.035695665 -0.009416664 0.043019474 0.012393709 -0.027119689
-0.06358219 0.010061219 -0.0111436285 0.009767105 -0.067061916 0.0050748447 0.017051319 0.017569117
-0.037342377 0.05578187 0.014430184 0.016761823 -0.0645008 0.039879017 -0.045331366 0.049384814
0.010744378 0.0557344 -0.068339676 0.031088829 0.018230475 -0.013586028 0.061753888 -0.029514365
0.039476935 0.013973846 -0.0651902 -0.005823143 0.030814528 -0.006119079 -0.008179825 -0.045880936
0.040473532 -0.06848758 -0.010001932 -0.010946147 -0.023263166 -0.04088935 -0.016039979 -0.016068827
-0.029063497 0.020901918 0.04925544 0.047446053 -0.026357109 -0.03373569 -0.007886449 -0.02981197
0.019999253 0.03380034 0.025035055 0.01867256 0.008197319 -0.0018801466 0.0050749364 -0.054967795
-0.0060376376 0.04578236 -0.055600338 -0.0479729 0.049992144 -0.061390404 0.018112643 0.0242246
0.03748037 -0.06784224 -0.015367061 0.036691222 0.015114131 0.015494867 -0.018424055 -0.048964683
0.014616746 -0.03203478 -0.060024537 0.009004995 0.0065811966 -0.043126717 0.040350292 -0.024909107
-0.043148816 -0.040700875 -0.02754268 -0.03142611 -0.0730915 0.04988016 0.02102406 -0.044981316
0.0016347857 0.031590838 -0.026209543 -0.04138646 -0.06430749 -0.045617532 0.031631038 -0.01030165
0.028391581 0.028416187 -0.018850327 -0.027196664 0.022263836 -0.055078417 -0.045431394 0.009237444
-0.050550923 0.025181595 -0.004015624 -0.029507743 -0.017444668 -0.04043729 0.013516014 0.004570999
0.02258512 0.0007942044 0.032459494 0.051291734 -0.059144527 -0.022753302 -0.010813635 -0.027168624
-0.059332248 -0.058656417 0.04332459 0.013863355 0.020007059 0.017434886 0.0012092739 0.019219307

net.2.bias f4 [256]
00000000: 3d7a 083d c529 bb3d cf1b 963c 1141 88bb
00000010: 482d 2c3d 3472 e13c 7f30 953d 3422 85ba
00000020: 1698 45bd 4a65 7fbd 7d00 68bd 0d94 dcbc
00000030: a7ad 78bd 6714 903c c365 8cbd 64a0 46b8
00000040: e366 dfbb f170 c43c 7378 43bd a656 e83c
00000050: d80d 703d 1945 02bd b26f 4b3d 1d89 94bc
00000060: a66e 8fb9 1e5b d1bc 2812 783c 98bf 373d
00000070: 268d 23bd eff9 1a3d 0415 4e3d 1156 90bc
00000080: 69e9 fd3c 7c92 b33c 7393 16bd e634 49bd
00000090: 9be0 89bd 79d0 24bd a717 5f3c a174 fd3c
000000a0: 94e8 123d 98e0 88bd 4523 47bd 9631 31bd
000000b0: fa24 2e3d 3889 e2ba 82a4 53bd ae07 0eba
000000c0: 4db9 75bd 5da3 963b f7c5 b23a 72a6 bebc
000000d0: a84f 233c 6b11 193d 3485 13bb b65a c03c
000000e0: c70e a63d 436e 09bc 73ce 8f3b f418 2a3d
000000f0: cfe5 b13d 573c 5e3c f1fa 413d 5fb0 22ba
00000100: 6e9b ecbb 2ab5 833d 36bb 7fbd 9d8f 73bc
00000110: 7c21 c8bc 403a 69bd dca7 603b 694c a63d
00000120: b1aa 513d f509 49bd bd0e f2bc b4bf a9bc
00000130: c069 123c d2c0 093d 80cf 5cbd 5ae9 ad3c
00000140: c150 523d b9c1 02bd 3ea7 7bbc b36e a33d
00000150: 2e20 ab3a ddd3 f03b 8e0d d53b 2a2c 043d
00000160: 9c89 dabb c616 cb3c 6b83 b3bc ceeb 62bd
00000170: 6885 a93d 4427 c33c 26c1 883d 0d66 553d
00000180: 1c85 983d b832 76bd 85f3 ffbc 4f67 13bc
00000190: 3b36 58b9 008f 33ba 83f5 763d 2162 c23d
000001a0: 4bd4 93bc 0207 6b3d 3ed1 89bc ed7a 59b9
000001b0: 2fdc 86bd 989c 64bd 06bc e73c c913 d03c
000001c0: 5758 8ebc 232c 20bd 326e b2bc 9ca3 28bd
000001d0: eef0 4cbc 1738 df3b d806 a83d 5b3d 813d
000001e0: 7e3a 083d 0abf fcbc 79b9 7ebc 8be6 ff3c
000001f0: 9780 31bd 2854 f03c 6e81 a5bc 3bb8 a93d
00000200: 0b9d 803d 1ad3 be3c 13ff 1a3d 3259 9c3d
00000210: 8ba6 09ba 437d 81bd d039 45bc fa2f 5f3d
00000220: 85df cf3d 7bf9 9ebc f2e0 813d d84f 2d3c
00000230: b4e0 8f3d 7d4f 593d fbd3 dc3d 2331 db3a
00000240: 86d9 403c 5f4b 61bd c963 9e3d 236a 5dbd
00000250: 2587 893d 9af4 583c 1209 143d 92e3 26bd
00000260: 34a2 913d bddc 97bd 406e 2e3b c2e1 8e3d
00000270: f76e c53c 2b49 30bd 9ec9 fd3c 180d 77bd
00000280: 594d 553c a1df 733b 6a70 e5bc 71db 72bd
00000290: 4fb2 42bd c0e6 a9bb b748 bf3d 132a 72bd
000002a0: db69 52bd d5f7 a43d 0e11 563d 952e b33d
000002b0: 6a06 603d 614b df3c e05b 913d 0b09 dbbc
000002c0: 48ed 7ebd 94c5 ffbc 4b21 3a3d 3832 c23d
000002d0: c05a 9e3d f6bf a03d b5e5 28bd 02c6 723d
000002e0: 8115 80bc 4074 9d3c a653 8cbd 39c3 843d
000002f0: a133 4e3c 414d 0bbd 86d2 c3bc dc9d 48bd
00000300: d500 9d3d d7f9 f13b 0f46 7ebd 51e6 a7bc
00000310: ad49 1b3d b5ec 363d 8369 03bd 8881 253d
00000320: 70f7 b63d 52c0 a73d 8acf bc3d a49c 71bd
00000330: 441a 74bd 8e33 56bd 8341 42ba 6d37 2cbd
00000340: f4f0 19bc 182a 933d 58c0 89bd 3f9b ffbc
00000350: 4cd4 cd3d 1ca2 8abd 4aa1 023c 98da 333d
00000360: f520 eaba 7727 23bb 274b b73c bf03 09bb
00000370: 2448 3fbd 35c1 fd3c 7e63 083d c1df cbbb
00000380: 5dcf 26bd 408a 1b3d db00 e03c 60cd b33c
00000390: 1cd5 243d 5278 693d 19dc 063d 17ae cbbc
000003a0: 9dec 8bbc e0ed 72bd 2df9 2b3b 303b 703c
000003b0: b5ce 49ba 5dea 353d 86a0 e73b 3d77 87bd
000003c0: ba1b 04bc aef3 4cbd 3877 8fbd 918b 2ebd
000003d0: 0f76 cb3c 6873 bdbc c334 27bd 859e 55bd
000003e0: 0569 58bc 0339 6b3c 37f4 1bbd c616 193d
000003f0: b347 babc f829 a53d a42c dc3c a981 8c3d
0.0333197 0.09138826 0.018323807 -0.004158147 0.04203537 0.027520277 0.072846405 -0.0010157288
-0.048240744 -0.062352456 -0.05664109 -0.026926065 -0.060712483 0.017587854 -0.06855347 -4.7356254e-05
-0.006817685 0.023979636 -0.04772229 0.02836163 0.058606952 -0.031804178 0.049667068 -0.018131787
-0.00027357525 -0.025556143 0.015141048 0.044860452 -0.03992953 0.03783601 0.05031301 -0.017619165
0.030995088 0.021920435 -0.036761712 -0.049122714 -0.06732293 -0.040237878 0.013616479 0.030939402
0.035866335 -0.06683463 -0.04861762 -0.04326018 0.042515732 -0.0017283326 -0.05167056 -0.00054180145
-0.05999117 0.004597111 0.001363932 -0.023272727 0.009967722 0.037370127 -0.0022509815 0.023480754
0.08108287 -0.008388105 0.0043886243 0.041527703 0.08686411 0.013564191 0.047358457 -0.0006206091
-0.007220677 0.06431039 -0.062434398 -0.014865783 -0.02443003 -0.056940317 0.003427974 0.08120043
0.051188175 -0.04908176 -0.029548043 -0.020721294 0.008936346 0.033631153 -0.053908825 0.021229435
0.051346544 -0.03192303 -0.015359698 0.079800986 0.0013055855 0.007349475 0.00650186 0.03226868
-0.0066692363 0.024791133 -0.02191325 -0.055400662 0.08277398 0.023822434 0.06677465 0.052099276
0.074472636 -0.060106963 -0.031244049 -0.008996799 -0.00020619568 -0.0006849617 0.060292732 0.09491373
-0.018045565 0.05737973 -0.016823407 -0.00020740526 -0.065849654 -0.055813402 0.028287899 0.02540006
-0.017376108 -0.039104592 -0.02178106 -0.041171655 -0.012508614 0.0068121064 0.0820443 0.06310531
0.033258907 -0.030852813 -0.01554715 0.031237861 -0.043335523 0.029337004 -0.020203318 0.08287092
0.062799536 0.02329402 0.037840914 0.076342 -0.0005250952 -0.0632272 -0.012037709 0.054489113
0.10150055 -0.019406071 0.06341733 0.010578118 0.070252806 0.05305432 0.107826196 0.0016723018
0.011770612 -0.05500352 0.07733876 -0.054056298 0.0671523 0.013241911 0.036141463 -0.04074437
0.07111016 -0.07415149 0.0026616007 0.06976654 0.024100764 -0.04303853 0.030979928 -0.06031522
0.013018929 0.003721215 -0.028007705 -0.059291307 -0.04753333 -0.0051849782 0.09340041 -0.059122156
-0.051370483 0.08055083 0.05226236 0.08749119 0.054693617 0.027257623 0.07097602 -0.02673771
-0.062238008 -0.031222142 0.045441907 0.09482235 0.07732153 0.07849114 -0.04123469 0.059270866
-0.015635254 0.019220471 -0.06851892 0.06482548 0.0125855515 -0.034009222 -0.023904096 -0.04897867
0.07666174 0.0073845196 -0.06207853 -0.020495566 0.03791206 0.044659335 -0.032083046 0.040406734
0.08933914 0.08190979 0.092192724 -0.058987275 -0.05959536 -0.05229526 -0.00074102747 -0.042045046
-0.009395827 0.07185763 -0.0672614 -0.031201957 0.10050258 -0.06769201 0.007973025 0.04390964
-0.0017862605 -0.002489535 0.022374703 -0.0020906774 -0.046699658 0.030975917 0.03329801 -0.006221742
-0.0407251 0.037973642 0.027344158 0.021948516 0.0402423 0.056999512 0.032924745 -0.024863286
-0.0170806 -0.059308887 0.002624105 0.014662549 -0.0007698343 0.04441296 0.0070686964 -0.0661454
-0.008063251 -0.05003708 -0.07005161 -0.04261357 0.024836568 -0.023126319 -0.040821802 -0.05215313
-0.013208632 0.014356854 -0.0380747 0.037375234 -0.022739267 0.080646455 0.026876755 0.06860668

net.4.weight f4 [3, 256]
00000000: 069c 163d cb77 243e 5ce6 2c3e e138 263e
00000010: 78fc 9bbf a1a5 303b bf02 673e 0e40 3c3e
00000020: 8c7d 8fbc adb6 203c f2be 51bd efa6 123e
00000030: 14ce 843e 513c 9a3d ec70 173d 13e0 f7bb
00000040: b826 21bd 3f4c 733d 18df 61bd bcbc 3e3e
00000050: dcde 623e 6c1b 2e3e eba0 0dbd c43e 68bd
00000060: 1e1d 1d3e 53da cdbc 2a48 703e 1fd0 3cbd
00000070: 8238 dbbc a8ea 113e adba 3fbd 9cf3 533c
00000080: 8a8e 6b3d 2f12 1ebc 6478 e4bc 71f3 1a3d
00000090: e9d5 e4bb df61 523c ca4d 0ebd c4cb 1cbd
000000a0: ba5c f63b 19f8 4bbd 342d a6bc ed0d 563c
000000b0: 1634 423e 6e15 2dbd fe6e fa3b 3628 353e
000000c0: f695 de3c 9eac 39bc ca00 d8bb f7fa 8f3e
000000d0: 90f6 15bd fbd5 0cbd b54c 073c b724 6b3b
000000e0: a4ef 4e3e 22dd 403e e690 293e be2b 373e
000000f0: b3fb 1e3e f5c7 4e3e 2575 423d 8388 17bd
00000100: 19f9 f23d 1737 483e 6068 3abd 399c 5b3e
00000110: 0cd5 01bd cc62 f13c 30c5 5b3e 6179 293e
00000120: 4aec b4bc 312b c63c e630 2e3d 28cc f73d
00000130: 3a13 da3d f36d a13c aef3 30bd 9e46 d43c
00000140: 637c 48bd a763 233d a752 f53d 7ec5 173e
00000150: 2bdf 623d 7828 323e eb34 333e 0e3d 8f3b
00000160: 372c 503e 5064 173e 6489 80bc 8e48 c43c
00000170: b6eb 033e 53a7 7ebc 37b2 f83d c990 4c3e
00000180: 7262 f03d f69b 793d 06c6 1dbd 178a 283e
00000190: dfa3 213e 78e9 2abc b2aa 2f3e a480 2e3e
000001a0: bbd9 733e d893 843e fe35 533c ead1 15bd
000001b0: 122c e539 5a83 223d d54d 3bbd 6c63 1bba
000001c0: 3937 3c3a f9c5 c6be 17cc b9bb ae30 ed3c
000001d0: 91b7 8d3d f623 0c3f a48f a03d 6a07 3c3e
000001e0: 8062 7abc f5c6 d83d 4838 283e 8332 fe3d
000001f0: 7380 83bc b395 3e3e c3ef ff3b 5d49 2c3e
00000200: aa5e fa3d 114b 1c3e 8f2e 313e f5fd 3d3e
00000210: 8d53 3d3e acea 93bc 3dc1 03bd 2bba fc3e
00000220: 6219 5fbf 2221 b1bb b0a9 513e a851 633d
00000230: 971a 2f3e e682 5dbd 0242 433e 9f65 093e
00000240: 70c7 533e fe11 f0bc da4f c23d 0b73 17bc
00000250: ebcb 423e 687c 7f3c 864d 35bd 0ea8 38bd
00000260: 93d8 213e 5c83 12bd 92f6 353e 34f7 273e
00000270: 9fc0 53bd fe41 b4bc acc6 aebc b44e 603d
00000280: 356e d53d 3665 373e 8e74 2c3e e0a2 193c
00000290: f2d2 3cbd 9c2a ff3c 6ddc 2a3e 6f7c 4dbc
000002a0: d616 9bbc feaf da3d ac4a f73d f5c1 df3d
000002b0: 3ace 38bd de5a 02bd 7bcf 77bf 8461 d0bc
000002c0: a13e 43bd 9107 1dbd 5174 00bc 15dd 0e3e
000002d0: 34b1 a8be bf28 5c3e 1bf4 16bd c62d 173d
000002e0: e405 fb3c 6173 04bd 564d f6bc 3d71 8b3d
000002f0: 8e89 d73b cde7 a6bc 2863 873c 9d8e b4bd
00000300: 43c9 5b3e c0d8 2e3b 14b1 1ebd 857b d0bc
00000310: d904 2d3e 2c17 3abd 4036 09bd 5978 42bd
00000320: a7c6 debf 3408 013e 8028 fa3d c08f e9bb
00000330: d90f b23c 80fc 003a 5f9a 0a3e 6978 08bd
00000340: 9d16 63bd e253 403e 6412 a53c b38c 1e3d
00000350: f03b 363e 153f 6eba ee42 55bc b435 e93c
00000360: 015b 323e 60b2 463e e036 e13b 5021 1f3e
00000370: 609a bdbc 9682 c4bc 4e54 b5bf c8f8 123e
00000380: d8e9 53bf 8675 593e 70d9 aabe 84d9 f03c
00000390: a72c 593e 3a3e 3dbd 95b5 13bd e2fb 42bd
000003a0: cd3c 303e c5ce 02bd 1cb9 1c3b 5088 0f3e
000003b0: 51ed 053b 09b6 3c3e a393 1fbb e2f3 643d
000003c0: 660a 483e 8a71 31bd 9480 8cbc 2269 d43c
000003d0: 92a9 473e 50d5 70bd 2f08 f13b 298f 27bd
000003e0: d230 38bb 21d9 a5bc 45bb 00bc 7475 22bc
000003f0: e5db 023e da26 093e d5f0 3d3e d7f7 133e
0.03676989 0.16061322 0.1688475 0.16232635 -1.2186422 0.0026954191 0.22559641 0.1838381
-0.01751592 0.009809178 -0.05120749 0.14321493 0.25938475 0.07531036 0.036972925 -0.0075645535
-0.039343566 0.059398886 -0.0551444 0.18626684 0.22155327 0.17002648 -0.03457729 -0.056700483
0.15343139 -0.02512852 0.23465028 -0.046096917 -0.026760343 0.1424967 -0.046808887 0.012936499
0.057508983 -0.00964789 -0.027889438 0.03782982 -0.006983508 0.012840717 -0.034742154 -0.038280264
0.007518378 -0.04979715 -0.020285226 0.013064844 0.18965182 -0.042256765 0.007642626 0.1769112
0.027171116 -0.011332659 -0.006591891 0.28121158 -0.036612093 -0.034383755 0.0082580345 0.0035880038
0.20208603 0.18834355 0.1655918 0.1788778 0.15525703 0.20193465 0.047475 -0.036995422
0.11863918 0.19552265 -0.045509696 0.21446313 -0.031697318 0.029466055 0.2146194 0.16550209
-0.022085328 0.024190517 0.042527102 0.120994866 0.106481984 0.019705748 -0.04320114 0.02591258
-0.04894675 0.039889958 0.11978655 0.14821431 0.05538861 0.1739825 0.17500655 0.004371292
0.20329367 0.1478436 -0.015690513 0.023960378 0.12882885 -0.015542823 0.12143367 0.19977106
0.11737527 0.06093975 -0.038518928 0.16458927 0.15785168 -0.01043164 0.17154959 0.1704126
0.23813526 0.25894046 0.012891291 -0.036577143 0.0004371112 0.039676048 -0.045728523 -0.0005927596
0.00071798597 -0.38822916 -0.0056700814 0.028953876 0.06919778 0.5474237 0.07839897 0.18362203
-0.015282273 0.10584823 0.1642772 0.12411978 -0.01605246 0.18611793 0.0078105642 0.16824861
0.12225087 0.1526301 0.17302917 0.18553908 0.18488903 -0.018056236 -0.03216671 0.49360785
-0.87148106 -0.005405561 0.20474887 0.055497795 0.17099987 -0.054079913 0.19068149 0.13417672
0.20681548 -0.029305454 0.09487887 -0.009243737 0.19023101 0.015593626 -0.044263385 -0.045082144
0.15805273 -0.035769805 0.1776984 0.16402894 -0.05169737 -0.022004124 -0.021334969 0.054762557
0.10421411 0.17909703 0.16841337 0.009377211 -0.04609961 0.031148247 0.16685648 -0.012541874
-0.018931787 0.10678099 0.120747894 0.10925666 -0.045118548 -0.03182494 -0.96800965 -0.025437124
-0.04766715 -0.038337294 -0.007840232 0.13951524 -0.32947695 0.21499918 -0.03685389 0.036908887
0.030642457 -0.032336596 -0.030066174 0.06808708 0.006577677 -0.020374203 0.016526774 -0.08816264
0.21463494 0.0026679486 -0.038743094 -0.025449524 0.1689638 -0.045432255 -0.033499002 -0.047478054
-1.7404374 0.12600785 0.12214756 -0.007127732 0.021736072 0.0004920438 0.1353545 -0.033317957
-0.055441488 0.18781999 0.02015037 0.0387084 0.17796302 -0.00090883794 -0.013016446 0.02846799
0.17417528 0.19403982 0.0068729967 0.15540051 -0.0231449 -0.02398805 -1.4166353 0.14352715
-0.8277869 0.21236238 -0.33369017 0.029400595 0.2120844 -0.046201922 -0.036061842 -0.047603495
0.17210694 -0.031935472 0.0023914045 0.14016843 0.002043564 0.18428816 -0.0024349473 0.055896647
0.19535217 -0.04332117 -0.017151155 0.025929037 0.1949828 -0.05879718 0.007355712 -0.040908013
-0.002810527 -0.020245137 -0.007857149 -0.009915698 0.12779196 0.13393727 0.18548901 0.14450012

net.4.bias f4 [3]
00000000: c71d bb3c 0ff4 ca3a 0a00 0ebc
0.022841347 0.0015484112 -0.0086670015
