iteration(models)/Iterating Models/dqn_highway_2000.pt (torch, 344133 bytes, 6 tensors)

net.0.weight f4 [256, 70]
00000000: a7bd 173c dfaf 853d 37bd ffbd c03a 033d
00000010: e2bd 40bd ca69 a63d 8324 bbbd 5770 603d
00000020: b9fc 5bbd 4b7e ee3c 68e0 9bbd 07d8 a43d
00000030: 796b cebd 2531 cebd e494 7f3d 02f4 7d3d
00000040: a62b a93d 30e2 ae3d 77cd f3bc 93e8 3dbd
00000050: 9131 9cbd 1dd4 d5bd 20e7 02bd 6960 f6bc
00000060: 2835 bfbd c50e 883d 4124 8cbd 639f bdbd
00000070: 15ae b23d d7ff 6e3d ccc1 173c bab5 02bd
00000080: 915f 593d 5686 90bc e340 8b3c b1aa a8bd
00000090: 1bae e4bd 5c36 bbbb d890 38bb db9b 873d
000000a0: ad1b 183d 08c0 bebd bae6 c23b b7e6 2c3c
000000b0: 1c07 173b f421 5bbd cd58 183c fb99 09bc
000000c0: 989e d2bd 8e81 3b3d a4e8 6cbd 5948 d8bd
000000d0: 0213 3e3d 9369 b8bd 7b3a 783d 3e9a 613c
000000e0: e2ab a4bd e86a 04be d1c3 47bd 6193 043d
000000f0: f7f2 29bd 0c4f c9bd 92ed 9dbd e856 be3d
00000100: 7132 25bd 5b5f fc3c 530b 6f3d f264 7ebd
00000110: 7c71 0ebe 5e89 a23d 4806 26bd bb37 5d3c
00000120: 327b 3bbc 56ce 92bd 68d8 b3bd 73d3 5fbd
00000130: 6db6 a03d fcac e6bd c5e4 c13d aed4 843d
00000140: 99eb febd c8bd 70bd e165 7e3d f842 b1bd
00000150: 1138 f83c 7d5f 52bc bd39 3abc e296 1dbd
00000160: 5345 94bc aa87 613c ce2b c3bd cd1e 17bd
00000170: ad5f 663c 6ba9 e7bd 56b1 e8bd b7c9 423c
00000180: 6d3b e23c 0e3c 483d a912 1a3b 7a30 4dbb
00000190: 9e43 3b3d e640 a33d 4e43 d9bd 1c36 b9bd
000001a0: f5ef d2bd bb7c 09bd 27d5 50bd 1899 02be
000001b0: 5584 993c fb6a f23d ff1d 7d3d 59fa a33d
000001c0: 7168 333d f3e3 8dbd fb51 63bd ada7 753d
000001d0: 3852 693d 6a2f cbb9 875f 9d3d 90e6 8a3d
000001e0: ca26 f6bc c40f cbbd a0ed 313d a0d8 563d
000001f0: 852e 94bd 4238 a53d 7ec5 493d e2af 91bd
00000200: eef9 c0bd 4089 8d3d 8005 2dbc 716d 463d
00000210: 1644 3c3d 8b87 1a3d 02b4 d9bd 74f1 da3d
00000220: 1141 ed3d 1831 00bd 0d7a b03d 1632 b63d
00000230: 9f0f 3e3d cae2 30bc c51d 9b3c 89c5 cabd
00000240: bc70 dabd 30e7 19bd 3f97 b63d 728e e1bd
00000250: 5ff1 8d3c 0633 c63d c348 323d 579e 32bd
00000260: 287f 18bd 2a2e 31bd e345 493d bc13 afbd
00000270: 329c 213d c7f3 d33d 669a 153d 52c8 92bd
00000280: 8178 2b3c 731f a23c c031 e0bd 37ef e0bc
00000290: dae1 45bd c5cf a53c 8a5a 46bd 4696 783b
000002a0: ff88 17bc c138 89bc 0706 25bd 6ab7 253d
000002b0: dd2e babd 8060 c3bd ae6a 733b 7d83 05bd
000002c0: 9e76 823d 5a87 83bc 1b1f 0abc 97fe 163d
000002d0: 6844 573c 7418 b3bd f997 913d 27c9 e4bd
000002e0: 80f7 05bd 0a34 0b3d 8d80 eebc 4b67 babd
000002f0: 9aef a6bd dd90 923d 541e 7b3b 1ed6 653d
00000300: 73b6 7f3d f5ee 0f3d 6025 9cbd 367c d8bd
00000310: 653d 9abd 92c4 4fbd 4cbf b7bb bc11 94bd
00000320: ea95 dabc e9a0 e9bc d4fc aabc c3bf c6bd
00000330: 4888 9cbd 3e28 43bd 75af ba3d b4de 14bc
00000340: 2638 da3d a055 323d 546b 823c ff2e aa3c
00000350: 24b0 75bd 01dd 703d b968 643d 12e6 d9bd
00000360: 1f4e da3c f71b c23d 83bd 99bc 86a6 8f3c
00000370: 9069 f0bd f96a 2dbc c80c 1d3d 2b42 9f3d
00000380: 744b 4fbd 9e47 c5bd 054a bebd 7ff0 80bd
00000390: c2ea 403d df1a bc3d b118 abbd 0231 f3bd
000003a0: e398 c2bd 8bee b4bd 285d 363d ad2a a7bd
000003b0: 4fd5 9b3d 1246 f6bc eb83 24bd 81f6 8abd
000003c0: 9964 643d 5517 ddbd c404 ccbd fbc3 02bd
000003d0: 8fac 933d 886f b7bd f30b b53d 91d1 9a3d
000003e0: 5c60 d63d 0c76 f53c 5268 db3c f3a4 bdbd
000003f0: bc11 073d 37e4 9f3d 3abb 353c fbce af3d
0.009261525 0.065276854 -0.12487262 0.03203845 -0.047056086 0.081256464 -0.091378234 0.054794636
-0.053707812 0.029112956 -0.076111615 0.080490164 -0.100790925 -0.10067967 0.062397853 0.062000282
0.082602784 0.085392356 -0.02976106 -0.04636438 -0.076266415 -0.10440848 -0.0319587 -0.030075269
-0.093363106 0.06643442 -0.068428524 -0.09258916 0.0872461 0.058349457 0.009262513 -0.03191159
0.053069655 -0.017642181 0.016998714 -0.08235682 -0.111660205 -0.0057132673 -0.0028162505 0.06621524
0.03713577 -0.09313971 0.005947915 0.010553054 0.002304501 -0.053499177 0.0092985155 -0.008398528
-0.102841556 0.04577785 -0.05783905 -0.10560674 0.046404846 -0.09004512 0.060602646 0.013769684
-0.080405965 -0.12931406 -0.04877073 0.032367114 -0.041491475 -0.0982953 -0.077113286 0.0929392
-0.040331308 0.030807188 0.05836041 -0.062107988 -0.13910478 0.07936357 -0.040533334 0.013502057
-0.011442946 -0.07168262 -0.087815106 -0.054645013 0.07847295 -0.11263463 0.094674625 0.06485878
-0.124472804 -0.05877474 0.062108878 -0.086553514 0.030300172 -0.012840149 -0.011366305 -0.03847397
-0.018099463 0.013765255 -0.095298395 -0.03689461 0.014060897 -0.11311611 -0.11361949 0.011888913
0.027616227 0.048885398 0.0023509657 -0.0031309412 0.04571878 0.07971363 -0.106085405 -0.09043524
-0.102996744 -0.033566218 -0.050984528 -0.12753713 0.018739859 0.11836811 0.061796185 0.080067344
0.043800775 -0.069282435 -0.055498105 0.05997436 0.056963176 -0.00038754503 0.07684236 0.067822576
-0.030047793 -0.099151164 0.043439507 0.052452683 -0.072354354 0.08067371 0.04926061 -0.07113625
-0.0942267 0.06910944 -0.010560393 0.048444215 0.04596337 0.03772692 -0.10630037 0.10690585
0.11584676 -0.03129682 0.08617029 0.08896272 0.046401616 -0.010796258 0.018935094 -0.09900958
-0.106660336 -0.037573993 0.08915567 -0.110134974 0.017327009 0.09677701 0.043526422 -0.043608036
-0.03723064 -0.043256916 0.049138915 -0.08548686 0.0394556 0.10349231 0.0365242 -0.07167114
0.010465742 0.019790387 -0.10946989 -0.027457817 -0.048311092 0.020240674 -0.04842619 0.0037931367
-0.009248971 -0.016750695 -0.04028895 0.04045812 -0.0909097 -0.0953989 0.0037142443 -0.0325961
0.06370281 -0.016055752 -0.008430268 0.03686389 0.013138868 -0.087448984 0.071090646 -0.11171179
-0.032706738 0.033985175 -0.029114032 -0.09101733 -0.08151169 0.07156537 0.0038317638 0.0561124
0.062429857 0.035139997 -0.07624316 -0.10570566 -0.07531241 -0.050724573 -0.005607521 -0.07229945
-0.026682813 -0.02851911 -0.020872511 -0.097045444 -0.07643181 -0.0476458 0.09115497 -0.0090863
0.10655241 0.04353869 0.015920319 0.020774363 -0.059982434 0.058804516 0.055763934 -0.106395856
0.02664858 0.0947799 -0.018767124 0.01753546 -0.117388844 -0.010584586 0.038342267 0.077762924
-0.050609067 -0.096328005 -0.09291462 -0.06295871 0.047098882 0.09184813 -0.08354319 -0.11874582
-0.09501817 -0.08834561 0.044522434 -0.08162437 0.07609045 -0.030062709 -0.04016487 -0.06785298
0.05576 -0.10795466 -0.099618465 -0.031925183 0.07210647 -0.0895682 0.0884017 0.07559503
0.10467598 0.029963516 0.026783142 -0.09259977 0.032975897 0.078072004 0.011092002 0.085844

net.0.bias f4 [256]
00000000: 6b92 03be 7cf6 cabd 0ff1 f53c b930 b4bd
00000010: 4d09 fe3d 821b c4bd b358 9cbd e458 193e
00000020: f02c bb3c 42af c53d 48b3 653d 26bf 053e
00000030: 81e0 b43d 4526 a5bc 43f3 eebd 8d3e 353d
00000040: 22c4 863d f349 4d3d b1b4 41bd 9518 763c
00000050: ed5c f9bd c694 f3bd ba58 703d 2bc9 89bc
00000060: 7b02 c5bd 0189 79bd 0c75 8c3d b594 0a3d
00000070: 4660 1bbd 1cba 8abd 1647 f33c f811 213e
00000080: 8d97 953d e195 8b3d d732 743d 8c21 393e
00000090: bfc7 dabd 5d91 153b c9bc e93c af21 aa3c
000000a0: bf20 b8bd fac6 e1bd 62c0 abbd 6c6e edbc
000000b0: 5435 87be 54f3 c7bd a23f b2bd 9147 1f3d
000000c0: f677 22bc 2f05 bdbd a5db 343e d96b e63d
000000d0: 4a7e b03d ca06 02bd 2f1f d73d e57a 873d
000000e0: 2ec2 1e3d a15a acbd fc8e ce3d b006 583e
000000f0: df49 f3bc 9425 95bd 2389 2c3d 00fe c4bc
00000100: e0e4 0b3e 9839 1b3e d9e6 95bb 5608 d4bd
00000110: e16d c239 9dfe f5bd 05aa 363c 3803 673d
00000120: 2662 59bd bdd3 4dbd fa74 c33d 873b 703e
00000130: 106f d2bd 1816 f1bc 13b8 003e 651c 8bbd
00000140: b92d 84bd 3e58 aa3d aa47 3a3e 4744 753d
00000150: 7fb6 25bd 6553 e73c ed74 98bc 5bce 9e3d
00000160: 5906 3a3d 8675 643e 520e f13d 0202 38bd
00000170: 0215 9fbc e42c f0bc 63e9 823d dfe9 0f3e
00000180: 6de3 9abd ee6d 273e ef1e b0bd c917 393d
00000190: 78ba a5bd cbb5 9dbc 0a8c c5bc db81 4e3c
000001a0: 54e5 83bb 062b 083e e89c e13d c598 d6bb
000001b0: 65a7 093d 4dae 82bc 8fb4 8e3b c992 82bd
000001c0: 4167 f9bd 38f0 e3bd 8710 d5bc 8821 d5bd
000001d0: 5cf1 12bd 3600 e1bd 682c 93bd 7c2f b3bd
000001e0: a394 92bd 255f 8dbc e49f debb 2d3b 49bd
000001f0: 60d5 57bd 4407 f1bd 5c72 2b3d ce2c 473d
00000200: 64ad 07bd 3618 f83c 5cb4 10bd eecd fa3d
00000210: 9053 39bd 9165 f3bd fa2a 6a3c a851 2ebe
00000220: 6b14 d2bc 992a 89bd ad5c 0c3e bf72 c73d
00000230: 6619 463e e83d a13c 6667 4ebc fcb3 8a3d
00000240: 2022 763d bf5d 133d 3a1f f2bd 2bdb 41bd
00000250: b2a3 e1bc 52e6 1abd 6826 dcbc 62ec 013e
00000260: 9cf0 f33d 377a c93d 8937 91bd 8786 24bd
00000270: 950a ff3d b80c 503e 1916 01bc 1035 a53c
00000280: 8b8b f8bd fdb0 183e 5baf 3ebd 08ef 29bd
00000290: 4ff3 f3bd 1b6b acbc bdab cfbd 2db3 333e
000002a0: 8854 b8bd f592 943d 0ec6 4f3d 44fd 703d
000002b0: 2774 9d3d e86b e23d 2f64 f4bc fc89 ae3d
000002c0: 1f97 ad3d 4b38 fdbd 0bcb 583e d26a 923d
000002d0: 0b07 44bc 4885 8fbd 1dd0 2b3d e5cd 9d3c
000002e0: a556 013e a408 e7bd c17e 9d3d 02f8 dc3d
000002f0: 264d 01bd 23a6 debd 6d50 883d 5eb4 d63d
00000300: af69 613d df68 2c3d 507d cf3d fb4d 443d
00000310: c8fb 7c3c 3b4a 233d ac0b 373c 442f 183e
00000320: c368 f4bd ce79 583c ee75 f33d dc1b 88bd
00000330: b7bd 003e 41de c13d 30c2 d7bd e610 00be
00000340: 47e8 493b 1177 a0bd 5006 d73d 23df a6bd
00000350: 924e 8e3d 58e6 bf3c b1e3 183c 9c2a 803d
00000360: c0fd 38bd 61c2 0fbe 56f7 dd3d d4f7 57bc
00000370: acce d33d 7ef3 2c3d f927 afbc 0585 a1bc
00000380: d634 76bc 2eb9 5d3e 1a42 c5bd b5b4 babd
00000390: c965 603d 913b 173e 4e6b fc3d ea86 a4bd
000003a0: d49c 8c3d 53e1 3c3d 576f db3d 0b52 083e
000003b0: 5fbb 8bbd eb2a d0bd 7dec 0bbd 3ea7 0e3c
000003c0: 184e dd3d 26f6 a83d 4041 d33d 1e45 453e
000003d0: 94b3 e6bd 7eb6 843b 8ef5 1cbc 366e 5d3d
000003e0: a336 053d ffe3 e0bd 3b5c 7e3d dd96 99bc
000003f0: 754c 2cbd 9b47 b7bd 69aa 483d 895b 17bd
-0.12848823 -0.099102944 0.030022172 -0.087983556 0.12404118 -0.09575559 -0.076341055 0.14975315
0.022848576 0.096525684 0.05607918 0.13061199 0.08831883 -0.02015985 -0.11667492 0.044249106
0.06580378 0.05011935 -0.04729146 0.015020509 -0.12175927 -0.11893611 0.058678366 -0.016819557
-0.09619614 -0.060921673 0.068582624 0.033833224 -0.03793361 -0.06773779 0.029696982 0.15729511
0.07304297 0.068156965 0.059618797 0.18079203 -0.1068263 0.002282224 0.028532403 0.020768015
-0.08990621 -0.1102428 -0.083863035 -0.028983317 -0.26407874 -0.09763208 -0.08703543 0.03888661
-0.009916296 -0.09229504 0.17661913 0.11251039 0.08617838 -0.031744756 0.10503995 0.06615237
0.038759403 -0.084157236 0.10085866 0.21096301 -0.02969831 -0.07282558 0.04212297 -0.024046898
0.13661528 0.15158689 -0.0045746383 -0.103531525 0.0003708443 -0.12011454 0.011148934 0.056399554
-0.053072117 -0.050250757 0.09543796 0.23460208 -0.1027509 -0.02942948 0.12570219 -0.06792525
-0.064540334 0.08317612 0.181914 0.059879567 -0.040457245 0.028238008 -0.018610442 0.07754203
0.04541621 0.22310457 0.117703095 -0.04492379 -0.019419197 -0.02931828 0.06392171 0.14054058
-0.07562909 0.16350529 -0.0859965 0.0451887 -0.08092207 -0.019251725 -0.024114627 0.012604202
-0.004025141 0.13297662 0.110162556 -0.0065489733 0.033606905 -0.015952254 0.0043550204 -0.06375653
-0.12177897 -0.111298025 -0.026008857 -0.10406786 -0.03587471 -0.10986368 -0.07186204 -0.08749291
-0.071572565 -0.017257283 -0.006793963 -0.0491287 -0.052693725 -0.11768964 0.04185711 0.048626713
-0.033124343 0.030284982 -0.035328254 0.12246309 -0.045245707 -0.11884607 0.014292473 -0.17023337
-0.025644502 -0.06697578 0.13707228 0.09738683 0.19345626 0.01968284 -0.012597894 0.067726105
0.060091138 0.035978075 -0.11822362 -0.047328155 -0.027543876 -0.037817307 -0.026873782 0.12687829
0.11911127 0.09837764 -0.070906706 -0.040167358 0.1245319 0.20317352 -0.007878804 0.020166904
-0.12135991 0.14911266 -0.04655395 -0.041487724 -0.11911642 -0.021047166 -0.10140178 0.17548819
-0.09000498 0.07254592 0.05072599 0.058835283 0.0768817 0.11055738 -0.029832928 0.08522412
0.0847609 -0.12364253 0.21171205 0.071492806 -0.01196457 -0.07007843 0.04194652 0.019263217
0.12630709 -0.11280945 0.07690192 0.10789491 -0.031567715 -0.10871532 0.06655965 0.10483621
0.05503243 0.0420922 0.10131323 0.04792593 0.015440889 0.039865714 0.011172216 0.1486178
-0.11934044 0.013212634 0.11887728 -0.06645939 0.1257237 0.0946622 -0.10535085 -0.12506446
0.0030808614 -0.0783521 0.10499251 -0.08148029 0.0694858 0.023425266 0.00933163 0.06258127
-0.04516387 -0.14038993 0.10838191 -0.013181645 0.10342154 0.0422244 -0.021381365 -0.019716749
-0.0150272455 0.21652672 -0.096317485 -0.091164984 0.05478457 0.14768817 0.12325154 -0.08033545
0.0686585 0.046113323 0.10714596 0.13312547 -0.068228476 -0.10164436 -0.03416108 0.008706866
0.10805911 0.08250074 0.1031518 0.19264647 -0.112647206 0.004050075 -0.009580029 0.054060183
0.03252281 -0.10980987 0.062099677 -0.018748695 -0.042065103 -0.089492045 0.04899064 -0.03695253

net.2.weight f4 [256, 256]
00000000: 1de7 cb3c 05b2 d73c c88c a23c df92 f5bc
00000010: aaa0 a33d b29e 5cbd fe51 423c db85 813d
00000020: bb4d eb3c ec43 6b3d adde a73c 8790 02bf
00000030: 7145 693d 0fda 4abd 8403 173d 74c9 07bd
00000040: db5c db3b 60b4 083c c036 54bb 520e 6f3d
00000050: 4887 1b3e da06 233d 6f32 c4bd 327f 743d
00000060: 064b 213d 65a6 223c dc82 95bc 3277 3a3f
00000070: 3ca5 083e b99a d13c 2e6a e73d 5c79 913d
00000080: 20ea a63b 9896 d3bc acd6 193d c58b 1f3e
00000090: 3870 acbc 518d 59bd 450c de3c f8e4 8e3c
000000a0: 99fe 513d 0afb b1bb c067 6fbb 1655 8f3d
000000b0: 059e cfbd a92e 55bd d274 323d f9bd 8e3c
000000c0: e2a4 493d 4442 973c 9ad4 3cbd 3167 16bf
000000d0: 12e7 f2bb 4e5a 013d 346e 51bb 7f78 423d
000000e0: d07a f9bb 1b64 223d 0e31 98bc 10fe 863d
000000f0: b29f 79bd 2ba1 6f3b b57f 9a3d 9377 27bc
00000100: 9b9d 143e 83d8 d73e 082b f93c f956 37bd
00000110: f139 9abc 8358 89bb 17b9 c43e d10c cf3d
00000120: 2288 4b3e c0cf 06bd 8b79 e5ba b930 833d
00000130: 9002 01bf 7ac9 0e3c 1679 f7be da6c 2d3c
00000140: 90bc 7fbd dec8 01bd 932b 9a3d 71af aa3c
00000150: 95da c1bc b0f5 163c 4b69 9c3d e26a 4d3e
00000160: d626 05bd fd8a f03d 385d 533c eaff 4b3d
00000170: ca27 3fbd 8c14 1fbd 5c26 6e3d 4247 d23d
00000180: 6985 993d 3a73 9c3d fe1f a43c ead1 a8bc
00000190: 848e d23c b44b abbe 6a80 01bd f10f 60bc
000001a0: fad0 26bd 4435 2b3e 6a35 a63d e8bd 7abd
000001b0: b74f 133d 2ac7 2e3f 48bb b23d e0d8 bfbb
000001c0: 58ed 023d 10b7 aebb 1dee 87bb e3e9 97bc
000001d0: a79c 8b3d 2432 2b3d 3347 2f3c 61b0 3b3d
000001e0: 80a0 60bd 8179 eebd e6e8 f53c 5051 c93b
000001f0: 0ca2 5bbd 8aad 37bd f3c8 213e 0640 4a3c
00000200: 4b89 c23d d578 3b3d 87ec 4b3d 581e 183e
00000210: b7f4 0e3e 34c8 dbbe d986 c2bc 948e 863c
00000220: 2c20 93bc aa50 573d 265e 833e 8c2c 4cbc
00000230: 9798 ef3d 1035 9c3c d278 d7ba 3a7f bfbc
00000240: 6a62 dcbc e9db 1abd c128 96bc 24b2 88bb
00000250: 50f5 67bd 3727 eabc 4055 af3a 1558 c73d
00000260: e0ac 5c3d 38ad 673d e9b0 2cbd e09d b7bc
00000270: 1f5b 0cbd 4a2d b23d 0034 3abb e719 6d3e
00000280: 4935 d0bc c00f d63d de70 4fbd f1ac 813d
00000290: 4ecc 14bc 00e2 c039 900e 993b 63d0 1dbc
000002a0: 8e46 7f3d 6c36 17bd 340d 153e a457 61bd
000002b0: 16fc 073e 306b 96bd 20ed 4f3d 7637 1a3d
000002c0: b072 5d3d d2a0 b23d 7782 943d c2bd 19bd
000002d0: 0c8e 25bd 44a3 383d eab1 9b3d c300 f4bc
000002e0: df66 81be cb83 b7bc 9161 933c bfef a13e
000002f0: 1d72 593c d070 273d 1eb5 f9bb 2097 04bc
00000300: 4df4 d83c 0047 3f3e 68c7 0c3d 68a7 163d
00000310: 1fe2 47bd 5e39 8d3e 1e38 7ebc e667 043e
00000320: c1ce 653c 05c9 543d 7835 d33d 083c 783e
00000330: 6bf8 1c3e 50f6 003e 240b 24bd ba28 d63b
00000340: f4e6 fb3c f896 8cbc 20f8 eb3b d077 ef3b
00000350: cc03 5e3d 32e4 1fba cea4 5e3d 871e 9c3d
00000360: 1a1e 3b3d 5942 b9bc e7d9 5c3f 88c9 993b
00000370: 6cc8 e83d 0779 033d f10d 05bd 416e 553d
00000380: 8a2b f23c 7a2d 5a3d 8e52 833d a49b e23d
00000390: 6d24 773d e1f6 b53d f8fc 803d 7c00 5c3d
000003a0: c0c1 843e 8e8b 50bc 0b39 0f3e 08a0 a7bc
000003b0: d248 86bb 8ead 393d 1632 54bd 5255 20bd
000003c0: 62ef 193e d62c 8b3c 76d1 3a3d 594f fe3c
000003d0: 2ae6 613d 80c3 28bb 6a53 293d 041f eabc
000003e0: 62ef 203e def9 093d f466 d03d d8e7 1f3e
000003f0: a7c2 d33c 2048 743c 8e94 76bd a6a1 dd3d
0.024890477 0.026330004 0.01984252 -0.02997726 0.079896286 -0.05386228 0.011860369 0.06324359
0.028723588 0.057437822 0.020491922 -0.5100178 0.05695099 -0.049524363 0.036868587 -0.033151105
0.006694419 0.008343786 -0.0032381266 0.058363266 0.15188324 0.039801456 -0.09579932 0.059691615
0.03937819 0.009927367 -0.018250875 0.7283813 0.13344282 0.025586473 0.11299549 0.071032256
0.005093828 -0.025828645 0.037558243 0.15580662 -0.021049604 -0.053113285 0.02710546 0.017443165
0.051268194 -0.0054315375 -0.0036530346 0.06998651 -0.10137562 -0.05204645 0.04356844 0.01742457
0.04922951 0.018464215 -0.04610119 -0.5875121 -0.0074127996 0.031580262 -0.0031956555 0.047478195
-0.0076135173 0.03964625 -0.018578079 0.06591427 -0.060943313 0.003656457 0.075438894 -0.01022138
0.14513247 0.42157373 0.030416027 -0.044760678 -0.018826457 -0.0041914596 0.38422462 0.101098664
0.1987615 -0.03291297 -0.0017507536 0.064057775 -0.50394535 0.008715028 -0.4833457 0.010585034
-0.062435687 -0.031685703 0.075278424 0.02083561 -0.023663798 0.00921385 0.076372705 0.20060304
-0.03250774 0.1174526 0.012900643 0.049804606 -0.046668805 -0.038837954 0.05814205 0.102674976
0.07496149 0.07639165 0.020034786 -0.020607907 0.025702722 -0.33456194 -0.031616606 -0.013675676
-0.04072664 0.16719538 0.08115657 -0.061216265 0.035964694 0.6827265 0.08727127 -0.005854711
0.03196463 -0.0053318813 -0.0041482584 -0.018544143 0.068169884 0.041795865 0.010698128 0.045822505
-0.054840565 -0.11644269 0.030018281 0.0061437264 -0.053621337 -0.044843234 0.15799312 0.012344366
0.09498843 0.04576953 0.049786117 0.14855325 0.13960539 -0.4292618 -0.023745941 0.016425408
-0.017959677 0.05256716 0.25657767 -0.012461793 0.11699026 0.01906827 -0.0016439206 -0.023376096
-0.026902396 -0.03780738 -0.01832998 -0.0041716266 -0.056630433 -0.028583152 0.0013376847 0.09733597
0.053875804 0.05656168 -0.042160902 -0.022414148 -0.034266587 0.087000445 -0.0028412342 0.23154412
-0.025416033 0.10452223 -0.050644748 0.06331814 -0.009081913 0.00036789477 0.0046709254 -0.009632203
0.062323146 -0.036917135 0.14555818 -0.05501522 0.13279757 -0.07344663 0.05076325 0.037650548
0.054064453 0.0872208 0.07251447 -0.037534483 -0.04041867 0.045077577 0.07602294 -0.02978552
-0.25273797 -0.022401711 0.01799086 0.31628224 0.013271836 0.04087907 -0.007620468 -0.008092672
0.02648368 0.18679428 0.034369856 0.036780745 -0.04879963 0.2758283 -0.015516309 0.12930259
0.014026345 0.05194952 0.10312933 0.2424165 0.15329139 0.12593961 -0.040049687 0.0065356167
0.030749775 -0.017161831 0.0072012097 0.007307984 0.05420284 -0.00060993724 0.05435639 0.0762301
0.045683004 -0.022614645 0.8626999 0.004693214 0.113663524 0.032097843 -0.032484 0.0521071
0.029561777 0.053266026 0.064122304 0.11064842 0.060337473 0.08884979 0.0629825 0.0537114
0.2592907 -0.012728585 0.13986604 -0.020462051 -0.0040980363 0.04533153 -0.05180558 -0.039143868
0.15032724 0.016989153 0.045609914 0.031043695 0.055151142 -0.0025751293 0.041339315 -0.028579243
0.15716317 0.033685558 0.10175887 0.15615785 0.025849653 0.014909774 -0.060200267 0.108218476

net.2.bias f4 [256]
00000000: a4b5 f83d 0f17 ec3d 8e69 3e3e 64d2 28bd
00000010: db2a f8bc 0b29 3b3e e3b2 5bbc 1d4a 0d3e
00000020: b7dc 453d f336 123e ac79 1b3b 959c bf3d
00000030: e130 173d 18d7 79bd 4a58 f3bb 059c a13b
00000040: 747c 643d 4105 0dbc d138 c13c d9af d83d
00000050: 4477 89bd c077 8abd 7602 9bbb dd70 1abd
00000060: f590 5f3c 05ef 143d 7527 4e3e 58e1 353e
00000070: 7815 2d3e a6b6 a33c 688d 43bd 85d1 79bd
00000080: b32c c03b 60d6 64bc 459e f63c 1877 28bc
00000090: 80ee 6d3a 5475 83bc b963 a63d d428 8b3c
000000a0: cf37 f83d bebd 80bd e77d 5abd ce11 4abd
000000b0: 0352 5c3e b2bf 513d 8b56 e03d ccf9 2e3d
000000c0: bbc3 ea3c 4329 1cbc efc3 f9ba ef89 17bd
000000d0: 526d d5bc 87ec 053e 24e8 b73c 4941 66bd
000000e0: b8dd 463d 38a7 2e3e c632 1f3e e86a b33c
000000f0: b4e4 4ebd a5d8 403e e739 3e3e de9a 333c
00000100: 2b4e 373e c078 db3d 0101 043e dab2 563e
00000110: d13a f63c e800 57bc c03c 2ebc 7e19 e4b8
00000120: 8bbb b93c 6726 97bd 389b 3f3d 434f 89bc
00000130: ee56 01bd 22bc 383d 18e3 2b3e a8d1 4fbd
00000140: dff0 62bd 61a5 f43d 751c 01bb c873 593d
00000150: 0bd3 25bd 2e2f 233d a848 1b3e 7b84 183e
00000160: b0a1 4fbd 01fb f43d 29ac 38bd fcc9 1a3e
00000170: 34f3 0ebd 1373 213d 62b0 fa3d 671f 70bd
00000180: 6e99 4a3c 1bb1 873c 5c23 653c d8f9 573e
00000190: fd92 1b3d 1a22 033e 5c8d 33bd a5fb 76bd
000001a0: e535 203d c854 cbbc 3ee3 963b 909d fbbc
000001b0: 53ed 42bd 87e8 cc3c 1218 213d 5dc9 eebc
000001c0: 7d70 e5bc a053 28bd c058 feba 3107 283d
000001d0: b50b 4b3e d56a 033d 3821 eb3d 2b5a de3c
000001e0: 62cf 33bd 1167 7fbd f333 25bc b1e5 abba
000001f0: 5ba0 6ebd fe69 363c 8056 4d3e 5c89 033e
00000200: aec3 4a3e e8f6 b4bc 784b 4c3e e94a e1b9
00000210: 3601 e8b9 f1d1 eb3b 2cfd 673d 3c75 1c3e
00000220: 94da 4b3c 471b 1d3d 4d93 083e 681e 453c
00000230: a1c9 4cbc 03bf 0bbd 8ef0 0dbb 62d5 b8bc
00000240: 8440 a6bc bf32 db3b c997 14bd 89f2 383e
00000250: 2197 d2bc e49e 1f3c 8f68 133e 07b3 c5bc
00000260: dbe3 94bc 9528 253e da8c ce3c baa5 25bd
00000270: dc7d 9b3c 8cd8 b6bd 80f4 85bd f125 073e
00000280: c414 dbbb 9104 3a3e 7a27 fe3d 732a 7bbd
00000290: 1093 7cbd 7804 3b3e 9cc1 433e d2d0 c9bc
000002a0: 278d 80bb 5003 c8bd e47d d8bc bdff b43d
000002b0: 4ad2 de3d d02f e0bc 5a38 c93c 8079 c23c
000002c0: c516 1b3e 3ead 28bd e0a1 7a3c 469d 333e
000002d0: 303e 0bbd d6c3 babd 502b 353e c68b 803b
000002e0: 40e8 8ebc bf4f de3d d971 003d 4ab2 333e
000002f0: a533 623e dd86 e03d c47c 3d3d 6445 233e
00000300: 519d babc bd9b 453e fc3b 43bd ac17 513e
00000310: bab9 d63d 3b0d 4b3e 6a6f bfbc 9a7f 333e
00000320: 268b cfbc 0431 d13c 2cbc 1b3e e4f8 113c
00000330: 4a73 5ebd 1436 173c 3c0d f33b 1dbf 0b3e
00000340: fb19 263d 7046 4c3b 18aa 273e a8d2 2d3e
00000350: 6f23 31bd b036 60bd 7273 d83b 8d12 013e
00000360: aa1b 9d3c 1131 0a3e 154f 8b3d 2ed5 b0bc
00000370: 082e 31bd b463 29bd 8f50 183e 9164 d33c
00000380: f0cf 133e 7712 be3c f3a5 90bd bd20 93bc
00000390: 8691 91bd 542e 83bc 9cfe 0a3e a8bd 12bd
000003a0: 57b0 463e d0e3 e63d b32e 9cbb cd35 153e
000003b0: a430 3fbd 573f 0abc e9d9 01bd 8e3b 553d
000003c0: 1456 813d 2bfd 253d 973e a1bd 5ab8 b2bc
000003d0: 800d 74bd fb85 2dbd 83b1 363e ba19 5ebd
000003e0: ff5b 0e3d fc8e 95bd 453a ae3b e6d2 a0bb
000003f0: 6683 1f3e ad42 04bd 779e 57bd a466 c5bc
0.1214402 0.115278356 0.18594953 -0.04121627 -0.030293873 0.18277375 -0.013409349 0.13797803
0.048306193 0.14278774 0.0023723645 0.093560375 0.03691185 -0.060996145 -0.0074262964 0.004931929
0.05578275 -0.00860721 0.023586662 0.10580415 -0.06712201 -0.06761122 -0.004730518 -0.03770529
0.0136454 0.03636076 0.20132239 0.17761743 0.16902721 0.019984554 -0.047742277 -0.06099083
0.0058647036 -0.013967127 0.030104766 -0.0102823 0.0009076372 -0.016047157 0.08124489 0.016987242
0.1212002 -0.062861905 -0.053342726 -0.049333386 0.2151566 0.051208206 0.10954007 0.042718694
0.028657785 -0.009531322 -0.0019055585 -0.036996778 -0.026053105 0.1307851 0.02244956 -0.056214605
0.04855129 0.17055976 0.15546712 0.021901563 -0.050511077 0.18832643 0.18576775 0.010962216
0.17900912 0.107163906 0.12891008 0.20966664 0.030057343 -0.013122775 -0.010634601 -0.000108766355
0.022672435 -0.073803715 0.046778888 -0.016761428 -0.031577043 0.045101292 0.16785848 -0.050737053
-0.055405494 0.11945606 -0.00197008 0.053088933 -0.04048447 0.039839916 0.15164435 0.14894287
-0.050691307 0.11961938 -0.04508606 0.15116113 -0.034899905 0.039416384 0.122406736 -0.058623698
0.012365682 0.016563943 0.013985481 0.21091402 0.037981976 0.12805977 -0.043835983 -0.06029858
0.039113898 -0.0248207 0.004604726 -0.03071478 -0.04758961 0.025013221 0.039329596 -0.029148752
-0.02800774 -0.041095376 -0.0019405112 0.041022483 0.19828685 0.032084305 0.11480945 0.027142605
-0.043898948 -0.06235415 -0.010083186 -0.0013114718 -0.058258396 0.011133669 0.20052528 0.12845367
0.19801208 -0.02209039 0.19950664 -0.00042971157 -0.0004425139 0.007196658 0.056637928 0.15279096
0.01244225 0.03835609 0.13337441 0.012031175 -0.012499244 -0.03411771 -0.0021658274 -0.022562686
-0.020294435 0.006689399 -0.036277566 0.1806127 -0.02570683 0.009742472 0.14395355 -0.024133218
-0.018175056 0.16128762 0.025213648 -0.040441252 0.018980913 -0.08928022 -0.06540775 0.13198067
-0.006685825 0.18165804 0.12409873 -0.06131978 -0.061663687 0.18263423 0.19116825 -0.024635706
-0.0039230767 -0.09766257 -0.026427217 0.08837841 0.10879953 -0.027366549 0.024563003 0.023739576
0.15145405 -0.04118084 0.015297383 0.17540464 -0.033994853 -0.09119384 0.17692304 0.0039229123
-0.01744473 0.10855054 0.031358574 0.1754848 0.22090013 0.10963223 0.046261564 0.15944439
-0.022780092 0.1929769 -0.047664627 0.20419186 0.10484643 0.19829266 -0.023368556 0.17529145
-0.025334906 0.025536068 0.152085 0.008909438 -0.054309167 0.009229202 0.007417349 0.13647123
0.04055212 0.0031169914 0.1637348 0.1697489 -0.043246683 -0.054739654 0.006605559 0.12604733
0.01917823 0.1349528 0.06802193 -0.021586027 -0.04325679 -0.04135485 0.1487448 0.02580479
0.1443479 0.023202164 -0.07062902 -0.017959947 -0.071078345 -0.016013302 0.13573688 -0.0358254
0.19403206 0.112739205 -0.004766309 0.14571305 -0.046677247 -0.008437953 -0.031701956 0.05205875
0.06315246 0.040524643 -0.07873266 -0.021816421 -0.059583187 -0.0423641 0.17841153 -0.054223754
0.034755703 -0.07302663 0.005317005 -0.0049079536 0.15577468 -0.03229015 -0.05264136 -0.024096794

net.4.weight f4 [5, 256]
00000000: 5ee1 ab3d 03e6 743d e7a4 1d3e 0470 523d
00000010: 88db c53c 799a 973d 00fe 34bd a1e1 d33d
00000020: f255 753d 1ea4 f23d 6e53 f83c acd9 0a3c
00000030: 387f 55bd eebd 11bd 318e 49bd e0d2 8cbb
00000040: 26c1 55bd a013 733d 5683 6dbd 77b0 d63d
00000050: 1ad6 efbc 6525 203d 6017 6dbd 5990 e9bc
00000060: 237b fabe eb59 113c 23fd ef3d 5920 403d
00000070: 41ca 0d3e ae50 01bd d4d3 6fbd d137 7d3b
00000080: aa46 06bd 4622 7b3d b0d8 54bd 7003 43bd
00000090: 88a8 c53c fa56 7dbd 6c10 b73d 8114 debb
000000a0: 4975 ea3d 9026 27bc 9572 173d 20a5 afbc
000000b0: 5fe5 a63d a4bb 373d 89d9 053e 3b9d 54bc
000000c0: 8e18 613d d9f7 76bc e8c1 1ebc 35dd 10bd
000000d0: 00e8 9f3b 6344 023e 9c08 1e3d eeda 3e3d
000000e0: 871b 0f3d 1ada c73d 0d92 fd3d c0a4 f5bc
000000f0: d649 2b3c aed6 cf3d 1db9 003e 5b34 f3bc
00000100: 7552 763d 6ac6 0f3e 0976 f63d 88fb 053e
00000110: f758 993c fece 64bd d022 41bc fc70 1dbc
00000120: 34b8 3bbd f343 063c c09f f83b 6524 2e3c
00000130: 302a 43bc 3973 213d b3e4 ec3d 1eb6 09bd
00000140: 9c82 7ebd 520f f63d 2b68 a13a 6b82 90ba
00000150: 9778 333d 13ac 26bd 6a6b 953d 529e 313e
00000160: f01e 71bd 2b4f ba3d 7330 92bc 9f1f 233e
00000170: e4d3 65bd 6ddb 0b3d 5804 143e 0e88 6f3c
00000180: 95e2 2ebd 6c53 403d d4ae 583d 716f c73d
00000190: 1f0b b83d 2e1b 063e 5a98 91bc 8f09 3abd
000001a0: 6803 88bc a40f bdbc cf70 e8bc 5097 7abd
000001b0: 12c4 d3bc c8ba 3f3d 925d 03bd 6ce2 0a3d
000001c0: 1f1e ff3c 69ba 2a3c f06b 9a3c 5b5e 38bd
000001d0: 3270 213e 40ce 07bb c2e2 133e 3966 873b
000001e0: 0006 fdbc f48b 013d 2842 4dbc c673 d63c
000001f0: 1f3e 653d 25dd 5fbc 9268 0d3e 20b4 c23d
00000200: c392 103e 9251 243c 6b39 143e 2f12 6d3c
00000210: 0ab6 a33c 96e7 3e3d ee29 203d ca8f 283e
00000220: 3856 0b3c 893f e9bc bfe5 f33d afcc 02bd
00000230: 7726 aa39 77b5 3e3d 99e4 66bd 2bc0 d43a
00000240: 47eb 323d 8e21 a03d 2810 9ebc 7480 8e3d
00000250: af5d 36bd d29a 53bb 39d3 6f3d b025 9fbc
00000260: 78de 00bd 9415 b63d 0609 d7bc 0491 64ba
00000270: afd7 10bd fdc0 ddba f8ce 95bc c763 293d
00000280: b1ee 903c 7fb8 1d3e 81e0 e23d f7d8 76bb
00000290: a18e f8bc 46d8 bb3d ece1 b23d 4b7b 633b
000002a0: 48a2 04bc 41c7 b6bd e179 6cbc 0f76 da3d
000002b0: 2b54 0f3e c49a 56bd 4a83 3a3d 0068 80b8
000002c0: a513 053e a005 f4bc 4895 ca3c 741c c53d
000002d0: a74b b7bc 4178 8c3c f305 213e 9869 eebc
000002e0: 002a a4b9 e63b 203e 25d0 6a3d 67de 293e
000002f0: 41fe 0c3e 502b 023e aa71 9f3d f3ed d33d
00000300: 0c8f 4fbd 0c84 283e 3ffd 7c3c 144c fa3d
00000310: e9b9 f43d 7210 943d e90d 87bc 0995 b83d
00000320: 26d4 20bc 1a94 d63c 6727 1d3e 1219 253d
00000330: 85a8 72bc 3246 49bc 047d 813c 92b5 193e
00000340: 97fc ebbc 9944 543d 9559 303e 875c 203e
00000350: ddd2 153d 08d4 5d3d 40b5 20bd 4108 a13d
00000360: 5829 71bd 0bf8 033e 220c e03d 344c 2fbd
00000370: a5e8 4f3b 54c5 ad3c c05d 7d3d 3fbe 753c
00000380: ee28 0b3e e219 fcbc c200 733d c64e 47bc
00000390: 89c9 1f3c 5ae7 403c 242f 823d 66ea 27bd
000003a0: 1ea6 1e3e 31ca 653d eea6 d83e 9762 133e
000003b0: 5452 223d dc41 5bbc 9c09 3dbd c632 2fbd
000003c0: 98bd 133e 76f3 2fbd 7be8 0e3c 83ae 8ebc
000003d0: a4c2 cd3c f4ae 3ebc 9d8d 873d ce21 0b3d
000003e0: 2e83 58bd 154c 023b c2ba 41bd 5503 3bbd
000003f0: cf8b 1a3e 18dc 363c ef4e f63c 601a 1c3c
0.08392595 0.05978967 0.15394937 0.051376358 0.024152532 0.0740251 -0.044187546 0.1034577
0.059896417 0.11847709 0.03031322 0.008474749 -0.05212328 -0.03558152 -0.04920787 -0.004297599
-0.052186154 0.059344888 -0.05798658 0.10482877 -0.029276896 0.039098162 -0.05788362 -0.028511213
-0.4892207 0.008871536 0.11718204 0.04690585 0.13846685 -0.031571083 -0.058551624 0.0038638005
-0.032782234 0.061311983 -0.05196446 -0.0476107 0.024128214 -0.061850525 0.08938679 -0.0067773466
0.114481516 -0.010202065 0.03697451 -0.021441042 0.08149218 0.044856682 0.13071264 -0.01297694
0.054955058 -0.01507374 -0.009689786 -0.03536721 0.0048799515 0.127214 0.03858243 0.046595506
0.03493836 0.097583964 0.123813726 -0.029985785 0.010454616 0.10148369 0.12570615 -0.029688051
0.06013723 0.14040533 0.12034232 0.13084233 0.01871918 -0.055861466 -0.011788085 -0.009609457
-0.045829967 0.008194911 0.007587403 0.010628794 -0.011911914 0.039416526 0.115670584 -0.033620946
-0.062136278 0.12014641 0.001231437 -0.0011025196 0.043816175 -0.040691447 0.07295878 0.1734555
-0.058867395 0.09097131 -0.017845368 0.15930031 -0.056110278 0.034144808 0.14454782 0.01461984
-0.042696554 0.046954557 0.052901104 0.09738053 0.08986496 0.13096306 -0.017772842 -0.045419272
-0.016603187 -0.023078747 -0.028374104 -0.06117946 -0.02585033 0.046808988 -0.032071657 0.03390734
0.031142293 0.01042042 0.018850297 -0.04501186 0.15765455 -0.00207223 0.1444197 0.004132059
-0.03088665 0.03162761 -0.01252798 0.026178252 0.055967446 -0.013663565 0.13809422 0.09507012
0.14118485 0.0100292135 0.14475028 0.014469667 0.019984264 0.046607576 0.039102487 0.16461101
0.008504443 -0.028472679 0.11909055 -0.031933483 0.00032453585 0.046559777 -0.05637035 0.0016231587
0.04368141 0.078189 -0.019294813 0.06958094 -0.044522937 -0.0032288325 0.058551047 -0.01942715
-0.031462163 0.088908345 -0.02624942 -0.0008719119 -0.035361942 -0.0016918477 -0.018287167 0.04135492
0.017691942 0.15402411 0.11077977 -0.0037665942 -0.030341448 0.0917211 0.087344974 0.003471094
-0.0080953315 -0.089247234 -0.014433355 0.10667049 0.13996951 -0.05239369 0.045535363 -6.122887e-05
0.12995775 -0.029787838 0.024729386 0.09624568 -0.022374941 0.017147185 0.15724926 -0.029103085
-0.0003131181 0.1564785 0.05732741 0.16588746 0.13768865 0.12711835 0.077853516 0.103481196
-0.05067353 0.16456622 0.015441238 0.12221542 0.11949522 0.07229699 -0.016486125 0.09012801
-0.009816205 0.026193667 0.15347062 0.040307112 -0.014810686 -0.012284802 0.015806682 0.1501067
-0.028806968 0.051823232 0.17221673 0.15660296 0.036578048 0.054157287 -0.039235353 0.078629024
-0.05887732 0.1288759 0.10939814 -0.042797282 0.003172436 0.021212257 0.061856985 0.0149989715
0.13589832 -0.03077406 0.059326895 -0.012164777 0.00975264 0.0117739085 0.063566476 -0.040995024
0.15493056 0.056101028 0.42314857 0.14393078 0.039629295 -0.013382401 -0.046151742 -0.04277303
0.14427793 -0.04295679 0.00872242 -0.017417198 0.025117226 -0.011638392 0.066188075 0.033967786
-0.052859478 0.0019881774 -0.047297247 -0.045657475 0.15092395 0.011160873 0.030066935 0.009527773

net.4.bias f4 [5]
00000000: 0779 603e cf59 013e 4bbb 2e3e 9f6d a23d
00000010: de4a 673e
0.21921168 0.12631916 0.17063634 0.07931065 0.22587153
