iteration(models)/Iterating Models/dqn_highway_800.pt (torch, 344133 bytes, 6 tensors)

net.0.weight f4 [256, 70]
0.02526255 0.19197188 -0.12999743 0.11588341 0.25837395 0.045216285 0.107477255 -0.08164442
0.15390724 -0.0629268 0.064416364 -0.13978204 -0.13986024 -0.06898931 -0.10881559 0.14031467
0.091749914 -0.10189406 -0.13226752 -0.16423365 -0.054853257 -0.09037588 0.040290516 -0.38667536
-0.11734112 0.05047357 -0.13206606 0.09918 -0.16789587 0.07590193 -0.07840983 -0.118528344
0.019955484 0.02312761 0.048710097 -0.048120495 -0.025014436 0.10461206 -0.0400351 0.26221904
0.055478424 0.19976461 -0.16304784 -0.016806804 0.099681616 -0.069976635 0.4519497 -0.03909784
0.50198495 -0.05215497 0.018741412 0.09617474 -0.15692239 0.558147 -0.099403225 0.60155946
-0.00985118 -0.021360643 -0.2883388 -0.074219614 -0.062081445 0.02712119 -0.022002261 0.011824381
-0.15520419 0.049427528 -0.044932757 0.031929236 0.036205865 0.07921174 -0.10646437 0.026744327
-0.002782178 -0.0068624485 0.060741555 0.01206188 0.15887403 -0.1030322 -0.018204482 0.05415798
-0.021297155 -0.008086257 -0.107231274 -0.032941643 -0.0130208125 -0.0018396435 -0.12106337 -0.065095045
-0.013828454 -0.0058183228 -0.04839562 -0.12816842 -0.017432675 -0.11950827 -0.03164784 0.28013882
-0.06709253 0.14575195 -0.11345151 -0.07382653 -0.087826766 -0.026684068 0.06739591 -0.02142387
-0.07022872 -0.0908265 -0.037660748 -0.032973513 -0.031011088 -0.11170436 -0.037109002 -0.12388939
-0.04674776 0.058888547 -0.01606824 0.026319873 0.042665124 -0.03438831 0.009471652 -0.100544944
0.026462708 0.03304502 0.08779211 0.1082352 0.044728246 0.08542535 -0.020771341 0.057746254
0.03334453 -0.04143847 -0.1253286 -0.10336914 -0.13970026 -0.020222936 0.024054548 -0.043943796
0.029337415 -0.040829908 0.029670143 -0.001112107 0.09469972 -0.2581084 -0.075717404 -0.071682945
-0.0731328 0.11668515 0.09410315 -0.041517805 -0.06994374 0.023975141 0.22030641 0.21572945
-0.035538618 0.17603962 0.032767985 -0.056781787 -0.044349257 0.17398165 0.14831091 0.112142526
0.16456608 0.0038549465 -0.14290328 0.030786972 0.1711408 0.15206596 0.15559427 0.03919111
0.15361449 -0.0811654 -0.11888388 -0.06377235 0.33415857 0.08251625 0.10077907 0.018405972
0.033222776 0.07372993 -0.0054881475 0.36472094 0.10772253 0.40164462 -0.050649453 0.019920863
-0.101396605 0.122870974 -0.27394897 0.15300535 -0.26419184 0.008122251 0.010953324 -0.085341975
-0.022790596 -0.021565681 -0.043627527 0.0535075 0.037909653 -0.064999886 0.16623022 0.09555494
0.13263938 0.05549033 -0.035048656 0.035792276 0.03739919 0.14357433 -0.017732466 -0.07539248
0.15973154 -0.0020327223 0.019142894 -0.101702005 0.08865179 -0.12794082 -0.18615241 -0.018278524
0.060459904 0.016970376 -0.11978136 0.042609423 0.07004412 0.04165832 0.06247126 0.15748125
0.12463467 0.11417695 -0.014393505 0.05033996 -0.043945387 0.1743318 0.084441945 0.084219344
0.0208911 -0.10740504 0.12991534 -0.0012858192 0.16386442 -0.07969556 0.09326287 -0.078603916
0.051327083 0.079113185 0.14086102 0.17662218 0.0027538955 0.0044366466 0.08942332 0.043418
0.17114955 0.09495853 0.13361429 0.031872056 0.05760302 -0.008508389 0.020100117 0.17727785
00000000: 68f3 ce3c 4794 443e 0c1e 05be 4854 ed3d
00000010: 9749 843e b634 393d 091d dc3d 3135 a7bd
00000020: dc99 1d3e c4df 80bd baec 833d 0623 0fbe
00000030: 8637 0fbe 444a 8dbd b5da debd a6ae 0f3e
00000040: 61e7 bb3d d5ad d0bd 2371 07be de2c 28be
00000050: cfad 60bd fd16 b9bd ab07 253d 50fa c5be
00000060: 8b50 f0bd 60bd 4e3d 533c 07be e21e cb3d
00000070: e5ec 2bbe 7972 9b3d 5595 a0bd fdbe f2bd
00000080: af79 a33c 1d76 bd3c 3d84 473d ff19 45bd
00000090: 13eb ccbc d93e d63d d8fb 23bd 9341 863e
000000a0: 583d 633d 188f 4c3e 03f6 26be 6cae 89bc
000000b0: e025 cc3d e94f 8fbd f365 e73e 0f25 20bd
000000c0: 1682 003f 73a0 55bd 9787 993c 43f7 c43d
000000d0: 43b0 20be b9e2 0e3f eb93 cbbd cdff 193f
000000e0: d866 21bc 84fc aebc 25a1 93be 7400 98bd
000000f0: 1d49 7ebd 422d de3c 163e b4bc 0cbb 413c
00000100: d9ed 1ebe 8574 4a3d 690b 38bd 3bc8 023d
00000110: 9a4c 143d c439 a23d fe09 dabd eb16 db3c
00000120: 3455 36bb 64de e0bb 23cc 783d 319f 453c
00000130: e0af 223e 8c02 d3bd 9121 95bc c2d4 5d3d
00000140: 5f77 aebc 387c 04bc 129c dbbd d1ed 06bd
00000150: 3f55 55bc 3120 f1ba 12f0 f7bd 8d50 85bd
00000160: bd90 62bc a1a7 bebb 7c3a 46bd 953e 03be
00000170: f8ce 8ebc c0c0 f4bd 2aa1 01bd 5b6e 8f3e
00000180: cf67 89bd 0040 153e 4459 e8bd 5d32 97bd
00000190: 85de b3bd 8c98 dabc de06 8a3d 1d81 afbc
000001a0: 13d4 8fbd 3e03 babd 2842 1abd 3c0f 07bd
000001b0: f70a febc 41c5 e4bd 9cff 17bd b8b9 fdbd
000001c0: 947a 3fbd 1e35 713d 8ba1 83bc c69c d73c
000001d0: a0c1 2e3d c2da 0cbd fd2e 1b3c 82ea cdbd
000001e0: 52c8 d83c 375a 073d 5acc b33d 6baa dd3d
000001f0: f734 373d 7cf3 ae3d a928 aabc 5687 6c3d
00000200: 4694 083d 63bb 29bd 2456 00be 33b3 d3bd
00000210: 960d 0fbe 92aa a5bc 0b0e c53c 69fe 33bd
00000220: 0555 f03c 433d 27bd cd0e f33c 1ec4 91ba
00000230: edf1 c13d c926 84be ba11 9bbd 82ce 92bd
00000240: a6c6 95bd a0f8 ee3d 27b9 c03d 930e 2abd
00000250: aa3e 8fbd 8467 c43c 0198 613e 2ee8 5c3e
00000260: f190 11bd bb43 343e b937 063d 0594 68bd
00000270: 91a7 35bd 3f28 323e d1de 173e fbaa e53d
00000280: 0384 283e 45a3 7c3b 3d55 12be f634 fc3c
00000290: 893f 2f3e 2eb7 1b3e 1b54 1f3e db86 203d
000002a0: 1e4d 1d3e 0c3a a6bd 6479 f3bd 149b 82bd
000002b0: d516 ab3e 48fe a83d 4265 ce3d 1fc8 963c
000002c0: 9b14 083d b8ff 963d ebd5 b3bb b4bc ba3e
000002d0: a19d dc3d 5da4 cd3e cd75 4fbd 1431 a33c
000002e0: 06a9 cfbd c7a3 fb3d 0a43 8cbe 6fad 1c3e
000002f0: 2744 87be 3113 053c 9275 333c c6c7 aebd
00000300: 58b3 babc 83aa b0bc c7b2 32bd ae2a 5b3d
00000310: 2747 1b3d a91e 85bd 4138 2a3e 4fb2 c33d
00000320: 9ed2 073e d449 633d 2e8f 0fbd ec9a 123d
00000330: e52f 193d 2605 133e ad43 91bc 5f67 9abd
00000340: aa90 233e 6c37 05bb 8fd1 9c3c 2449 d0bd
00000350: 128f b53d eb02 03be bd9e 3ebe d8bc 95bc
00000360: cea4 773d 7505 8b3c ee4f f5bd 3887 2e3d
00000370: 4b73 8f3d eaa1 2a3d dde1 7f3d c442 213e
00000380: 7640 ff3d 9bd5 e93d bcd2 6bbc 4631 4e3d
00000390: 1400 34bd 0984 323e e6ef ac3d 317b ac3d
000003a0: d023 ab3c 2cf7 dbbd 8708 053e ef88 a8ba
000003b0: 13cc 273e 6d37 a3bd 9b00 bf3d 17fb a0bd
000003c0: 593c 523d 1806 a23d df3d 103e 72dc 343e
000003d0: b37a 343b 4a61 913b 9323 b73d 13d7 313d
000003e0: d441 2f3e 9e79 c23d 2fd2 083e 468c 023d
000003f0: 25f1 6b3d c566 0bbc 00a9 a43c 5388 353e

net.0.bias f4 [256]
-0.1382418 0.070384875 0.075948894 0.16943772 0.036808744 0.10253579 -0.09900181 0.015452783
-0.030563962 -0.074627645 0.1015971 -0.097588316 0.15385795 0.08836156 0.07324853 -0.070803486
0.17988329 -0.011738751 -0.11421122 -0.05786123 -0.09051547 -0.101062834 0.07235054 0.00392764
-0.09589612 -0.07443845 -0.051357836 -0.12571788 0.042439714 0.027410839 -0.038055357 -0.07382117
-0.0100569585 -0.10323633 0.17411584 -0.09461039 0.01919176 -0.035638023 -0.006086044 0.09368907
0.0158896 -0.047527142 -0.051524963 -0.030727915 -0.000902412 -0.08809238 0.06638243 -0.039386824
-0.0007578494 -0.006414641 0.06528812 0.015346615 -0.06505036 -0.05802682 0.09328747 -0.056440067
0.029250896 0.058245137 0.007308419 0.20028889 0.079014376 0.14234452 0.09410217 0.05328304
0.13525766 0.088660285 -0.0050876103 -0.06224661 0.07935049 0.02263812 -0.098860785 -0.07571229
0.065051 0.052378125 -0.09414365 0.17176025 0.10792888 0.038419418 -0.04742028 0.055516593
0.033849023 0.013001282 0.05214101 -0.07906935 0.03431878 -0.06774986 0.07415096 0.014489515
0.10433333 0.15337463 -0.07712848 0.044556566 0.07257591 0.11816814 -0.004157875 0.1017455
-0.005344971 0.044526163 0.099057235 -0.100473896 -0.122864455 -0.084719 0.18208355 0.16621707
-0.082567215 -0.019324876 0.01553518 -0.07289612 0.09007156 0.0064406972 0.08474176 -0.028038805
0.16986132 0.18401237 0.028576182 0.0212483 -0.0034333193 -0.021683834 0.10119684 0.088400915
0.13504696 0.014412004 0.06050344 -0.08060965 -0.06328358 -0.010929422 0.02554041 -0.042442128
-0.10198757 0.14408456 0.17642711 -0.06929868 -0.0065396116 0.014715535 -0.096176475 0.18618582
0.072064325 0.04553258 -0.037826173 -0.039103407 -0.046076857 0.094873905 -0.07110211 0.0155108785
0.004015406 0.054617126 -0.08030542 0.04721336 -0.031833522 -0.021263868 0.12535304 0.029459428
0.027704788 -0.0069432766 0.08409266 0.10492297 0.1168862 -0.033210922 -0.10889322 0.09754581
-0.08346809 0.061463855 0.053454015 -0.06432725 0.10114412 -0.009014537 -0.056982696 -0.079958275
-0.040056877 -0.06959291 0.022510147 0.069531344 0.035838373 0.043202415 0.073769934 0.06428779
0.17560276 0.1138741 -0.13021103 0.034846824 -0.034028687 0.009440756 0.15592286 0.042047355
-0.041238982 0.08771946 -0.08212503 -0.050159246 -0.10722252 -0.11758881 0.040165164 0.081027955
-0.002349719 -0.10543285 0.1126108 0.15513024 -0.104992166 -0.028707296 0.07622406 0.06559555
-0.030345283 -0.06751293 0.03588568 0.05629861 0.08840553 -0.0373568 0.013735399 -0.08934183
-0.0273685 0.0028677122 -0.056905765 -0.09745781 -0.036904316 -0.10714419 0.15793163 0.12007709
-0.07632162 -0.053414345 -0.11934866 -0.06016092 0.05567404 0.08873052 -0.07132593 -0.027649527
0.1129002 0.02307965 0.04561034 -0.035510376 0.08050964 0.07233459 -0.06180326 -0.17559956
-0.008817466 0.062365804 0.094156384 0.08446855 0.05324466 -0.0010418798 -0.0998822 -0.049494095
-0.04473493 0.070461616 0.08529074 -0.074781634 0.16472264 0.1671333 0.019609228 -0.030498022
-0.12184657 0.02958213 -0.06622762 -0.050252765 0.17521667 -0.08778668 -0.054774106 0.074653156
00000000: 428f 0dbe f225 903d 188b 9b3d 1581 2d3e
00000010: c4c4 163d 49fe d13d 76c1 cabd ab2d 7d3c
00000020: 4661 fabc 61d6 98bd 2412 d03d 62dc c7bd
00000030: f08c 1d3e e8f6 b43d 5303 963d 6b01 91bd
00000040: 5333 383e e453 40bc 92e7 e9bd e6ff 6cbd
00000050: 2d60 b9bd 08fa cebd 852c 943d 6fb3 803b
00000060: 2f65 c4bd 3073 98bd 985c 52bd 30bc 00be
00000070: 44d5 2d3d b28c e03c efdf 1bbd 8e2f 97bd
00000080: f1c5 24bc 926d d3bd 6c4b 323e 18c3 c1bd
00000090: 0a38 9d3c 2df9 11bd 706d c7bb 0ee0 bf3d
000000a0: e82a 823c d2ab 42bd d70b 53bd 1cb9 fbbc
000000b0: d88f 6cba c769 b4bd 83f3 873d 1454 21bd
000000c0: 6aaa 46ba e931 d2bb c7b5 853d 5e70 7b3c
000000d0: 2039 85bd 88ad 6dbd 800d bf3d b32d 67bd
000000e0: 939f ef3c 7492 6e3d 767b ef3b 8818 4d3e
000000f0: 4ad2 a13d c3c2 113e a3b8 c03d 513f 5a3d
00000100: fc80 0a3e 8693 b53d f8b5 a6bb 4df6 7ebd
00000110: 8282 a23d 9473 b93c 8677 cabd 0c0f 9bbd
00000120: 7539 853d 728a 563d 63ce c0bd ebe1 2f3e
00000130: d109 dd3d ae5d 1d3d c43b 42bd 5e65 633d
00000140: 46a5 0a3d 5403 553c d091 553d 1def a1bd
00000150: d991 0c3d 70c0 8abd 75dc 973d 6e65 6d3c
00000160: b7ac d53d 3d0e 1d3e 89f5 9dbd f280 363d
00000170: aea2 943d 2302 f23d c93e 88bb f25f d03d
00000180: de24 afbb 1161 363d 85de ca3d 42c5 cdbd
00000190: 5ca0 fbbd 2881 adbd 1c74 3a3e cf34 2a3e
000001a0: 0019 a9bd 344f 9ebc 4587 7e3c 904a 95bd
000001b0: 7077 b83d 7c0c d33b 168d ad3d a3b1 e5bc
000001c0: 20f0 2d3e bd6d 3c3e 9918 ea3c ea10 ae3c
000001d0: 8a01 61bb 4ca2 b1bc 4a40 cf3d 8a0b b53d
000001e0: c049 0a3e 5320 6c3c 75d2 773d ac16 a5bd
000001f0: d29a 81bd 5211 33bc 1f3a d13c ccd7 2dbd
00000200: dcde d0bd e78a 133e 4fa9 343e 77ec 8dbd
00000210: 3d4a d6bb 6d19 713c 2cf8 c4bd 7fa7 3e3e
00000220: 7696 933d 5f80 3a3d 9eef 1abd e52a 20bd
00000230: 16bb 3cbd 404d c23d fc9d 91bd 5721 7e3c
00000240: ab93 833b 35b6 5f3d 2b77 a4bd cc62 413d
00000250: de63 02bd 9031 aebc 8c5c 003e e654 f13c
00000260: 27f5 e23c 6d84 e3bb c638 ac3d dbe1 d63d
00000270: 0862 ef3d 2d08 08bd 6903 dfbd 19c6 c73d
00000280: 51f1 aabd 86c1 7b3d 99f2 5a3d 01be 83bd
00000290: a624 cf3d b5b1 13bc b066 69bd 2ac1 a3bd
000002a0: ae12 24bd ba86 8ebd 3367 b83c 7366 8e3d
000002b0: 42cb 123d 04f5 303d b114 973d 51a9 833d
000002c0: 36d1 333e d336 e93d 0a56 05be 8bbb 0e3d
000002d0: aa61 0bbd 67ad 1a3c 3eaa 1f3e d939 2c3d
000002e0: 35ea 28bd 43a6 b33d 2b31 a8bd c873 4dbd
000002f0: 7b97 dbbd 67d2 f0bd 3a84 243d fcf1 a53d
00000300: befd 19bb 2eed d7bd 7ea0 e63d 76da 1e3e
00000310: 2206 d7bd 902b ebbc 5c1b 9c3d f656 863d
00000320: ac96 f8bc 3844 8abd ddfc 123d 5f99 663d
00000330: f50d b53d 7203 19bd 700a 613c d9f8 b6bd
00000340: e833 e0bc 3af0 3b3b 0516 69bd f697 c7bd
00000350: fb28 17bd 6a6e dbbd d4b8 213e faea f53d
00000360: 824e 9cbd 00c9 5abd 126d f4bd 4c6b 76bd
00000370: 760a 643d 59b8 b53d 5413 92bd 4381 e2bc
00000380: 3838 e73d 8911 bd3c e8d1 3a3d 5473 11bd
00000390: 3de2 a43d 2824 943d 6a25 7dbd 5fd0 33be
000003a0: 2277 10bc 4973 7f3d 10d5 c03d d9fd ac3d
000003b0: 1317 5a3d af8f 88ba 0a8f ccbd 52ba 4abd
000003c0: f93b 37bd 2e4e 903d e9ac ae3d 1d27 99bd
000003d0: 0dad 283e fe24 2b3e 88a3 a03c fdd6 f9bc
000003e0: b28a f9bd 3956 f23c 59a2 87bd d8d5 4dbd
000003f0: 006c 333e 81c9 b3bd d05a 60bd c1e3 983d

net.2.weight f4 [256, 256]
-0.0050562993 0.040735945 0.05702986 -0.044467352 -0.03294356 0.02056066 0.05440218 -0.034202263
0.03741415 0.056929387 -0.02440983 -0.030484006 0.001376979 0.035644688 0.0021418408 -0.0014737248
-0.054415226 -0.047384568 -0.03734143 0.061105616 0.049073175 0.02437684 0.06018118 -0.03515973
-0.012026235 -0.013327666 -0.044390105 -0.004145585 -0.0411292 0.017799653 -0.036610708 -0.045782246
-0.054889455 -0.007422328 -0.03987682 -0.008441806 0.050607733 0.034847207 -0.05736345 -0.01923167
-0.044016384 -0.05160775 -0.0467059 0.05639658 0.028068937 -0.004573889 0.048228115 0.021006241
0.050550975 0.047834203 0.004984781 -0.024527416 -0.060894944 0.02732519 -0.034900106 -0.008448072
-0.039801985 0.021294884 -0.06214285 0.016590364 -0.053703897 0.054664165 -0.043439098 0.040860243
0.054356866 -0.023790494 -0.039017975 0.03750956 0.03928598 0.021659784 0.04233955 -0.040362924
-0.015762523 -0.0033139288 -0.0074489266 0.026858784 -0.027545832 0.01306209 -0.0104753 0.0014312044
-0.008979522 -0.026260719 -0.005779907 0.01598788 0.033659905 -0.016466685 0.049610354 -0.052734844
0.00955867 -0.0017439872 0.03586383 -0.0103888735 -0.009513564 -0.047399193 0.015923068 -0.01699029
0.03397338 -0.04082475 -0.00015618652 0.054777578 -0.062374614 -0.009618096 -0.021197155 -0.049957126
0.033145055 0.009254321 0.04349391 0.043139517 0.01916024 0.0049553216 -0.016133338 -0.013503559
-0.036559008 -0.05514556 -0.05880116 -0.04180076 0.036045067 0.029303879 -0.043274127 0.0124113485
-0.0032578334 0.015470535 -0.0368023 -0.043662697 0.0154278055 -0.018440612 0.056004465 -0.018784754
-0.04910662 -0.039114073 -0.0411869 0.054184742 0.0045296103 -0.028712705 0.0075928047 -0.0254028
-0.057417907 -0.045007102 0.039192915 0.023049407 -0.010506578 0.038669907 -0.0023396015 -0.058855824
-0.034378476 -0.056435592 0.03651741 0.027838968 -0.055026643 -0.017798446 -0.03251022 0.04743384
-0.039089784 -0.054174364 -0.04141526 0.03127528 0.01884912 0.049844682 -0.032004103 -0.05467312
0.0014219582 0.038036376 0.059637755 0.040447317 0.013063066 0.033670723 -0.014520742 0.0070622563
0.011800699 -0.04448709 -0.05700373 -0.021476246 0.029807538 -0.042271383 0.051431194 -0.055360727
-0.020704448 -0.028156482 0.033820897 -0.04646416 0.024190933 -0.002292715 0.026317738 0.020609953
0.0184341 0.04304201 0.031152263 0.0012523681 -0.006815411 -0.05467481 0.056747645 -0.042259797
-0.060966767 -0.059871875 0.0516693 0.021049187 0.019512676 -0.0025671497 0.032490842 -0.05454807
-0.014205754 0.03742461 0.04332722 0.05739195 0.032585576 0.011967376 0.04585159 -0.046165444
-0.057227485 -0.02740968 -0.040408313 0.012443468 0.028588079 0.05319958 0.026431486 0.056753114
-0.044751465 -0.03166447 -0.017258033 0.023318209 -0.015783422 0.040786594 -0.037295908 -0.030236952
-0.011972718 -0.037164308 0.05428672 0.019242898 -0.047446862 -0.042016484 0.02598957 -0.052100345
0.044209294 0.054508977 0.0077649876 -0.023228489 -0.017199248 0.022599995 -0.03496197 0.016782522
0.04914555 -0.044402987 0.0005066097 0.008686371 0.007069379 -0.06121368 0.04649196 -0.0089126825
-0.025904372 0.038682543 0.057951212 -0.02846577 0.022160456 -0.0021239072 0.0037559196 -0.009923965
00000000: 50af a5bb bcda 263d 2498 693d 6623 36bd
00000010: d4ef 06bd d46e a83c d2d4 5e3d ac17 0cbd
00000020: 943f 193d ca2e 693d 20f7 c7bc 98b9 f9bc
00000030: c07b b43a 2a00 123d 205e 0c3b 002a c1ba
00000040: 80e2 5ebd 5216 42bd 54f3 18bd e249 7a3d
00000050: f400 493d f0b1 c73c 8a80 763d a603 10bd
00000060: b009 45bc 485c 5abc 66d2 35bd b0d7 87bb
00000070: 1877 28bd 94d0 913c 1cf5 15bd 2a86 3bbd
00000080: c4d3 60bd 0037 f3bb e055 23bd 804f 0abc
00000090: 0e4a 4f3d f2bb 0e3d f0f5 6abd bc8b 9dbc
000000a0: 864a 34bd a662 53bd b04e 3fbd 1a00 673d
000000b0: d4f0 e53c 90e0 95bb d88a 453d 4815 ac3c
000000c0: 8a0e 4f3d cced 433d 6057 a33b b8ed c8bc
000000d0: fa6c 79bd 14d9 df3c 6af3 0ebd c869 0abc
000000e0: 6807 23bd 9c72 ae3c 8089 7ebd 84e8 873c
000000f0: 9ef8 5bbd 88e7 5f3d 32ed 31bd 125d 273d
00000100: 4ea5 5e3d 48e4 c2bc 50d1 1fbd a0a3 193d
00000110: 56ea 203d dc6f b13c 3c6c 2d3d 9853 25bd
00000120: 6820 81bc 802e 59bb 2016 f4bb f406 dc3c
00000130: cca7 e1bc 6002 563c 98a0 2bbc 4097 bb3a
00000140: d81e 13bc b820 d7bc 6065 bdbb 04f9 823c
00000150: f8de 093d 24e5 86bc 3a34 4b3d 7e00 58bd
00000160: f89b 1c3c 8096 e4ba f4e5 123d 1836 2abc
00000170: c8de 1bbc a825 42bd 1871 823c 382f 8bbc
00000180: ac27 0b3d da37 27bd 00c6 23b9 745e 603d
00000190: 867c 7fbd 3895 1dbc a8a5 adbc d89f 4cbd
000001a0: 1cc3 073d 709f 173c ac26 323d 10b3 303d
000001b0: f0f5 9c3c 4060 a23b 102a 84bc 083e 5dbc
000001c0: e6be 15bd 50e0 61bd 7cd9 70bd 4637 2bbd
000001d0: fea3 133d b00e f03c 3640 31bd f858 4b3c
000001e0: 6081 55bb 2078 7d3c 02be 16bd a8d7 32bd
000001f0: e8c4 7c3c c410 97bc f064 653d 7ce2 99bc
00000200: 0624 49bd 1436 20bd 98b3 28bd d2f0 5d3d
00000210: 206d 943b e836 ebbc 10cd f83b 8819 d0bc
00000220: 0a2f 6bbd 5e59 38bd c088 203d 1cd2 bc3c
00000230: c823 2cbc 5664 1e3d 0054 19bb ce12 71bd
00000240: 72d0 0cbd 0229 67bd 4893 153d 8c0e e43c
00000250: 9e63 61bd 0cce 91bc 7029 05bd fc49 423d
00000260: 9c1c 20bd f0e5 5dbd 0ca3 29bd 821a 003d
00000270: 7869 9a3c f029 4c3d bc16 03bd ecf0 5fbd
00000280: 0061 ba3a 08cc 1b3d b846 743d 16ac 253d
00000290: 7806 563c 50ea 093d 68e8 6dbc 806a e73b
000002a0: b857 413c 1838 36bd be7c 69bd f4ee afbc
000002b0: f02e f43c c224 2dbd 84a9 523d eec1 62bd
000002c0: 609c a9bc 6ca8 e6bc c887 0a3d 3451 3ebd
000002d0: 102c c63c 6041 16bb 4c98 d73c 34d6 a83c
000002e0: 1c03 973c d24c 303d 0833 ff3c 8026 a43a
000002f0: d053 dfbb b2f2 5fbd 3870 683d 9c18 2dbd
00000300: 4ab8 79bd 363c 75bd 30a3 533d 586f ac3c
00000310: 0cd9 9f3c a03d 28bb 1e15 053d cc6d 5fbd
00000320: 40bf 68bc 8c4a 193d e277 313d d213 6b3d
00000330: 7478 053d d012 443c e0ce 3b3d fa17 3dbd
00000340: 5e67 6abd 448a e0bc 3083 25bd b0df 4b3c
00000350: 8c31 ea3c cee7 593d d886 d83c f475 683d
00000360: 504d 37bd 9ab2 01bd b860 8dbc d405 bf3c
00000370: 3c4c 81bc d80f 273d 98c3 18bd 7cb3 f7bc
00000380: 3829 44bc 9a39 18bd c05b 5e3d 48a3 9d3c
00000390: a457 42bd 7a19 2cbd 14e8 d43c 2c67 55bd
000003a0: ce14 353d ce44 5f3d 7071 fe3b ac49 bebc
000003b0: 70e5 8cbc a023 b93c 4834 0fbd 807b 893c
000003c0: d84c 493d e8df 35bd 00ce 043a 4851 0e3c
000003d0: 40a6 e73b 32bb 7abd 5a6e 3e3d 8006 12bc
000003e0: 6835 d4bc 9671 1e3d 405e 6d3d 0c31 e9bc
000003f0: d889 b53c 4031 0bbb e025 763b 2098 22bc

net.2.bias f4 [256]
0.060417697 0.15406148 -0.076607354 0.036259457 0.017001748 0.030207546 -0.0026546088 0.0074136183
0.031796783 -0.04409664 0.064553015 0.13171434 0.004246148 -0.005690163 0.024882087 0.13926642
0.0011751003 0.13472909 0.15492618 -0.062350303 0.060018167 -0.0001158471 -0.008641183 0.03771334
0.14875548 0.031335942 -0.030464089 -0.025283488 0.0046903756 -0.04406923 0.11357228 -0.0300135
-0.028975796 0.020427004 0.0035083198 -0.0428584 0.016056743 0.03940972 -0.011528261 -0.05299072
-0.032551583 0.14906773 0.003776051 0.030098328 -0.045374617 -0.057829015 0.080858044 -0.06691231
-0.030466236 0.022351842 0.013955651 0.060222574 -0.026720347 0.006575134 0.026238164 -0.020937186
0.024502762 0.14522006 0.0213366 -0.0548964 0.08412648 0.045023486 0.009322929 0.031320512
0.03520494 0.123148315 -0.024595113 0.039327882 -0.057651903 0.013390963 -0.02564264 0.04386475
-0.07126017 0.0073596933 -0.06512057 0.0153292315 0.12068908 -0.037089642 -0.007926617 -0.0054457067
0.030426694 0.0014211034 -0.10402926 -0.03970559 0.021413585 0.011844052 -0.06343922 -0.032703273
-0.010666918 0.037489317 -0.05652552 0.04373238 0.044425227 0.019867176 0.011650011 0.038575478
0.13961782 -0.038655747 0.02193337 -0.043205187 -0.034746405 0.14910032 -0.042558547 0.044318613
0.0523693 -0.029227953 0.051529855 0.09947179 0.014888432 0.026573729 -0.028455094 0.12620239
0.011813827 0.044114076 0.058925785 0.051632978 -0.03851485 -0.04684651 0.12414775 0.013781019
0.15728784 0.043305922 0.04855802 -0.018663809 -0.049544543 -0.018533997 0.041027196 0.05227265
-0.031666636 0.023181569 0.043585356 0.13615493 -0.019336216 -0.049216263 0.007192524 0.13127868
0.09374219 -0.0036046444 -0.010638893 -0.05647749 0.035587378 0.0555733 0.054198615 -0.06025359
-0.02448961 0.07578198 0.1455788 0.064821936 0.00039038065 0.071951754 0.047372423 -0.026795566
0.08841785 0.15404694 0.120520815 -0.011898895 0.16218077 -0.050993897 0.021306045 0.16180314
-0.016845498 0.13587011 0.13731882 0.023796603 0.09927005 0.12199834 0.027348164 -0.029556016
0.011280674 -0.05140607 0.03434815 0.07756223 -0.05841823 0.040451165 -0.033059105 0.017705724
-0.018697489 0.030811789 0.019597339 0.10147804 0.0654106 -0.028601393 -0.023624754 0.040176854
0.035267547 0.05189969 0.17302044 0.012645003 0.010242949 -0.008992035 -0.031782724 -0.058159836
0.14981502 0.0017976827 -0.03889127 0.09097771 0.040435374 0.05620933 0.0415567 -0.0145068765
-0.05791075 0.15229264 0.13224268 -0.04557685 -0.025431091 0.07854149 -0.060227938 0.049641907
0.024320923 -0.0297971 -0.06542067 0.048082083 -0.025157414 0.066744626 0.027260393 0.02002342
-0.057258867 0.082977556 -0.06428367 -0.006511558 0.11940436 0.1387406 0.006965526 -0.019902406
0.019827528 -0.00085485727 0.044313353 -0.0059923455 0.053802148 0.025395034 0.056508057 0.095890306
-0.056988735 -0.054962467 0.054672007 0.053339805 -0.02812357 -0.02261743 0.10277746 0.052170254
0.030297376 0.020378543 0.029667117 -0.060340174 -0.06785612 0.0128810555 -0.0495048 -0.029536918
-0.00802401 0.064403065 -0.0038766712 -0.0514562 0.021490432 -0.01862093 0.15204787 -0.06873574
00000000: 8c78 773d 4bc2 1d3e 51e4 9cbd cc84 143d
00000010: 4047 8b3c d175 f73c f2f8 2dbb f0ed f23b
00000020: 583d 023d ae9e 34bd 5f34 843d 20e0 063e
00000030: 4523 8b3b 8c74 babb 85d5 cb3c db9b 0e3e
00000040: d305 9a3a 6cf6 093e f8a4 1e3e 0863 7fbd
00000050: 9cd5 753d f0f2 f2b8 c093 0dbc 4e79 1a3d
00000060: 5b53 183e 1e5a 003d d38f f9bc 511f cfbc
00000070: b9b1 993b f081 34bd 9598 e83d dfde f5bc
00000080: a65e edbc 8856 a73c d7eb 653b 4a8c 2fbd
00000090: 6e89 833c 166c 213d 08e1 3cbc cc0c 59bd
000000a0: cf54 05bd 36a5 183e a077 773b c590 f63c
000000b0: bcda 39bd 1ede 6cbd e798 a53d 5209 89bd
000000c0: 5494 f9bc 361b b73c 3ea6 643c f2ab 763d
000000d0: a1e4 dabc 3974 d73b 6bf1 d63c 7684 abbc
000000e0: 04ba c83c 91b4 143e 18ca ae3c 0cdb 60bd
000000f0: 814a ac3d 8c6a 383d 33bf 183c f049 003d
00000100: 0e33 103d 2f35 fc3d b17b c9bc 4616 213d
00000110: 6724 6cbd c565 5b3c 8410 d2bc 86ab 333d
00000120: daf0 91bd 9529 f13b ef5d 85bd 7527 7b3c
00000130: d62b f73d 4feb 17bd a4de 01bc e671 b2bb
00000140: 6741 f93c 5144 ba3a 4b0d d5bd 54a2 22bd
00000150: 8b6b af3c 8e0d 423c 6cec 81bd def3 05bd
00000160: 4cc4 2ebc 668e 193d 4e87 67bd b920 333d
00000170: 3af7 353d 7dc0 a23c b0df 3e3c 5201 1e3d
00000180: f9f7 0e3e 7d55 1ebd 9cad b33c ecf7 30bd
00000190: 3f52 0ebd c1ad 183e df51 2ebd 6f87 353d
000001a0: 3181 563d 766f efbc f810 533d deb7 cb3d
000001b0: 9cee 733c 26b1 d93c a81a e9bc 333b 013e
000001c0: c88e 413c f6b0 343d 2a5c 713d 1a7d 533d
000001d0: bfc1 1dbd 20e2 3fbd 2d41 fe3d c8c9 613c
000001e0: 1010 213e 8d61 313d c6e4 463d d8e4 98bc
000001f0: 38ef 4abd 9cd4 97bc 220c 283d d91b 563d
00000200: e0b4 01bd 46e7 bd3c 8f86 323d 336c 0b3e
00000210: fc66 9ebc fe96 49bd 44af eb3b eb6d 063e
00000220: e8fb bf3d e63b 6cbb c04e 2ebc f154 67bd
00000230: 12c4 113d d4a0 633d 5eff 5d3d 78cc 76bd
00000240: 6f9e c8bc 9533 9b3d 9c12 153e 5dc1 843d
00000250: 01ac cc39 715b 933d 9609 423d 6082 dbbc
00000260: 6b14 b53d 7bbe 1d3e 9ed3 f63d 95f3 42bc
00000270: b712 263e fade 50bd 048a ae3c b9af 253e
00000280: 92ff 89bc 8921 0b3e 4e9d 0c3e 18f1 c23c
00000290: 194e cb3d 44da f93d 4209 e03c 751f f2bc
000002a0: 93d2 383c 2c8f 52bd a5b0 0c3d f2d8 9e3d
000002b0: f447 6fbd 1fb0 253d fc68 07bd 980b 913c
000002c0: 7a2b 99bc 0169 fc3c 998a a03c b8d3 cf3d
000002d0: fef5 853d 784d eabc b388 c1bc 7c90 243d
000002e0: b474 103d c594 543d 452c 313e fd2c 4f3c
000002f0: 0bd2 273c 5453 13bc 9a2e 02bd 0239 6ebd
00000300: 1c69 193e 39a0 eb3a 744c 1fbd 8652 ba3d
00000310: 909f 253d c13b 663d 5c37 2a3d 40ae 6dbc
00000320: d333 6dbd 9af2 1b3e a06a 073e cbae 3abd
00000330: dd54 d0bc 5cda a03d 92b1 76bd 5055 4b3d
00000340: ac3c c73c 0c19 f4bc 46fb 85bd b8f1 443d
00000350: ec16 cebc 68b1 883d 3051 df3c 2808 a43c
00000360: 4688 6abd 23f0 a93d 28a7 83bd e85e d5bb
00000370: 468a f43d 0412 0e3e 113f e43b 5f0a a3bc
00000380: 576d a23c 8018 60ba eb81 353d 705b c4bb
00000390: a45f 5c3d 3f09 d03c fe74 673d 2362 c43d
000003a0: 056d 69bd 5320 61bd c1ef 5f3d d77a 5a3d
000003b0: 6763 e6bc 3048 b9bc fd7c d23d 7ab0 553d
000003c0: 3432 f83c e7f0 a63c 7408 f33c 4227 77bd
000003d0: 26f8 8abd 100b 533c 8cc5 4abd 68f7 f1bc
000003e0: 2377 03bc c1e5 833d c00f 7ebb bdc3 52bd
000003f0: b40c b03c ec8a 98bc 70b2 1b3e 53c5 8cbd

net.4.weight f4 [5, 256]
-0.013755828 0.10257328 0.0010573636 0.04596808 0.017592087 0.039573357 0.021777777 0.005170673
0.032861345 -0.03579025 0.07306541 0.13743515 0.006531215 -0.0103752 0.12103896 0.12227909
-0.042443562 0.04713972 0.059407994 0.039382525 0.109176286 0.015887829 -0.039776094 -0.030169679
0.110567816 0.025985548 -0.034258347 -0.020154938 -0.027012603 -0.01956463 0.14389023 0.011306517
-0.010767797 -0.048561 0.022443876 0.056235958 -0.012437828 -0.028409006 -0.059392728 0.03186758
-0.052495047 0.104417354 0.048294432 0.035538778 -0.021779701 -0.0011246098 0.106939636 -0.05738358
-0.048488963 0.08545925 0.013506867 0.1414102 0.015682548 -0.03935364 0.016022058 -0.04973212
-0.02801799 0.06945539 0.02380929 0.048090406 0.094482005 -0.02656052 -0.05114756 0.0013976545
0.029418059 0.13422668 0.05121998 -0.024136255 -0.043947563 0.00873474 0.046984777 -0.061997138
-0.054246563 0.010082297 0.03124982 -0.05597009 0.1293468 -0.029423948 -0.031319074 0.023308288
0.0637899 0.04267707 -0.016046578 -0.01871878 -0.053868845 0.037982434 -0.038910065 -0.01721564
-0.053275082 0.03971874 -0.0416838 0.0076266294 -0.031426176 -0.00997498 0.05711347 0.010806769
0.086863816 0.033991076 -0.02746689 -0.024449682 0.0009466676 0.10702153 0.014817938 0.025215473
-0.04893762 0.048960652 -0.018494632 0.06325267 0.017043788 -0.048030507 -0.0075379685 0.05812622
-0.03206689 0.004550199 -0.06033565 0.061010756 -0.057733353 -0.037471227 0.07428036 0.016748842
0.099763356 0.0377129 0.06291166 -0.05025754 -0.021908086 -0.052111715 0.0048345327 -0.02487167
0.039050587 -0.044931598 -0.01126144 0.10703877 -0.023979 0.05396027 -0.028140692 0.021838166
0.11468352 -0.039455228 0.039165944 -0.011500904 -0.04753015 0.13174053 0.02695449 0.04641958
0.015746087 0.12507747 0.10863727 0.13228779 0.0075784903 0.10333777 -0.034253154 0.04888177
0.1302917 0.07664019 0.13822643 0.04343459 0.13053338 0.018077515 0.048502825 0.12725599
0.020589305 0.09741016 0.113728374 0.066966556 0.13223302 0.10853669 0.01428839 -0.013482243
0.015525753 0.033001214 -0.029737132 0.0900246 -0.038520116 0.004852198 -0.01707758 0.012997651
-0.0065271147 -0.056379847 -0.030399803 0.062025066 0.10187894 -0.042005114 -0.022774432 -0.0047208965
-0.040713403 0.05608836 0.10634912 0.051971152 -0.05232969 -0.013449335 -0.016724102 0.055091344
0.07167026 -0.015469161 0.009051539 0.1171664 -0.008275763 0.01737501 -0.024022909 0.043108225
-0.058284983 0.1306551 0.03532593 -0.0010412695 -0.019813817 0.02944885 0.00041590404 0.0669167
-0.023275867 -0.022199385 -0.046688423 0.006046623 -0.00045101345 0.13817005 0.08039623 -0.0015870854
-0.034081828 0.08293358 0.025279984 -0.057055756 0.115336485 0.1262408 0.028094655 0.030209908
-0.05359504 -0.024037227 -0.0066821454 -0.05374115 -0.015317487 0.017776638 0.14657655 0.13341261
0.01407884 -0.0076200394 0.011452517 -0.046019927 -0.023630805 0.022486888 0.06452724 -0.022158898
0.01946853 0.0046838177 0.00032813725 -0.024665592 0.020604325 -0.03053274 -0.0052576317 -9.150803e-05
0.03736051 0.124285005 0.00047278404 -0.038326696 0.045519195 -0.0037334412 0.098887675 0.03026047
00000000: 2060 61bc f111 d23d 3c97 8a3a 0749 3c3d
00000010: 481d 903c ac17 223d 4f67 b23c c06e a93b
00000020: 9e99 063d cc98 12bd 51a3 953d cdbb 0c3e
00000030: cd03 d63b befc 29bc 46e3 f73d 766d fa3d
00000040: 4dd9 2dbd 9415 413d cc55 733d 924f 213d
00000050: d197 df3d 3127 823c 42ec 22bd 6726 f7bc
00000060: 6171 e23d a5df d43c 7b52 0cbd f81b a5bc
00000070: 8949 ddbc 0146 a0bc f657 133e f83e 393c
00000080: 6a6b 30bc e6e7 46bd 38dc b73c ad57 663d
00000090: 08c8 4bbc 01ba e8bc ca45 73bd 9487 023d
000000a0: 0c05 57bd c4d8 d53d 62d0 453d 1c91 113d
000000b0: 586b b2bc a567 93ba 2b03 db3d 0b0b 6bbd
000000c0: 5d9c 46bd 4205 af3d e84b 5d3c d6cd 103e
000000d0: b078 803c 4831 21bd b140 833c e8b3 4bbd
000000e0: fc85 e5bc a13e 8e3d b30b c33c 72fa 443d
000000f0: c87f c13d 7395 d9bc 1b80 51bd 8131 b73a
00000100: 24fe f03c b872 093e 0bcc 513d 65b9 c5bc
00000110: 5c02 34bd 281c 0f3c 1c73 403d b6f0 7dbd
00000120: a531 5ebd 3830 253c 9fff ff3c e540 65bd
00000130: 7d73 043e 7e0a f1bc 6e48 00bd 06f1 be3c
00000140: 47a4 823d 27ce 2e3d 1d74 83bc 2058 99bc
00000150: 94a5 5cbd 7893 1b3d 2960 1fbd d007 8dbc
00000160: f936 5abd 1eb0 223d a2bc 2abd cee8 f93b
00000170: bcb8 00bd 196e 23bc d0ef 693d e00e 313c
00000180: a8e5 b13d 3a3a 0b3d 3e02 e1bc b34a c8bc
00000190: ca29 783a 1b2e db3d f0c6 723c ae90 ce3c
000001a0: d072 48bd f78a 483d 0e82 97bc 9e8a 813d
000001b0: 6a9f 8b3c a3bb 44bd 1001 f7bb c215 6e3d
000001c0: 9258 03bd d619 953b 8422 77bd 6ae6 793d
000001d0: cf79 6cbd 6e7b 19bd 4d20 983d de34 893c
000001e0: bb50 cc3d d878 1a3d d4d7 803d dada 4dbd
000001f0: 9678 b3bc 1873 55bd 006b 9e3b acbf cbbc
00000200: 82f3 1f3d 320a 38bd e781 38bc 2537 db3d
00000210: 9c6f c4bc 7205 5d3d 4f87 e6bc f4e5 b23c
00000220: 31df ea3d ce9b 21bd 786c 203d 4a6e 3cbc
00000230: f9ae 42bd fde6 063e aacf dc3c 7522 3e3d
00000240: f0fd 803c 4f14 003e 387d de3d 7376 073e
00000250: fc54 f83b c1a2 d33d 094d 0cbd 4038 483d
00000260: 306b 053e 88f5 9c3d 3b8b 0d3e 78e8 313d
00000270: 8baa 053e 4c17 943c e6aa 463d 654f 023e
00000280: e7aa a83c fa7e c73d 6cea e83d c325 893d
00000290: 1868 073e 7c48 de3d da19 6a3c a0e4 5cbc
000002a0: ba5f 7e3c 482c 073d 499b f3bc d15e b83d
000002b0: 45c7 1dbd 30ff 9e3b 48e6 8bbc 19f4 543c
000002c0: 68e1 d5bb 8eee 66bd 0209 f9bc ff0d 7e3d
000002d0: e8a5 d03d 8e0d 2cbd 7291 babc c0b1 9abb
000002e0: 19c3 26bd e8bc 653d 91cd d93d b4df 543d
000002f0: a857 56bd 995a 5cbc fc00 89bc 76a7 613d
00000300: dbc7 923d 5d72 7dbc e84c 143c f0f4 ef3d
00000310: 1197 07bc 0956 8e3c b1cb c4bc 4092 303d
00000320: 3cbc 6ebd 73ca 053e ecb1 103d 357b 88ba
00000330: 9650 a2bc b73e f13c b20d da39 9f0b 893d
00000340: 08ad bebc 7cdb b5bc 5c3c 3fbd c022 c63b
00000350: 0076 ecb9 737c 0d3e c7a6 a43d c005 d0ba
00000360: 6399 0bbd 15d9 a93d f817 cf3c 4cb3 69bd
00000370: 8935 ec3d 4545 013e c326 e63c c57a f73c
00000380: 7986 5bbd b8e9 c4bc e6f5 dabb ae1f 5cbd
00000390: 32f6 7abc 50a0 913c 2a18 163e 519d 083e
000003a0: efaa 663c 86b1 f9bb 56a3 3b3c 647f 3cbd
000003b0: 6495 c1bc 6c36 b83c dc26 843d 9486 b5bc
000003c0: 777c 9f3c b67a 993b d609 ac39 7f0f cabc
000003d0: 67ca a83c cc1f fabc 3648 acbb 00e8 bfb8
000003e0: 5607 193d 2389 fe3d 00e0 f739 74fc 1cbd
000003f0: 5672 3a3d c0ac 74bb 9f85 ca3d cee4 f73c

net.4.bias f4 [5]
0.06905116 0.07551996 0.0639556 0.041246783 0.12631926
00000000: b26a 8d3d 35aa 9a3d 27fb 823d 63f2 283d
00000010: d659 013e
