iteration(models)/2000 epi/dqn_highway.pt (torch, 342085 bytes, 6 tensors)

net.0.weight f4 [256, 70]
00000000: 9da3 05bd 1e6c eabb 08e2 973e 80d1 50bd
00000010: 6d76 9dbe d5da 8d3d 2020 82be 1737 9d3c
00000020: 7b06 5e3f 7423 2cba a173 5bbb 8032 a83d
00000030: 2d26 08be dcda 84be f451 6b3d 4e25 21be
00000040: 37e3 9b3f 3c13 1cbd 10ac ea3e 0313 1f3d
00000050: 0cc9 853f cf52 a63d b4e4 113e df63 193d
00000060: ab3b 953d bb72 6d3e 8641 e1bc 5aed 183d
00000070: 26cd 63bd 2b4b 2a3b 11bc d33b f5bd 82bd
00000080: 9ae5 c43d 6767 913d 8233 993e 27ca 103d
00000090: e247 ddbc e937 a9bb 6d8e ec3c 1770 6a3e
000000a0: 3f37 b8bc 0adf b0bd f7e3 37bd c1c3 b3bc
000000b0: bfab 92bc e020 c6bd e77c 263e 8efd 383d
000000c0: 9374 8b3d 8951 79bd 976b 8ebd b270 093c
000000d0: 56e5 a03d 6594 b53d b39b e03d 923a 4dbd
000000e0: cdfa 85bd f03c 8a3d b34c aebc 9efb 033e
000000f0: a3bd 0f3d 8663 333c 3ef0 fb3d 9207 82bc
00000100: 7994 32bc ab5c a9bb 383b d0bd d9eb d8bc
00000110: 0d71 e93c 5f36 b13d 2612 d63d 7ea1 0ebc
00000120: 5067 373e ec57 653d 35cf c2bc 20af bc3d
00000130: 087e 113d eb1d df3d 9839 c5bf bc86 dc3e
00000140: 8e70 13bd 47cd 383e a633 e8bc f519 853e
00000150: 3c6f 1f3c 6890 babe 9120 acbe 8d1e 6b3d
00000160: 6bdd a93d a563 93bd f289 1abe b1ab 0f3e
00000170: bd66 26be 4179 6a3e 4e4a 98bd eec9 eb3c
00000180: 1005 073e 5069 f5bd 8d8a a9bd d3f7 b5bc
00000190: 4e63 2f3e 2254 bfbd a598 153d 3341 78bc
000001a0: d787 33be 77f4 033e 2b1c 0dbe 19aa 053e
000001b0: b236 a6bc 8f7e 193e c272 b9bc 621a 4f3e
000001c0: be08 f5bd e3cd d3bd 0a0b c1bd 064f fc3c
000001d0: 5d51 d7bc 4946 853d 4d6d 43be 8e33 86bd
000001e0: 0155 c5bc c61d 28bc cd3d 98bd 3eaf 1d3e
000001f0: aa4f 8cbc cd3c 8a39 5aaf dbbd 8f61 fbbd
00000200: a1d7 8f3d 2872 90bd e49f bc3d 0087 debc
00000210: 1fdd 35be 59e0 e53d 9c0b 823c 74d1 c3bd
00000220: 7c84 a7bd 5560 10bd 6dbc 593d ee9f 85bd
00000230: 4f4f efbd 1734 d3bd d2aa cebd e61f 4abb
00000240: 86da 8c3e ae98 e2bd 55d3 033e 4242 24be
00000250: 2561 303e 4c9c 8dbf f0bc 213d c1a8 bbbe
00000260: 1f2b f8bd c7b8 52bf a781 873b 0285 b93d
00000270: e676 923d a25f ca3d 4964 59be cb2c 1ebe
00000280: ba82 983d 42e7 f83c 38ff 9f3d cbf4 81bd
00000290: c313 8b3d 0ffb 5ebe 398c 1abe dd09 51be
000002a0: bb32 b33c 66aa 923d 90bf b03d 9178 5a3d
000002b0: a4f0 74be c456 623c cf45 083e 68cc bebc
000002c0: 5c63 5a3d ff64 29bc 0776 843c 1d52 0ebe
000002d0: 8136 13be ef86 60be 03a4 943b da0d 3ebd
000002e0: 583b 6e3d 2040 f13c 2f8f 41be 51f5 d2bd
000002f0: dadf 5c3c 087b 4b3c 0506 da3c 5a44 1cbd
00000300: 7c19 bf3d 68fc f2bd f94c fdbd 4266 eebd
00000310: 314b d1bd a83e 433d 8b61 093e cdb4 423e
00000320: f40c 92bd 2c1e 493d 8e56 563c 305f 92bb
00000330: d3e2 b0bb ec81 a03d 5011 1d3e a2b6 10be
00000340: aefc 7f3d 90a2 243e bca2 e33d 4042 5cbc
00000350: eea3 99be 78be 17bd f727 2b3d 648c 45bc
00000360: 7d19 613e 988d 023e 628f 973f c01f 89bf
00000370: 0e82 88bc e6b4 ffbe b99e ff3d 0435 97bf
00000380: 4227 ca3d a8da 003e f2e1 ecbd adf5 fabc
00000390: 2ecf 1fbe 62d3 32bd 2e98 aabe 5449 5f3d
000003a0: c1c0 a5bc 5303 a0bd a1ad 17bd e08a 40be
000003b0: 91b3 e4bd 110e 5abe 5075 e8bd 2ff7 ec3d
000003c0: 3435 c63c 8aa6 ec3d 2fd2 533c bd6e a23d
000003d0: 3c3b cfbd 9101 82bc 26f8 193e 8ac9 d0bc
000003e0: 0045 dd3c 195c 833d 134d fabd 5a01 c93d
000003f0: 8dd7 d13d 69ca 8dbd 43dc bfbc 04fe cbbc
-0.032626737 -0.007154002 0.29664636 -0.050981045 -0.30754414 0.069265045 -0.25415134 0.019191308
0.8672864 -0.0006566562 -0.0033485668 0.08212757 -0.13295813 -0.25948226 0.057451203 -0.15736887
1.2178715 -0.03810428 0.45834398 0.03883649 1.045198 0.08121263 0.142474 0.03744876
0.072867714 0.23188297 -0.027497064 0.03733573 -0.055615567 0.0025984745 0.0064616282 -0.06383888
0.096141055 0.070998006 0.2992211 0.035349037 -0.027011815 -0.0051641357 0.028876508 0.22894321
-0.02248728 -0.08636291 -0.04489514 -0.021943929 -0.01790416 -0.09674239 0.16258584 0.045163684
0.06809344 -0.060868774 -0.06954115 0.008388685 0.07856242 0.08866195 0.10967197 -0.050104685
-0.06541977 0.06749904 -0.021276807 0.12888953 0.03509296 0.010949021 0.12301682 -0.01587275
-0.010899656 -0.0051685176 -0.10167545 -0.026479648 0.02849629 0.086529486 0.1045268 -0.008705495
0.17910504 0.055992052 -0.023780445 0.0921309 0.035520583 0.10894378 -1.5408201 0.43071544
-0.035996012 0.18047057 -0.02834494 0.25996366 0.00973111 -0.36438298 -0.33618596 0.057402182
0.08294185 -0.0719674 -0.15091684 0.14030339 -0.16250129 0.22897817 -0.074360475 0.028782811
0.13185525 -0.119829774 -0.082783796 -0.022212898 0.17127725 -0.09342219 0.036522526 -0.015152263
-0.17532288 0.12886225 -0.13780276 0.13053168 -0.020289753 0.14989685 -0.022637729 0.20224908
-0.11964558 -0.10342004 -0.09425934 0.0307994 -0.026283914 0.065075465 -0.19084664 -0.06552802
-0.024088385 -0.010261005 -0.074336626 0.15398881 -0.01712783 0.0002636671 -0.10726805 -0.12274467
0.0702355 -0.070530236 0.09210184 -0.027163982 -0.17760132 0.112244315 0.015874676 -0.095614344
-0.08179566 -0.03524812 0.053158212 -0.06524645 -0.11685049 -0.1031267 -0.10091175 -0.0030841767
0.2751047 -0.110642776 0.12873586 -0.160409 0.17224558 -1.1063323 0.039486825 -0.36652187
-0.121176 -0.823132 0.004135329 0.09058572 0.07151584 0.09881522 -0.21229662 -0.15446775
0.07446809 0.03038371 0.07812351 -0.06345519 0.067908786 -0.21775459 -0.15092553 -0.20413919
0.021874776 0.07161407 0.08630288 0.053337637 -0.23919922 0.013814632 0.1330788 -0.023290828
0.053317413 -0.010339021 0.016169561 -0.13898511 -0.1437626 -0.21926473 0.0045361533 -0.04639993
0.058162063 0.029449522 -0.18902276 -0.10300697 0.013481105 0.01241947 0.026614198 -0.038151123
0.09331033 -0.11864549 -0.12368197 -0.11640598 -0.1021942 0.047667176 0.13416116 0.19014283
-0.07131377 0.04910104 0.01308216 -0.0044669136 -0.0053981333 0.07837281 0.15338635 -0.14132169
0.062496834 0.16077638 0.111150235 -0.01344353 -0.3000788 -0.03704688 0.04178616 -0.0120573975
0.2198238 0.12749326 1.1840632 -1.0712814 -0.016663577 -0.49942702 0.12481446 -1.1813054
0.09870769 0.1258341 -0.11566533 -0.030634725 -0.15606377 -0.04365862 -0.3331923 0.05451329
-0.020233514 -0.07813134 -0.03703082 -0.18802977 -0.11167062 -0.21294428 -0.113505006 0.11570584
0.024195291 0.11555202 0.01292853 0.07931278 -0.1011872 -0.015869888 0.15036067 -0.025486726
0.02701044 0.064140506 -0.12221732 0.09814711 0.10246191 -0.06923372 -0.023420459 -0.024901398

net.0.bias f4 [256]
00000000: 5cdc 09bd 3aeb 0a3e 377c babd ad9f 4d3d
00000010: ebeb 2fbe 2a86 d43d 69cb 29bc acd0 a03d
00000020: 29fe eebd cec2 d33c 60fb d5bd dcc9 5d3c
00000030: 4e68 063e c0cd d13a d01b 0bbe 2d31 063c
00000040: 71fd fcbc dbbe 583e 5bb6 54be 5c39 b7bc
00000050: 3d2e bd3d 5bbd c13d 2f14 16bd dec5 b5bd
00000060: a660 f6bb f685 cd3d f7df 86bd d92c 01bd
00000070: 69ff 7f3e 796b 07be 7b0b 1bbd 1619 923e
00000080: bf5b e5bd 80ac b1bd a3bd cebd afad b9bd
00000090: 9c7d d73d b685 973d 7c2d 3fbd 25ba 8ebd
000000a0: 3783 fb3c 0dab a13d 5d16 653d be8a 0bbe
000000b0: 722c b53b 3f88 253e 9bfc cabd 54d0 d23d
000000c0: 51d8 4e3d 77c8 033c 7d3a 453e bc2e 80bc
000000d0: 3b27 f53c 9cd9 10bc 8a3b 183e 08cd 0d3d
000000e0: 5c41 d23c 440b fdbd e8c7 bdbd 5c06 11bd
000000f0: 5cfc 91bc e2db be3c 9b91 fbbd 8f68 b4bd
00000100: 2f49 61bd 9460 b8bd be6e 363e 5e1f 6dbd
00000110: 9bda e23d fd15 a8bd 58c3 69bd f317 81bc
00000120: 2007 80bd adbd 8c3d 91b9 1abd 37bd 18be
00000130: 4d20 51bd 98d7 7e3e cd0a 94bd b2ac 81bd
00000140: e9cb a83c 6274 d3bc d15b c5bd 96b1 533d
00000150: ccf9 14bd df40 8a3d 9db3 723d 98da a9bd
00000160: 322d dc3b e0d2 e93d c022 263e 0554 0fbc
00000170: ef81 8dbd eb26 313c cd2b e83d 0781 e3bd
00000180: fd0e 983d 41df 5e3c 2a9b 14be 5ac4 a53c
00000190: aed2 2a3d 89e2 b8bb 86b0 54be 3432 07bd
000001a0: 6fae 823d db9b 23bc d11d 5c3d 923c bfbc
000001b0: 8c21 8d3d 1590 5e3e 1905 14be 7b35 94bd
000001c0: 2ba3 29bd 7997 43be 0823 973d a5ed b8bd
000001d0: a793 e3bb 6990 30be 1ba8 0cbc e747 fabd
000001e0: c7c2 88bd 2f15 ebbd cd44 86bd d6d1 dcbd
000001f0: db90 00be c2f1 253d b68e 84bc 2e59 ebbd
00000200: d089 5e3c 5fcd be3d 0a31 72bc 852c 9c3d
00000210: 1a61 c0bc 537b a73d 4c9c cdbd e006 e4bd
00000220: ab03 2f3d ad7c 223d c013 403d 8041 a3bd
00000230: 1a78 01bd ee53 563e 4931 9b3d a16e 6fbc
00000240: c38e ddbd 82c6 013d 2d10 973d 5835 673e
00000250: 780e 10bd f5b7 b5bd 17da 66be bee1 3c3c
00000260: bb54 8fbb 202f 143d 5cc9 b9bd 8968 3abe
00000270: 1c31 6f3e a16a cfbc 53ec ab3c 60a0 ae3d
00000280: 0c4a 953d cd86 2dbe 8345 96bd ed64 c3bd
00000290: 426e 6f3d 7d3d 83be ec6d ecbd 5ef4 e9bd
000002a0: d95a fabd 7359 0abe a45a a93b db47 d33d
000002b0: ad05 503d eb6e 0cbe e3f7 b13c bc14 b13c
000002c0: 2a96 aabc 35de 5ebd 1e90 5a3d 9607 6c3b
000002d0: 9c38 093e d58a 0d3d 2f40 1dbd 34a1 aa3d
000002e0: 8f10 e03d b1d3 cebd bdba 323e d0ca 44bd
000002f0: 4a5f 9bbd 0f7e 8dbc 51a3 95bc c2be 1c3d
00000300: 806b d83d 1366 a13d 5ac7 8bbb efbb e2bd
00000310: 4a99 8ebd 860f 2a3e 6edd cb39 d8e6 673e
00000320: 783b fc3d 4a8a c2bd 3b25 1e3e 1b21 b23c
00000330: 3ecd 563c 2f7c 4f3e 355e a7bd e7f6 e7bd
00000340: 8b9b 4bbe 8f73 04be 4644 6cbc ab32 fdbc
00000350: 4005 a2bd 3b1a e4bd 1bc9 c13d c942 953d
00000360: 2133 153d f488 4dbd 52ba fdbd 682f d2bc
00000370: a14d 363c 8e33 483e b2b8 883d cb43 83bc
00000380: 261e a33d 557a 29be bf7b 103e 4355 393d
00000390: 5060 733d 9089 e7bd 74b0 aabc bcf2 3abb
000003a0: 59a5 23bd dd94 60be ca4f 74bd e930 a03d
000003b0: 40f0 b8bc 9cbf 16bd f2ec acbc 0369 ecbd
000003c0: da9d 14be 86f2 f3bd b551 ca3d 3b24 babd
000003d0: 579b 7dbd 68e1 93bb d850 3abe 9d5c 973b
000003e0: b629 4dbd 426c 3abd 8450 173d 45e4 1c3d
000003f0: f5f3 693c 2dcb 5bbc af5e 5b3d 84e9 4dbd
-0.033657417 0.13566294 -0.09105723 0.050201107 -0.1717984 0.10377152 -0.010363438 0.07852301
-0.11669571 0.025849726 -0.104483366 0.013536897 0.13125727 0.0016006753 -0.13584828 0.008190435
-0.030882569 0.21166556 -0.20772688 -0.022366218 0.09237335 0.09459945 -0.036640342 -0.08875631
-0.0075188456 0.10035317 -0.06585687 -0.03153691 0.24999775 -0.13224591 -0.037852746 0.28534764
-0.1119914 -0.0867548 -0.10094764 -0.09066331 0.10522005 0.0739855 -0.046674237 -0.06969098
0.030702217 0.078939535 0.05592953 -0.13627145 0.00552898 0.16165255 -0.09911462 0.10293642
0.050499264 0.0080434 0.19260593 -0.015647285 0.029925933 -0.008840945 0.14866462 0.03461936
0.025665931 -0.12355664 -0.09266645 -0.035406455 -0.01782053 0.023298208 -0.122836314 -0.088090055
-0.055001434 -0.09002796 0.17815682 -0.057891242 0.11076852 -0.08207319 -0.05707106 -0.01575849
-0.06251359 0.06872115 -0.037774626 -0.1491593 -0.051056195 0.2488693 -0.072286226 -0.06331767
0.020605044 -0.025812332 -0.09636653 0.05168303 -0.036371037 0.067506544 0.059253324 -0.082936466
0.006719255 0.11417174 0.16224194 -0.008748059 -0.069095485 0.010812501 0.11336479 -0.111085944
0.07424734 0.013603033 -0.14512315 0.02023523 0.041704826 -0.0056422395 -0.20770463 -0.03300686
0.06380927 -0.009985889 0.053739373 -0.023344312 0.06891164 0.2173465 -0.1445507 -0.07236763
-0.041415375 -0.19100751 0.073797286 -0.09029702 -0.0069450918 -0.17242588 -0.008585001 -0.122207455
-0.06677776 -0.1147865 -0.065560915 -0.107822105 -0.12555258 0.04051376 -0.016181331 -0.11491619
0.013582662 0.09316515 -0.0147822 0.07625679 -0.023483802 0.08177819 -0.10039577 -0.11134124
0.042728107 0.03966968 0.046893835 -0.079714775 -0.03160868 0.20930454 0.0757776 -0.014613778
-0.10818245 0.031683452 0.07376132 0.22578943 -0.03517005 -0.08872978 -0.22544132 0.0115284305
-0.0043741143 0.036177754 -0.090716094 -0.1820394 0.23358577 -0.0253194 0.020986712 0.08526683
0.07289514 -0.16945954 -0.07337477 -0.095407344 0.05845476 -0.2563285 -0.115444034 -0.114235625
-0.12224359 -0.13510685 0.005168276 0.1031644 0.050786663 -0.13714187 0.021724647 0.021616332
-0.020823557 -0.054411132 0.053360097 0.0036015264 0.13400501 0.03455623 -0.03839129 0.08331528
0.10940658 -0.10098971 0.17454048 -0.04804498 -0.07586534 -0.017272023 -0.018266352 0.03826786
0.10567379 0.07880797 -0.004265708 -0.11071002 -0.06962831 0.16607484 0.00038884155 0.22646654
0.1231603 -0.09499033 0.1544389 0.021744302 0.013110457 0.20262216 -0.081722654 -0.1132639
-0.19883554 -0.12934707 -0.0144205745 -0.03090795 -0.079111576 -0.111378156 0.09462186 0.07288129
0.036425713 -0.050179437 -0.123890534 -0.02565737 0.011126907 0.19550917 0.06675853 -0.016023537
0.07964735 -0.16550572 0.14109705 0.045247328 0.059418023 -0.11305535 -0.020836093 -0.0028526029
-0.03995261 -0.21931787 -0.059646405 0.07821829 -0.022575498 -0.036803827 -0.021109078 -0.11543467
-0.1451334 -0.11911492 0.09878866 -0.09088942 -0.06191572 -0.0045129545 -0.18194902 0.0046191947
-0.050088607 -0.0455134 0.03694202 0.038303632 0.014279355 -0.01341514 0.053557094 -0.050271526

net.2.weight f4 [256, 256]
00000000: 2b2a 283d ff31 53bd 7298 70bd 41a5 09bd
00000010: 980b 8cbd 9cf1 62bd d8e1 4d3c a053 31bc
00000020: be57 7b3d 74e3 d33c c93c 523c 11c7 09bc
00000030: a745 88bd 0070 4a38 ea66 84bd 11ba 11bd
00000040: fde7 353d f8a8 3b3c b89f 8fbd db89 33bd
00000050: 764c 343d ea4a 663d a266 08bd 7981 a33c
00000060: 40e8 77bd 93b3 883c 6397 d63b 1e32 d93b
00000070: 4a8b 413d c053 16bd e77f 3ebc 6d9b e6bc
00000080: 6ae1 43bd 7aef 6fbd a070 b9bd 1681 373d
00000090: 7203 9ebc a49d 2d3d aece b53c 4a4b f63c
000000a0: a8eb 463d d021 86bb 50b2 fd3c 9517 3c3d
000000b0: 45a4 8cbb 2b1c 013c d4cc 37bd c607 27bd
000000c0: 90f0 8e3c 3002 1b3d dd7f 6dbd 804a 3e3a
000000d0: 6898 51bd 36f3 343d 9294 66bd a89c 8f3c
000000e0: 6054 293c 8ab3 5ebd f4f7 493d 6246 81bc
000000f0: 6d60 1c3d ce59 553d 4996 c0bc 81d9 debc
00000100: 44ba 38bd c7c2 c8bd a70e 053d bc67 29bd
00000110: 6ab9 04bd 8b85 5e3a b617 5b3d ea6a 48bd
00000120: f45d 183d 5ecb 533d 247b 48bd 51f0 da3c
00000130: f08b 45bd abca abbd 028a 43bd 228a 7dbc
00000140: dce3 c83c 4c3f 403d 34bf e5bc a714 96bd
00000150: c6ba 29bd e81e 443d 01a6 b73c 6b0a 25bd
00000160: b19e 40bd e365 bf3c 11fc f93c 4059 813b
00000170: a182 b5bd b86c 1d3d 6c6a 23bd f3fd d6bd
00000180: 6ed9 98bd b643 0ebd f2c7 36bd 912d 35bd
00000190: 2e60 96bc 89e2 e4bd e9be 4b3d aa20 9abd
000001a0: 0483 4a3d 3d07 ecba a187 16bd 24aa 15bd
000001b0: 3c9f babb 816f 243d a1d0 65bc 7a86 23bd
000001c0: 60d2 0e3d 35e5 3abd 185a e0bc 72d7 833d
000001d0: c809 5f3d 3df8 acbd db61 6bbd d02b a9bc
000001e0: 4859 15bd 79b1 8cbb 0d04 9abd 00a8 9c3c
000001f0: 47e9 e4bc b026 b6bb b899 073c b061 253d
00000200: 9e27 743c 9149 1ebb 3306 593d 6e6d 82bd
00000210: 299b 22bd d94d 76bc be01 85bc 1fc3 083c
00000220: ced8 27bd b9e7 6cbd 1225 2b3c da48 febc
00000230: f8c1 1c3d 7a00 f8ba d6c0 81bb 9450 80bd
00000240: 2381 91bd 3f04 a93c 35ae 83bd 554e fc3c
00000250: 1c2c 8abd e20f 2fbd d415 98bc ccd7 32bd
00000260: ff4f 833c 73e8 58bc ce54 9bbd 8409 4fbd
00000270: 4d17 f13c 0457 86bd d683 54bd b8d3 a1bc
00000280: 9ba2 ffbc 235e 54bc 735d 7a3d 573d 94bc
00000290: cd6f a33c 1250 053d 071d 6fba b7c6 06be
000002a0: 2c10 ca3c 1bd4 85bd ae9d d0bc 0745 983c
000002b0: 2a5c 8fbc e0ce fd3c 6404 8cbd c700 ee3c
000002c0: 3ccf 8fbc e0ee 5cbd 62aa 043d 4831 573c
000002d0: f066 373d 4b92 4b3c 0ff7 c9bc af2f 89bd
000002e0: 1794 d9bc 30dc 2d3d 178a 023d 6907 e2bc
000002f0: cdca 83bc 906b 74bd c00f 77bc ac58 83ba
00000300: 604e a53b de66 023c 0440 b33c f0de bf3b
00000310: b3c5 9a3d 03c2 c2bc 81de 40bd aee2 83bd
00000320: e97d 2e3c 36f5 8ebd 5976 66bd 9350 f8bc
00000330: 48ed b43c 8ccc b33a 07b4 4abd 90b7 5c3d
00000340: 8534 cabc 50bf 193d e8c1 d8bc fc90 713c
00000350: 74f5 d53c f472 0dbd 9170 4bbd 607c bebd
00000360: af3b 7a3d 3c71 04bd 7833 06bc f9ec 023d
00000370: 482a 44bc 1cf5 bb3c 618f ad3c 0a78 2dbd
00000380: bd07 233c 510c 9a3b f02d 0c3d 80b0 aab9
00000390: 02c2 a2bd 94e6 89bc 8a02 883c a012 6e3c
000003a0: 4098 f03a 2eeb b63c 5064 173d 8745 83bc
000003b0: c3a8 68bd 78c0 2abc 7348 a7bd 4709 6bbd
000003c0: 26c5 53bd cfa1 983c 81f1 213d ea0b 963b
000003d0: 474b 33bd 04b1 7ebd a5c0 49ba 153e 71bc
000003e0: 40c8 da3b b7b6 d3bd 1925 fc3c 4e38 6dbd
000003f0: 8ada 853c 57f2 01bd 6e51 393d 570f c33c
0.04105584 -0.051561352 -0.058739133 -0.033604864 -0.06838149 -0.055406198 0.012566052 -0.01082316
0.061362974 0.025865294 0.012831875 -0.008409278 -0.0665391 4.826486e-05 -0.06464942 -0.035577837
0.044410694 0.0114538595 -0.07012886 -0.04383264 0.04401823 0.056223787 -0.033301003 0.019959198
-0.060524225 0.01668719 0.0065488084 0.006628289 0.047251977 -0.036700964 -0.011627174 -0.028150285
-0.047822393 -0.058577992 -0.09054685 0.04480084 -0.019288752 0.042386666 0.02219328 0.030065197
0.048564583 -0.0040933862 0.030968815 0.045920927 -0.0042920434 0.007880251 -0.044873074 -0.040778898
0.017448694 0.037843883 -0.057983268 0.0007259026 -0.051170737 0.044177257 -0.05629403 0.017530754
0.010335058 -0.05437044 0.049308732 -0.015780631 0.038177896 0.052087598 -0.023509162 -0.027203323
-0.04509951 -0.09802776 0.032484677 -0.041358694 -0.032403387 0.00084885274 0.05348941 -0.048930086
0.037198976 0.051707618 -0.04894556 0.02672592 -0.048229158 -0.08388265 -0.047739036 -0.015474828
0.024522714 0.046935365 -0.028045274 -0.07328158 -0.041437887 0.047881037 0.022418024 -0.04029314
-0.04702634 0.023364013 0.030515702 0.003947407 -0.08862806 0.03843376 -0.039896414 -0.10497656
-0.074633464 -0.034732543 -0.044624276 -0.04423291 -0.018356409 -0.11176021 0.049742613 -0.075257614
0.049441352 -0.0018007528 -0.03675044 -0.036539212 -0.0056952517 0.0401454 -0.014026792 -0.03992317
0.034868598 -0.045628745 -0.02738671 0.06437577 0.054452688 -0.08445785 -0.05746637 -0.020650774
-0.0364621 -0.0042936173 -0.07520304 0.019123077 -0.027943267 -0.005558811 0.0082763955 0.040376365
0.014902024 -0.0024152736 0.052984428 -0.06368528 -0.039698754 -0.015033209 -0.016236182 0.008347302
-0.040978245 -0.057838175 0.01044585 -0.031040598 0.03827092 -0.001892104 -0.0039597554 -0.06265369
-0.07104709 0.020631908 -0.06429712 0.03079907 -0.067466944 -0.042739756 -0.018565096 -0.04366283
0.016029356 -0.013239014 -0.075845346 -0.050546184 0.029430056 -0.06559566 -0.05188354 -0.019754276
-0.031205466 -0.012961897 0.061124276 -0.018095655 0.019950772 0.032547064 -0.0009121452 -0.13161741
0.024665914 -0.065345965 -0.025465813 0.018587602 -0.017500002 0.030982435 -0.06836775 0.029053105
-0.017554872 -0.053938746 0.032389052 0.013134308 0.044775903 0.012425016 -0.02465394 -0.06698548
-0.026559873 0.042446315 0.031869974 -0.027591424 -0.016087914 -0.059672892 -0.015079439 -0.0010020933
0.0050447434 0.007959096 0.021881111 0.0058554336 0.075572394 -0.023774153 -0.047087196 -0.0643972
0.0106501365 -0.06980364 -0.05626521 -0.030311858 0.0220858 0.0013717576 -0.049488094 0.053885996
-0.024683246 0.037535965 -0.02645965 0.01474404 0.026118018 -0.034533456 -0.0496679 -0.093010664
0.061092075 -0.03233455 -0.008190982 0.031964276 -0.011972971 0.022944026 0.021186532 -0.042350806
0.009950575 0.0047011753 0.034223497 -0.0003255643 -0.0794716 -0.016833581 0.016602773 0.014530808
0.0018355921 0.02232894 0.0369609 -0.016024364 -0.05680157 -0.010421865 -0.081681155 -0.057381894
-0.051701687 0.018631844 0.039536957 0.004579057 -0.043772962 -0.062180534 -0.0007696248 -0.014724274
0.0066767037 -0.103375845 0.030779408 -0.057915024 0.01633956 -0.031725254 0.045243673 0.023811026

net.2.bias f4 [256]
00000000: f915 263d d632 2ebd 0398 b83e cbc2 92bd
00000010: 92db 77bd b86e 1b3e 623e 4ebd 1764 413d
00000020: ff97 a5bd c8b1 7bbc 60ed f1bc 9988 6d3e
00000030: 9a21 f9bd 86fb 113e 4b88 4ebd e134 cabc
00000040: 3795 77bc 9e09 d2bd e4c8 afbd a0d7 8abd
00000050: eb1b 48bd 6743 793d 57bf 10be f500 b4bc
00000060: 5d6c 1d3e 50f8 30bc 5339 473e c12b a53d
00000070: 2d25 86bc ee8c 623d c4de 493e b3cc cc3d
00000080: 7c22 763e 789a f7bc 968b 85bc a5ae ac3d
00000090: b2e5 193d 1a25 d23c 08cc 23bd 32d6 063e
000000a0: 4843 6e3e cf3c 1a3e 8f89 8cbc f447 d9bc
000000b0: b067 3d3e 6f95 213e 1d5a afbc 9ab3 943e
000000c0: 0deb 423d 49de 733e ed5b 96bd 7850 553e
000000d0: 13d1 4f3e 2256 fabd 7d85 133b cf11 f43d
000000e0: b8b3 073e 57b4 66bd 3e56 e8bb 9d24 cebc
000000f0: d6ce 163e edae d9bc 92a5 2abe 5412 b8bd
00000100: 6830 68bd 77b2 0e3e dc40 1abd 8b52 113e
00000110: 5d0b 413e ecb7 bdbc 5ce7 933c cf95 333e
00000120: c6a7 123e 0a0f 57bd 802b 6dbd a9e7 9dbd
00000130: f3e3 8d3c a80b 4d3c e4e9 0c3e 28b0 433e
00000140: b4f9 023d aab0 f03d 7163 5d3e 697a a1bc
00000150: 3bae 783e 5c3d 213c 9484 913e cc37 d63d
00000160: 97c4 3fbd 67de 13bd c1a1 e33d a7f8 ab3c
00000170: e63f 7c3c cc47 913e 73f3 99bd fbad 91bc
00000180: 81d9 bfbd f224 ddbd 4cca efbd 4043 873e
00000190: bbba 013e 29c4 84bd 85e0 36be a1c2 4a3e
000001a0: bace 073e 80d4 dd3b bd84 5b3e e669 d0bc
000001b0: f0dc 68bd cff7 883d ea22 a63c 77b6 54bd
000001c0: 7bdc 243e 6f2c 583e 3b64 3ebe c428 4abd
000001d0: ddb8 513e f649 7ebc 8b3c b2bc 3635 60bd
000001e0: b178 82bd 1721 3fbd 51ad e7bd 5c6d 8d3c
000001f0: 853e c83d b6e9 2e3e bcc9 ab3c a7dd 653e
00000200: 64eb 5d3e 900a 09be 4c37 91bd 4c6d 8cbd
00000210: 249b 023e 63e7 90bc 750d 71bd d21d 92bd
00000220: 5164 823d d33f a0bb a9ce 933c c01a fc3c
00000230: bdeb 6abd 3c8a 0a3e 3a52 773c 2544 92bd
00000240: 01ab 4cbd 66f4 1d3d d54c 663d 2161 98bc
00000250: e6bc 7e3e 7890 f7bd e6b3 10be 42e0 8d3e
00000260: a779 ddbd 54f2 023c 9c90 afbc d095 10bd
00000270: 3bd0 043a 980d 92bd 7e67 93bc 600f 1a3d
00000280: c6d4 663e 268e 4a3d 7310 9ebd 3037 37bd
00000290: 240f b93d dadf edbd 4e4a 2c3d 2840 053e
000002a0: 04f4 d43b 0ef6 d8bc c738 d0bc 2041 9abd
000002b0: 90c8 9e3c 0fea bebc 9677 963c 55a4 73bd
000002c0: 438e 5dbd f3d0 143e 0428 84bd 126e 503e
000002d0: 8c41 b4bd aafe 46bd e700 203e 45d1 633c
000002e0: 90c1 e9bc 8be3 94bd d814 ebbc eafc 3b3e
000002f0: 040a 55bb 6f92 d4bd 2812 1ebc 6c22 e7bd
00000300: 54be 92bd 9daa 76bd db08 4b3c 7e56 463d
00000310: fef2 483e f6b2 f9bc 75d9 843e 7487 a1bd
00000320: 933d 7bbd a032 23bd db83 103e c2f8 c23e
00000330: 1bcc dfbd e842 45bd e5a7 863d e185 4abc
00000340: c586 17bc a386 a8bb 8038 853d 1fe5 133d
00000350: 9126 a13c ea4d 113e 4a31 b6bd 139d 183e
00000360: 51e8 1f3e e675 513e 2b34 1abe 0cc2 803c
00000370: 3314 2e3d d854 473e 3bc4 9d3d 5f42 3fbd
00000380: 053a 153e e86a 81bd 75c3 98bd da89 3abd
00000390: a7f8 a6bd 3754 e3bc fe57 edbc 183d 84bd
000003a0: ac25 85bd 987f e93c 114f 38bd 6e8b 87bd
000003b0: 9cfd 2d3e 8cde ddbd 8cde 253e 0c50 2e3e
000003c0: 8d31 1e3e 86d1 2d3e f068 bb3e fdb6 933d
000003d0: 2804 12bd d702 f33c dc1f 653e b52c b0bd
000003e0: 6a31 e43b d992 1b3e dc54 c73c c4e2 d2bc
000003f0: 3a8e af3a c4aa abbd d7d5 103e c79e 673e
0.0405483 -0.04252895 0.36053476 -0.0716606 -0.060512133 0.15178955 -0.05035246 0.047214594
-0.080856316 -0.015362211 -0.029532135 0.23196639 -0.12164612 0.14256105 -0.050422948 -0.024683418
-0.015111259 -0.102557406 -0.08583239 -0.067794085 -0.04885475 0.060855296 -0.1413549 -0.021973113
0.15373369 -0.01080139 0.19455461 0.08064986 -0.016375149 0.055310182 0.19713885 0.09999981
0.24036592 -0.030225024 -0.016301911 0.08431748 0.03757257 0.025652457 -0.0399895 0.13167647
0.23267853 0.15062259 -0.017155437 -0.026523568 0.18496585 0.1577966 -0.021405274 0.29043275
0.047587443 0.23815264 -0.07341752 0.20831478 0.20294599 -0.1222346 0.0022509985 0.11917459
0.13252151 -0.05632433 -0.007090359 -0.025163943 0.14727339 -0.026572669 -0.16664723 -0.08987871
-0.05668679 0.13935266 -0.03765951 0.14191644 0.18851991 -0.02315899 0.018054657 0.17537616
0.14321813 -0.052504577 -0.057902813 -0.07710201 0.017320609 0.012514986 0.13761097 0.19110167
0.031976417 0.11752446 0.21619965 -0.01971169 0.24285214 0.009841289 0.28421462 0.10459861
-0.046818342 -0.03610077 0.111148365 0.02099259 0.015396094 0.2837509 -0.075171374 -0.017783156
-0.093676575 -0.107980624 -0.11708507 0.26418495 0.12668888 -0.06482727 -0.17859085 0.19800808
0.13262454 0.0067697167 0.21437354 -0.025441121 -0.056851327 0.06687891 0.02028032 -0.051931825
0.16099732 0.211107 -0.18592922 -0.049355283 0.20480676 -0.015520563 -0.021757385 -0.054738246
-0.06370676 -0.046662416 -0.11312354 0.01726406 0.0977755 0.17081341 0.020970218 0.22447835
0.21671826 -0.13382936 -0.07090625 -0.06856784 0.12754494 -0.017688459 -0.058850724 -0.07134594
0.0636679 -0.004890421 0.01804288 0.030774474 -0.057353724 0.13529295 0.015095288 -0.07141904
-0.04996777 0.038563155 0.056225616 -0.018601002 0.24876747 -0.12088102 -0.14131126 0.27710158
-0.10814219 0.007992346 -0.02143126 -0.035299122 0.0005066429 -0.07131499 -0.017993685 0.03761232
0.22542104 0.04945197 -0.07717981 -0.044730365 0.09036091 -0.11614962 0.04206305 0.13012755
0.0064988155 -0.026484516 -0.025417699 -0.07531953 0.019382745 -0.023304967 0.01836757 -0.05948289
-0.05409075 0.14532833 -0.06452945 0.20354488 -0.088015646 -0.04858271 0.15625344 0.013904874
-0.02853468 -0.07269963 -0.028696463 0.18358198 -0.003250719 -0.103794925 -0.0096478835 -0.11285862
-0.071652085 -0.060221303 0.012392248 0.04842233 0.19623944 -0.030480843 0.25947157 -0.07887164
-0.06133802 -0.0398432 0.14112799 0.38080412 -0.10927602 -0.04815951 0.06574992 -0.012361021
-0.00924844 -0.005143003 0.06504917 0.03610718 0.01967171 0.14189878 -0.0889612 0.14903669
0.15615965 0.20455131 -0.15058963 0.015717529 0.042499732 0.19465959 0.077034436 -0.046694156
0.14572914 -0.06319219 -0.074591555 -0.04554162 -0.081528954 -0.027750118 -0.028972622 -0.06456965
-0.06501326 0.028503224 -0.04499728 -0.06618391 0.16991276 -0.10833463 0.16198176 0.17022723
0.1544859 0.16974458 0.36603498 0.072126366 -0.035648495 0.02966444 0.22375435 -0.08602277
0.0069638984 0.15192737 0.024332456 -0.025742896 0.0013393827 -0.0838218 0.14144073 0.22619162

net.4.weight f4 [3, 256]
00000000: cb9b 093d 1a89 003d 37b3 a03e 7736 09bd
00000010: 2bec 793e c1f0 013f e828 5ebd a0b4 253c
00000020: 002f 493b 921f dabc 7c60 dabb 7d6a 943e
00000030: c3cf e9bd 4804 a03d 78a7 8abe 1b38 afbe
00000040: 4b98 b73c 3330 ce3c 0809 90bd 6026 94bc
00000050: 1a7d 733b b2a4 2b3e 417a e0bd b6cb 3cbd
00000060: ced7 193e ce0b 27bd 7aaa 8f3e 1295 e23e
00000070: ce12 b8bc 524c 523e cddb 8d3e 0b5b d33d
00000080: d3f6 a43d 7966 d2bb 0e4d 3e3d dac1 473e
00000090: 8dad ffbb 8e43 1cba d062 b5be de43 933e
000000a0: 821e 533e d852 413e 50fe 4c3d 0668 073d
000000b0: 8641 7a3e 2813 a73d bd7c 0ebd 13ea 643e
000000c0: 635d 2dbf 096c 403e 53ea 2abd 272f 103e
000000d0: 0994 773e 0f2e 90be 233f 14bd 56a6 4b3e
000000e0: 117a 213e b1a5 76bd 3c34 5dbf dc03 113e
000000f0: a8e4 8f3a 5e41 83be 7e5e abbd bbe9 8c3c
00000100: 9eaa d93c faec f2bf aeff a7bb fa1d 57bd
00000110: 0ffe a43e f28d 603e cde7 aebc 86da 213e
00000120: 9266 bc3d a9c2 a0be ca4a 0bbd 01b6 1dbf
00000130: fe0e be3e fd59 04bd 71da 143e 7e87 553d
00000140: 2af9 67bc dc57 433e 75eb af3e 0c5c 99bd
00000150: d0d9 023e 9e6c 24bf 93bf 803e 2d47 3b3e
00000160: 78ea c3bd 4917 76bd c637 c33d 2c93 b93c
00000170: 2378 22bf 1346 453e a8b3 23be d299 91bc
00000180: 28e3 abbe d548 9ebd 9d2d 39bd 2e99 833e
00000190: b736 bf3e 0943 12bd 4661 d6be ba87 3b3d
000001a0: f922 983e 8d6e c53b 88ac 223e a9be 173b
000001b0: 9bad 2fbd 5f54 bebf 7d10 80be 033a e4bd
000001c0: 0f19 543e 99d7 cd3d cacd b8be e697 42bd
000001d0: e630 6a3e 82b6 f5bc 51ea 1ebf 2e52 353d
000001e0: 63c3 ed3e 122c 57bd c211 34be 5db0 8fbc
000001f0: d32a 2dbe 31ee 0a3e 0d17 fdbb d3cf da3d
00000200: 4e18 803e 29d6 21bf 13b6 a7bd df6c 8e3c
00000210: f3bb d63e d5c4 ebbc 56f3 a0be 373e 14bd
00000220: 9e12 0f3e 76da df3c 9081 4fbd 0381 c53e
00000230: e60e 33bf 01cd 953e 84a0 08bd aed0 253d
00000240: 4e46 52bd 23af 8a3e 2e09 20bd 2173 7c3c
00000250: 29a3 8a3e 66d1 a2bd 7799 31be 210a 1c3e
00000260: c1dc efbd 72a9 07bf 7b22 fabe 608d 1dbc
00000270: 9a99 43bc a803 22be ca49 82be 484b 223e
00000280: 3fa2 b03d 2951 173f 9885 d83c fa89 0dbd
00000290: 9f48 4dbf 3994 b0be 1f51 1ebf 3eff 813e
000002a0: 593d 143d 3d62 37bd 5a7b 3abd d514 8fbc
000002b0: cb08 48be 7cc0 0bbd 2b2a 89bc cdb5 703d
000002c0: 630e 333e 9ecd 343e 9ce5 d4be 400d b03d
000002d0: 7acf 4e3c fd94 763d 7a44 223e ba02 493d
000002e0: ef46 03bc 6dca 553d 3052 e53c f94b 8a3e
000002f0: bda4 9cbf d514 cfbe 8d42 4ebe 1147 b2bf
00000300: 1d58 cdbc 072a 96bd 8286 e03e 5744 8ebf
00000310: 9246 be3c 2e2e 603d caf3 b03e 55d4 cfbe
00000320: 8544 2fbd e618 61be 14a3 f13d 403c 953e
00000330: dc35 58bd cb6a f3be 2769 763d 24ee 45bf
00000340: 3ea4 25bd 14d3 8dbd fcc0 bc3d e6d2 f0bd
00000350: 2cbf 963b 9db3 053f 760a 81bd e639 073e
00000360: 77e4 fc3e d0bc af3e 26cd 4fbe 8b40 fb3c
00000370: b0b8 023a 4efb 2c3e b333 cabe c5cd 623b
00000380: 2110 8a3e 6567 2abe aa03 94bd ad1e 23bd
00000390: 4c1f 0fbe 1bcc 1dbf cab8 bbbe 0a6f 07bd
000003a0: 29ba 10bd 1ea2 aebe 42d9 59bc f619 81bd
000003b0: cf77 a93e 124f 28bd 2e9c 963e 1c34 713e
000003c0: cf51 2c3e 4f59 5abf 27cd 413e fd47 6b3e
000003d0: e27a 4f3d f26c a2bf c39a ee3d aac6 ecbc
000003e0: 4f8e f7bb 8a43 b43d 7887 d83c e0c8 043d
000003f0: 89a6 403d 2f2c ddb9 976d f03e fdce c63e
0.03359584 0.03138075 0.3138673 -0.033499207 0.24406497 0.50757986 -0.05423823 0.010113865
0.003069818 -0.026626382 -0.006664334 0.28987494 -0.114165805 0.078133166 -0.27080894 -0.34222493
0.022411486 0.025169468 -0.070329726 -0.018084705 0.0037153424 0.16762045 -0.10960818 -0.04609271
0.15023729 -0.040782742 0.2805975 0.44254357 -0.022469904 0.20536926 0.27706757 0.103200994
0.080548905 -0.006420907 0.046460204 0.19507542 -0.0078026713 -0.0005960994 -0.3542695 0.28762716
0.20617107 0.18879259 0.05004722 0.03305819 0.24439058 0.08157951 -0.03478693 0.22354917
-0.6772062 0.18791212 -0.041727375 0.14080487 0.24177565 -0.2816014 -0.036193024 0.19887671
0.15769221 -0.06021661 -0.8640783 0.14161628 0.0010978179 -0.2563581 -0.08367632 0.017201295
0.026570614 -1.897857 -0.005126915 -0.052518822 0.3222508 0.21929148 -0.021350766 0.15806016
0.09199251 -0.31398514 -0.03400687 -0.6160584 0.37120813 -0.032312382 0.14536454 0.05213117
-0.014158526 0.19076484 0.34359327 -0.0748826 0.12778401 -0.64228237 0.2514616 0.1828887
-0.09566206 -0.0600808 0.09532122 0.022653185 -0.63464564 0.19265012 -0.15986502 -0.017773543
-0.33571744 -0.07728735 -0.045209516 0.25702804 0.37346432 -0.03570846 -0.4187109 0.045783736
0.29714182 0.0060251416 0.15886128 0.0023154414 -0.042890172 -1.4869498 -0.2501258 -0.11143877
0.20712684 0.100508876 -0.36094505 -0.047508143 0.22870216 -0.029994253 -0.6207629 0.044267826
0.4643813 -0.052532263 -0.17584899 -0.017540151 -0.16910867 0.13567425 -0.007723695 0.106841706
0.25018543 -0.6321741 -0.08189025 0.017385898 0.4194027 -0.02878038 -0.3143565 -0.036192145
0.13971946 0.02732585 -0.05066067 0.3857499 -0.6994461 0.29257968 -0.033356205 0.040482216
-0.05133658 0.27086744 -0.039071254 0.015408308 0.27077606 -0.07950096 -0.17343698 0.15238239
-0.11712027 -0.5299293 -0.48854432 -0.009616226 -0.011938477 -0.15821707 -0.25446922 0.1584903
0.08624696 0.59108216 0.02643089 -0.034555413 -0.80188936 -0.34488085 -0.6184253 0.25390047
0.03619132 -0.04477142 -0.045527793 -0.017465988 -0.19534604 -0.034119114 -0.01674374 0.05876713
0.17485957 0.17656562 -0.41581428 0.08596277 0.012622708 0.06020068 0.15846434 0.049074866
-0.008012517 0.052195 0.027993292 0.27011088 -1.2237774 -0.4044558 -0.20142575 -1.3927938
-0.02506643 -0.07332235 0.4385262 -1.1114606 0.02322701 0.05473154 0.34560996 -0.40591684
-0.042789955 -0.21982154 0.11798683 0.2914753 -0.05278574 -0.47542414 0.060158875 -0.773165
-0.040439837 -0.069250256 0.09216496 -0.11758976 0.004600426 0.52227193 -0.063008234 0.1320568
0.49393055 0.3432374 -0.20293102 0.030670425 0.0004986627 0.1689274 -0.39492568 0.0034607511
0.2696543 -0.16641004 -0.07227261 -0.039824177 -0.13976783 -0.61639565 -0.3666442 -0.03306488
-0.035333786 -0.3410806 -0.013296427 -0.0630378 0.3309922 -0.041091032 0.2941603 0.23555034
0.16828083 -0.85292524 0.18925916 0.2297668 0.0506543 -1.2689497 0.11650612 -0.028903324
-0.0075548063 0.088019446 0.026431784 0.03241813 0.04703382 -0.00042185324 0.4695861 0.38829795

net.4.bias f4 [3]
00000000: 63e3 773e a95c b43e 0b64 5d3e
0.24207835 0.35226944 0.21620195
