iteration(models)/good - slow/dqn_highway.pt (torch, 344133 bytes, 6 tensors)

net.0.weight f4 [256, 70]
000000 ea 7d 57 3c b6 4d a4 bd f7 7d dd 3e 35 42 ec bb
       0.013152579 -0.08022635 0.43260166 -0.007210041
000010 b4 f6 71 be 6b d9 89 3d 35 82 55 bd 2a e7 04 be
       -0.23629266 0.06730922 -0.05212613 -0.12978807
000020 94 d9 c6 bf 54 c5 43 3e dc b1 a6 3d 4d 3a 80 3e
       -1.553515 0.19118243 0.08139393 0.2504448
000030 a0 73 97 3d 39 46 bc bd 92 1c b5 bc cd 87 65 be
       0.073951006 -0.091930814 -0.02210835 -0.22415085
000040 ce ff 8e 3d 99 c8 c4 3c 51 d7 77 3e b5 63 05 be
       0.069823846 0.024021434 0.2420323 -0.13026316
000050 47 1e 3c 3e 1d 49 f9 3c ea 7b 9a be a6 da 96 3e
       0.18370925 0.030430371 -0.30172664 0.2946369
000060 19 b9 b8 bb 6f 8d 2a 3e 01 d2 10 be 12 93 90 3b
       -0.0056372997 0.16655515 -0.1414261 0.0044120634
000070 2c 20 03 be 66 6e 04 be 55 80 39 3e bb ca f2 3d
       -0.12805241 -0.12932739 0.18115361 0.11855074
000080 7f 7d bd 3d cd 0d 9f bc 6b e9 86 be 52 26 34 bc
       0.09252452 -0.01941576 -0.2634996 -0.010995464
000090 dd 5a 6a be ac 44 ac bd b7 3e 99 3c 66 01 70 3e
       -0.22886224 -0.084115356 0.018706663 0.23438033
0000a0 51 52 01 be a3 d1 b0 be 6f 5e f1 3c 5d ed 5c be
       -0.12629057 -0.3453494 0.029463975 -0.21574922
0000b0 59 dd 1a bd b1 96 ad 3d a7 08 14 3e 66 01 1f 3d
       -0.03780875 0.08476008 0.14456426 0.038819693
0000c0 f0 09 cd bd 21 2e 87 bd 67 c0 02 3c f9 17 3b 3d
       -0.10011661 -0.06600595 0.007980443 0.04567716
0000d0 9c 36 3b 3d db a6 94 3d 93 9b 0b bd 57 d7 aa be
       0.045706376 0.07258388 -0.034083914 -0.33367416
0000e0 30 fc a5 3d cb 4b 21 3d f6 f9 8f be 22 5f 89 3d
       0.081047416 0.039378922 -0.28120393 0.06707598
0000f0 52 32 01 3e 06 22 63 bd c3 b3 e3 3d a8 21 29 bd
       0.12616852 -0.05545237 0.11118271 -0.041291863
000100 8c 62 17 3d ee 4f e4 3e 39 7d f0 3c d5 8b c8 3d
       0.036959216 0.44592232 0.029356586 0.09792296
000110 06 42 1f be 5a 86 6a 3e b0 3b c5 3d 70 43 54 bb
       -0.1555253 0.22902814 0.09630525 -0.0032388829
000120 f6 c9 b9 be 4e 19 99 bd 7b 21 96 bd 02 33 0e 3e
       -0.36286896 -0.074755296 -0.07330605 0.13886645
000130 4f 6c 09 be 80 8a 92 3d a2 e2 96 bf 99 ba bb 3e
       -0.13420223 0.07155323 -1.1787913 0.366658
000140 ed 0a 72 3d 7f 2f 0c 3d 59 98 7a bd d6 01 6e 3e
       0.05909245 0.034224983 -0.061180446 0.23242888
000150 0e 5d 9e 3d 25 fd 1c bf b5 48 ea be 74 8b 9d bd
       0.077325925 -0.6132377 -0.45758596 -0.07692614
000160 c0 bf 2a bd 31 14 08 3e 6e e0 91 bf a6 ef 91 3d
       -0.041686773 0.13288952 -1.1396616 0.071257874
000170 8a d3 c6 bd c1 28 da be 17 40 72 3d a4 9a 9c 3c
       -0.097083166 -0.42609218 0.059143152 0.019116707
000180 a4 f2 03 3e 17 5a 02 3e fa 5a 09 3d dc 34 e6 bd
       0.12885529 0.12729679 0.033534028 -0.11240551
000190 77 88 d9 bd d1 00 bd 3d de 8b b9 3d 64 ae 01 3e
       -0.10621732 0.09228671 0.09059881 0.12664181
0001a0 15 89 06 be 30 24 f1 3c 0e 30 5f bd 1e fc 07 3e
       -0.1313823 0.0294362 -0.054489188 0.13279769
0001b0 d9 d5 2a bd af 29 54 bb 15 8c a9 3d 66 e9 08 3f
       -0.041707847 -0.0032373478 0.08278672 0.5348114
0001c0 6a 9c 9d bc 56 fb 15 be 94 a4 0e bd 7b 3b 24 3d
       -0.019239623 -0.14646658 -0.034824923 0.040095787
0001d0 e1 5d 3e bc b0 20 bf 3d 69 65 d6 3e 66 91 eb 3d
       -0.011619062 0.093324065 0.41874245 0.11502342
0001e0 fb 56 7e 3c b1 96 a5 bd f3 af 62 bc 2f ee c3 3d
       0.015523667 -0.08085383 -0.013835895 0.09566914
0001f0 e9 df 0d 3d 76 ca 80 be 8a 42 e2 bc 7b 2d 44 39
       0.034637365 -0.25154465 -0.027619619 0.0001870896
000200 67 50 88 3d e6 f1 27 3d 6f 4f 42 3e cb 57 00 3e
       0.066559605 0.041002177 0.18975614 0.1253349
000210 6f c9 1f 3e e8 95 43 bb 61 38 11 be 77 6b 0c bd
       0.15604185 -0.002984399 -0.14181663 -0.034282174
000220 7e b7 69 3c fb 8b 28 3e 51 c7 f9 3d c8 fe ff be
       0.014264939 0.16459648 0.1219622 -0.4999907
000230 e3 2d da 3d 4f 8d 2a bc a8 17 3a 3d c2 83 75 3d
       0.106532834 -0.010409667 0.045432717 0.059940107
000240 4c 3c 62 bd 17 a1 9d 3d c5 6c 39 3d 45 03 a1 bd
       -0.055233285 0.07696741 0.045269746 -0.07861952
000250 13 40 d1 3d 45 c1 c3 3d 2c 5e 01 3d 2f c6 87 bd
       0.10217299 0.095583476 0.03158395 -0.066295974
000260 b7 c9 da 3b 53 63 1b be 5a 55 e3 3c 42 d1 bd 3a
       0.0066768783 -0.15174608 0.02775066 0.0014481919
000270 05 9f 57 bb ab a9 01 3e 30 57 8d bd 6a ff c8 3a
       -0.003290118 0.1266238 -0.06901395 0.0015334908
000280 2e d4 9c 3d 05 58 26 3d 7a 69 c2 3c 40 7a f3 3d
       0.076576576 0.040611286 0.023731936 0.11888552
000290 b2 55 8f 3c 13 0e c6 bd e6 7e a1 bd d8 3e 41 3e
       0.017496917 -0.09670653 -0.07885532 0.18871629
0002a0 51 ee d2 3d 89 51 0e 3e ad f3 de bd 8d 37 d4 3d
       0.102993615 0.1389829 -0.10886321 0.10362158
0002b0 fe ea a6 bd 1e d1 07 bd 73 d2 2e 3e 7d 28 5f 3d
       -0.0815029 -0.033158414 0.17072468 0.054481972
0002c0 4b 52 36 3d 2d c4 29 be 62 b5 48 bd 6b 5c 06 be
       0.044512074 -0.16578741 -0.049001105 -0.13121192
0002d0 77 0e 78 bd c4 56 9d 3d 34 6b 01 3e 08 0a a9 3d
       -0.06056067 0.07682565 0.12638551 0.082538664
0002e0 29 51 11 3d a1 d0 6c bd d1 a3 0f bd da 97 01 3e
       0.03547779 -0.05781615 -0.035068337 0.12655583
0002f0 19 36 aa bc a7 cb bb 3d e8 80 e2 3b 5c 1c 39 bd
       -0.020777749 0.09169703 0.0069123395 -0.04519306
000300 19 61 01 bd b6 74 2d 3d 6f b7 e2 3d 1e 20 65 bd
       -0.03158674 0.042347632 0.110701434 -0.055938832
000310 d6 eb ef 3c 91 68 8c 3d 35 0d ee bd 39 d8 31 3c
       0.02928726 0.06855882 -0.11623613 0.010854774
000320 26 14 a3 bd b5 d3 af 3d 91 8a e2 bd 44 74 f1 3d
       -0.079628274 0.08585302 -0.11061586 0.11789754
000330 91 0a ca 3d a4 34 ff 3d 6e e9 5d 3d 52 95 db bd
       0.09865297 0.12461212 0.054177694 -0.1072184
000340 d8 a2 06 bc 83 08 75 bc 14 ec 33 be a8 bc 82 bd
       -0.008217536 -0.014955643 -0.17570525 -0.063836396
000350 2b c8 c4 3d ee 5e 49 3d 72 db 43 bd c3 62 75 bd
       0.096084915 0.049162798 -0.0478167 -0.05990864
000360 6d 1c c7 3b 4d ae af bc ae 11 d7 3e 71 cb 9a 3f
       0.0060763867 -0.021445418 0.42005676 1.2093335
000370 1f 4c b9 3d 6d 26 6c 3e 67 8a 09 bd f3 8f af 3f
       0.09047722 0.23061533 -0.033579256 1.3715805
000380 31 0a 6d bd f3 e7 19 3e 2f 78 9d be 2a 10 30 3d
       -0.057871047 0.15029888 -0.30755755 0.042984165
000390 45 48 b8 3c 73 70 2a bd 4b 13 ee be 57 43 d4 bd
       0.022495398 -0.041611146 -0.46499094 -0.103644066
0003a0 b0 40 8d 3d ae 55 e1 be 45 ac dc 3d 7d 3e c5 3c
       0.06897104 -0.4401068 0.10775045 0.024077648
0003b0 2e 49 27 3c 9e da 30 bf f3 92 11 3d 9a a0 d8 bd
       0.0102103185 -0.69083583 0.035540532 -0.10577507
0003c0 22 34 5d bd 22 b7 85 3d 9a 73 f5 bd 42 a9 2b bc
       -0.054004796 0.065290704 -0.1198494 -0.010477366
0003d0 14 50 33 bf a0 1b 32 be ac 14 d6 bd 26 a1 5f 3d
       -0.70044065 -0.1739335 -0.104531616 0.054597043
0003e0 07 f0 f0 38 be 78 8d 3d 9a ea 25 3c 6d d7 09 bf
       0.000114888004 0.06907795 0.010126734 -0.5384434
0003f0 60 63 40 be 5c 4d 0e be b5 a4 b3 bd 04 79 01 3e
       -0.18787909 -0.13896698 -0.0877165 0.1264382

net.0.bias f4 [256]
000000 be 1d 27 bc f0 e3 bc 3d 2f 56 f7 3d f7 9d c7 bd
       -0.010199962 0.09223163 0.12076985 -0.09746926
000010 30 0e c0 bc 80 5d 7c bb c8 cc 13 be 43 c6 d9 3d
       -0.023444265 -0.0038507879 -0.14433587 0.106335185
000020 df 5f dc bd 3d 14 14 3d 5b 32 b6 3d bd 82 20 be
       -0.107604735 0.036152113 0.08896323 -0.15674873
000030 e5 84 f7 bd f4 32 25 bc 0f 24 0b bd b1 cd e8 bd
       -0.120858945 -0.010082949 -0.033969935 -0.113673575
000040 08 f3 03 3e cd dc 27 bd 4f b5 62 bc db b5 ae bc
       0.12885678 -0.040982056 -0.013837173 -0.02132695
000050 11 5e 91 3c 36 21 52 bc 80 c0 08 be d7 f9 95 3d
       0.01774505 -0.012825301 -0.13354683 0.07323044
000060 1c 1f f8 3b f4 23 95 3c 08 07 07 3e d8 d2 5f 3e
       0.007572068 0.01820562 0.13186276 0.21857774
000070 a8 9b e4 bd 96 64 7a 3a 63 5b 22 3d 5e f5 a0 3d
       -0.111625016 0.00095517316 0.039637934 0.078593
000080 a7 2b 9e bc ed 6c 82 bd 76 bf 80 bd ad 65 94 3d
       -0.019307924 -0.06368432 -0.06286518 0.072459556
000090 84 49 92 bd 3f 7c 1b be 0d 72 dc 3d 84 69 66 bd
       -0.07142928 -0.15184115 0.10763941 -0.05625297
0000a0 8b 30 d4 3c dc 6b fb 3c c1 65 dd bd 19 ac ff bd
       0.025902053 0.03069108 -0.10810424 -0.12483997
0000b0 9b c6 c9 bd 9a f1 11 be 28 ca 80 bd 0b c2 7e bd
       -0.09852334 -0.1425232 -0.06288558 -0.062196773
0000c0 b0 19 36 3d 7f c4 e3 bc cf 0d 14 be 5a e0 aa bc
       0.04445809 -0.027803658 -0.14458393 -0.020858932
0000d0 50 8f d0 bc 71 48 a7 bd e1 cb 05 bd de a1 1d 3e
       -0.025458962 -0.08168114 -0.032665137 0.15393779
0000e0 5d 90 6c bd d1 db 27 3a c3 c5 bc 3c 53 be 5f bd
       -0.057754863 0.00064032996 0.023043519 -0.054624867
0000f0 33 44 87 bd 86 b7 f1 3d 90 3a 54 3d 73 3d f7 3c
       -0.06604805 0.118025824 0.051813662 0.030180668
000100 09 25 d4 bd e5 81 e2 bd 03 58 32 3c 82 90 0b be
       -0.103586264 -0.11059932 0.010885241 -0.13629344
000110 d0 5e 3a bd f2 93 3e be 87 d4 74 bc eb b6 8f bd
       -0.045500576 -0.18611124 -0.014943249 -0.07017311
000120 1e 3b 30 bd 2c d3 21 3d c8 7b b5 bc bf c3 a9 bd
       -0.04302513 0.03950803 -0.02215375 -0.08289289
000130 3d e4 e8 3d f9 82 2e bd 67 cc 2f 3d 99 b1 86 bd
       0.11371658 -0.042605374 0.042919543 -0.06576843
000140 ce 43 14 bd 9f 85 6f bd 57 d7 8a bd 66 db 81 bd
       -0.036197476 -0.05847704 -0.06779354 -0.06340675
000150 1a e1 00 3d 60 9f 27 3d c4 2d f1 bc f0 0b 77 bd
       0.031464674 0.040923476 -0.029440768 -0.06031412
000160 73 c9 75 bd 9e b2 97 bc ce 5f 35 bd 6b fb 37 bb
       -0.06000657 -0.018517788 -0.04428082 -0.002807344
000170 6a ea cc bd 50 f3 43 3d 00 7b d6 3c 14 64 b1 bd
       -0.100056484 0.047839463 0.026181698 -0.086616665
000180 a7 56 ba bc 96 be ff 3c f4 97 bd 3c 12 68 06 3d
       -0.022746397 0.031218808 0.023143746 0.032814093
000190 07 a0 4f 3d 72 67 81 3d 9f af 82 3d 7e 25 a9 3c
       0.050689723 0.06318559 0.06381153 0.02064776
0001a0 27 f7 d2 bd 4b 0d f3 bd 33 6d 6f 3b 4c 6e 82 3c
       -0.10301047 -0.1186777 0.0036533594 0.015921734
0001b0 7f 77 0a 3c 53 6b 71 bd 0d 48 0d 3d 9a 9f 18 3e
       0.008451342 -0.058940243 0.03449254 0.14904633
0001c0 c2 6c cd bd 0c 2f 95 3d 0e 9c 69 ba e7 a6 9c bc
       -0.100305095 0.07284364 -0.00089114986 -0.019122554
0001d0 97 48 0e be 0d 96 50 be 88 61 3b 3c 1f dd da bd
       -0.13894878 -0.2036974 0.0114368275 -0.10686707
0001e0 df a4 d3 bc 0b 5c c9 bd 17 fa 00 be 78 8d 44 be
       -0.025835453 -0.09832009 -0.12595402 -0.19194591
0001f0 5f f2 5d 3c 6f 44 1b 3d 9b 04 95 bd 40 34 de bd
       0.013546555 0.03790706 -0.07276269 -0.1084981
000200 0b ce 6d 3d 08 e6 e3 3d 5d ea 86 bc 49 70 a1 bc
       0.058057826 0.11127859 -0.016469175 -0.019706862
000210 ac 2c 9a bd 1a 98 e2 bd f3 4f 7c be e4 d1 a2 bd
       -0.07528052 -0.11064167 -0.24639873 -0.0795019
000220 16 81 1c bd 94 71 95 bd 25 a0 6a bd 74 0b 7c bc
       -0.038209043 -0.07297054 -0.057281632 -0.01538359
000230 98 18 c1 bd 78 52 bd bd 9a 12 0e be 6b 04 bf bc
       -0.09428519 -0.09244245 -0.13874283 -0.023317536
000240 dc 6a 0f 3e aa d4 fe bd 3e e8 a2 bd 49 e3 69 be
       0.14005607 -0.12442906 -0.07954453 -0.22840609
000250 1a 4c 89 3d 98 2b a6 bd 59 8d 88 3d d9 e6 85 3c
       0.06703968 -0.081137836 0.06667585 0.016345428
000260 68 3b ce bd de 09 be 3d 05 a2 46 bc 6b 65 dd bd
       -0.100699246 0.09279226 -0.012123589 -0.108103596
000270 95 85 27 bd 9f 06 ef bd 25 86 14 3c 5f 0e 5f 3d
       -0.040898878 -0.11671185 0.009065186 0.054457065
000280 53 86 13 3d 94 69 44 bd b6 65 85 3d 93 97 25 bd
       0.036016773 -0.04795225 0.065135404 -0.040427756
000290 0d 64 b8 bd ab 04 bb bb 55 7a 03 be 60 8d e2 3d
       -0.09003458 -0.0057073436 -0.12839635 0.110621214
0002a0 64 fa c2 bd 6a 2c b9 bd 51 db 6b bc 65 cc d4 bd
       -0.095204145 -0.090416744 -0.014395551 -0.10390548
0002b0 bb ec 40 bd 4c 10 c5 3d 3b 3d 11 bc 96 6d 99 bc
       -0.047100764 0.09622249 -0.008864696 -0.018729012
0002c0 5d 0f 13 3d 91 a5 b1 3d 53 53 79 bd 34 a6 ba 3d
       0.035903323 0.086741574 -0.06087048 0.09113732
0002d0 b0 54 eb bd 7d d0 87 bd 0d e0 53 3b bd bd c3 b9
       -0.11490762 -0.06631563 0.003232959 -0.00037334664
0002e0 e3 27 87 3d 9b f3 a6 bc 82 52 89 39 53 7e 3d bc
       0.06599405 -0.020379832 0.0002619215 -0.011565763
0002f0 5f 12 97 bc 1f fb 70 bd a4 2f 36 bd f9 89 e2 bd
       -0.018441377 -0.058833238 -0.044479027 -0.110614724
000300 6a 92 76 bb 21 9c 85 3d 2b ed 2f be 5f 40 b6 bd
       -0.003762389 0.0652392 -0.17180316 -0.088989966
000310 be c5 9e 3d d2 a7 67 be c0 89 c9 3d 96 4e 1a 3e
       0.0775256 -0.22622612 0.09840727 0.1506904
000320 cc ef 3c 3b 46 61 ce bd 89 bb 96 3d 40 53 94 3d
       0.0028829454 -0.10077147 0.07359988 0.07242441
000330 8f 02 82 3a 25 fc f7 bd 77 c2 04 bd 7a 3b f5 3c
       0.0009918975 -0.1210864 -0.03241202 0.029935587
000340 e3 d0 e6 bd be 69 6d bd 20 73 d3 3d 6d bf b6 bb
       -0.11270311 -0.05796217 0.10324693 -0.005577019
000350 4e 4d 94 bd 1c 0a 4f 3e 0a f9 a3 bd 6d 14 06 3d
       -0.07241307 0.202187 -0.08006485 0.032734323
000360 e7 58 42 3d a5 92 e6 3a f7 9e 61 bd d1 8f 89 3d
       0.047448065 0.0017591311 -0.05508324 0.06716884
000370 c2 c9 e3 bb ba 9b e0 bb 16 98 9e bd 3e d8 55 bd
       -0.0069515416 -0.0068545016 -0.07743852 -0.052208178
000380 7a 8a 8b bd 12 b7 8f 3c ba 31 68 bd a6 08 f2 bd
       -0.06813522 0.01754335 -0.056688048 -0.11818056
000390 65 4a 92 bd 4e 35 d2 3c fa 0e e9 3d 25 db 89 3d
       -0.07143096 0.025660183 0.1137981 0.067312516
0003a0 3f 49 4c bd c3 64 97 bc c6 6b 27 bc b8 42 81 bd
       -0.04987454 -0.018480664 -0.010218566 -0.06311554
0003b0 df ff e7 3c 65 73 af bd 1e 57 5a 3d 71 15 c8 3d
       0.028320251 -0.08566932 0.053305738 0.097697146
0003c0 db 14 99 bd 34 27 6a 3c 5c 01 a2 3d 10 89 55 3d
       -0.07474681 0.014291573 0.079104155 0.052132666
0003d0 b1 3c ca bd 1e df 87 bd 67 32 48 be 3d a0 e0 3c
       -0.09874857 -0.06634353 -0.19550477 0.027420158
0003e0 c5 da 07 3e f2 4c c5 3d e8 a0 86 3d 1a 42 99 bd
       0.13267048 0.09633817 0.06573659 -0.07483311
0003f0 dc cc 1e be 4b 65 47 bd f5 9c 73 bc 9f d2 3b 3c
       -0.15507835 -0.048680585 -0.014868964 0.01146379

net.2.weight f4 [256, 256]
000000 cf dc 25 3e 07 49 0a bc 21 6a e4 3b 6d 76 d5 3b
       0.16197513 -0.008440263 0.0069706594 0.0065143616
000010 8a a3 6a be 10 84 85 be c0 ac 2f bd d8 63 37 bd
       -0.22913948 -0.26077318 -0.042889357 -0.044772953
000020 d4 d2 82 bc 85 39 c3 3b 99 c6 3c bf e9 98 b3 bc
       -0.015969671 0.0059577846 -0.73740536 -0.0219235
000030 52 00 22 3d 44 d3 bc 3c 0a 71 89 be a0 7d 4b bb
       0.039551087 0.023049958 -0.26844054 -0.003105022
000040 ee 67 56 bd f0 2a 39 bc 55 1a dc bd 15 05 85 be
       -0.05234521 -0.011301741 -0.1074721 -0.2598044
000050 1f 9a 20 bd 42 b7 8e bf 1a 54 1b 3d cc b8 fb bd
       -0.03920948 -1.1149676 0.037922002 -0.122911066
000060 26 14 21 be a3 c9 d1 bd 91 9c c3 bc e2 e2 20 3d
       -0.15730342 -0.10243537 -0.023878368 0.039278872
000070 52 63 77 bc 37 62 1f 3c 7f 44 f8 3c b7 be b1 3d
       -0.015099363 0.009728006 0.030306099 0.08678954
000080 4c 7e 1e bd df 6b a9 bd 58 26 45 3c fb 43 21 bd
       -0.038694665 -0.08272528 0.012033068 -0.03937147
000090 2c d8 ba bc aa a8 2b 3c 83 36 e6 bc 11 76 b0 bd
       -0.022808157 0.010477224 -0.028102165 -0.086162694
0000a0 d3 72 99 bd fa eb dd bd 0e 02 f2 be ce 3b 0d 3d
       -0.07492604 -0.108360246 -0.47267193 0.034480862
0000b0 0f df 30 be 0f 50 c5 bd 60 f8 bc 3c c0 a2 a4 3c
       -0.1727259 -0.096344106 0.023067653 0.020097136
0000c0 10 36 39 bf 78 c3 a5 bc 40 86 88 be 4c 7e 74 3d
       -0.7234812 -0.020234808 -0.26664925 0.05969076
0000d0 fe 88 30 bd bc 68 0c be 8f f9 7a bd f5 3b 5d 3c
       -0.043099396 -0.13711828 -0.061273154 0.013503064
0000e0 0c b8 d6 bd 18 04 16 bc a5 58 ed be e7 33 de be
       -0.10484323 -0.009156249 -0.46356693 -0.43398973
0000f0 d8 65 2b be b9 8b a2 be d0 f8 39 be c8 f1 04 bd
       -0.16738069 -0.31747225 -0.1816132 -0.032457143
000100 ec 1d b1 bd ea 49 1b bd 1b c2 6a 3d 62 5b cb be
       -0.08648285 -0.037912287 0.05731402 -0.39718157
000110 db ef 99 3c e3 36 13 3d 4c b7 23 3d 51 fe 4c bd
       0.01879113 0.035941016 0.039969727 -0.050047223
000120 6f 81 c0 3c e8 35 39 be 60 70 1e 3d 36 94 0e bc
       0.023499219 -0.1808697 0.038681388 -0.008702328
000130 53 3f 07 be 52 8a 59 3d 13 0e 84 3c 9c c9 6c bd
       -0.1320775 0.05311043 0.016119992 -0.057809457
000140 05 cb 39 bd 52 d2 5b be f1 9a 09 3d 01 12 f0 3d
       -0.04535963 -0.2146695 0.03359503 0.11722184
000150 be 18 84 3d da 80 8a bd 00 f1 24 3d 08 43 6b bc
       0.06450032 -0.06762858 0.040268898 -0.014359243
000160 c2 b3 32 bd c2 9d b5 bd 0a b2 34 bd 36 1e 3e 3d
       -0.04362846 -0.088679805 -0.044115104 0.04641553
000170 fe 1d 2e bd 07 51 82 bd 48 75 50 be 64 02 e2 3c
       -0.04250907 -0.06363111 -0.20357239 0.02758903
000180 01 ed 73 be 6d 3e 77 3e 3d e9 9f bd e4 46 97 bd
       -0.23820879 0.24144907 -0.078081585 -0.07386568
000190 3f 72 01 bf 2f 52 b8 bd e6 0b 5c be af 97 01 bf
       -0.5056495 -0.0900005 -0.21488914 -0.50622076
0001a0 1c 39 9e be 5e 55 2f 3e e6 03 fd bc 73 8a 53 3e
       -0.30902946 0.17122409 -0.030885648 0.20658283
0001b0 8e db 9f bb d8 79 ef bc 27 89 0e bf 5e d7 97 3c
       -0.004878468 -0.029232904 -0.5567803 0.018535312
0001c0 e9 72 25 bf 8e 95 02 bd d4 07 31 be 89 9e 25 bd
       -0.64628464 -0.031880908 -0.17288142 -0.040434394
0001d0 3e cc 86 be 40 47 de 3d 19 cb 56 bd a9 b8 26 3d
       -0.263277 0.108534336 -0.052439783 0.04070345
0001e0 86 c1 be 3c 9c 53 f1 bc 2b 26 68 bc 16 a3 30 3e
       0.023285639 -0.029458813 -0.014169256 0.17249712
0001f0 51 20 53 3d d6 68 a6 3d 20 b5 17 bd a0 66 95 3c
       0.05154449 0.081254646 -0.03703797 0.018237412
000200 36 5b f3 be c4 5a 34 bd bb cc b8 bc be f7 42 bc
       -0.47530526 -0.044031873 -0.02255856 -0.011899887
000210 15 31 0b bd 4c 2b 2d bd 55 5e 44 bb 38 ca 66 bc
       -0.033982355 -0.04227762 -0.0029963453 -0.014086299
000220 83 9a cb 3d 53 f5 88 be 8e 1d 8a bd 42 5e f7 3d
       0.0994158 -0.26749668 -0.06743918 0.12078525
000230 1c 02 92 bc 94 a3 30 bd ea b9 a8 3d aa e8 2b 3d
       -0.017823271 -0.04312475 0.08238585 0.041969933
000240 97 77 90 3b 29 d4 ee bd 25 fc 8f 3e e1 be c0 bd
       0.0044087875 -0.1166156 0.2812206 -0.09411407
000250 eb 80 61 be 78 42 97 3d bc e4 b1 be cc db 8b bc
       -0.22021835 0.07385725 -0.34744823 -0.01707258
000260 7f 65 1a 3d 83 21 95 be cf ed 60 be 3e 33 75 bd
       0.03769445 -0.2912713 -0.21965717 -0.05986332
000270 46 92 43 3d f3 b6 0d be 43 82 1e bd 40 50 98 be
       0.04774692 -0.13839321 -0.038698446 -0.29748726
000280 1b b0 82 be 8e 78 10 bd cf 81 b5 bc 20 60 3e bd
       -0.25524983 -0.03527122 -0.022156624 -0.04647839
000290 0c be 46 bc 45 d4 51 be c4 5e 59 be fe 28 00 bf
       -0.012130272 -0.2049113 -0.21227556 -0.5006255
0002a0 f7 14 82 3d cd 3d e4 bd 5d 87 bc bd f9 45 94 3d
       0.06351655 -0.111446 -0.09205506 0.07239909
0002b0 60 29 77 bb 41 16 d6 3c 74 cd 9f bc ca e6 82 bd
       -0.003771387 0.026133658 -0.019507147 -0.06391676
0002c0 e5 4e 42 bb 40 69 f5 bb 7c ef 10 bd 1f 9e 65 3e
       -0.0029649076 -0.0074893534 -0.03538464 0.224236
0002d0 3e c7 0d bc c6 c1 08 be 67 81 1f bd ab a7 10 be
       -0.00865346 -0.13355169 -0.038941767 -0.1412646
0002e0 91 06 23 3e 86 6f fc be 55 d0 47 3b 60 c2 6c bb
       0.15920474 -0.49303836 0.0030489166 -0.0036126599
0002f0 de de aa 3c bc e3 0b 3d 30 e2 98 bb 14 47 2c be
       0.020858224 0.03415273 -0.0046656355 -0.16823989
000300 78 3b 2d 3d 7f 35 94 3d d8 3e 88 bc f8 23 76 bd
       0.042293042 0.07236766 -0.016631529 -0.060092896
000310 b2 41 50 be 4a 3f 04 be f3 95 64 bd 09 88 5c 3d
       -0.20337561 -0.12914768 -0.055807065 0.05384067
000320 50 be ba bd 2f be 1e bd b9 69 e8 bd 37 d7 f9 3c
       -0.091183305 -0.038755592 -0.1134829 0.03049813
000330 8c c2 8d bd c2 db ee bc b6 3d 34 3d 6a 5a 26 bd
       -0.069218725 -0.029157523 0.044004165 -0.04061357
000340 65 c7 e3 3d 33 d8 f0 bd 05 d8 4a 3b f0 96 d2 3c
       0.11122016 -0.11759987 0.0030951512 0.025706738
000350 e9 32 07 be f6 3f 17 3c 86 f2 ad bd 32 1e 0d 3d
       -0.13203014 0.009231558 -0.08493523 0.034452625
000360 33 f0 0e be 3b d6 fc 3d 4f c0 c5 3b b2 2e d9 bd
       -0.13958816 0.12345549 0.006034888 -0.106046095
000370 cc e0 83 be 85 4b 91 3d 73 4e 30 bf 43 df 0a be
       -0.25757444 0.07094482 -0.68869704 -0.1356173
000380 3c 02 fc 3c cc 43 94 bd c3 c7 e4 bc 6d 6f 54 bc
       0.030762784 -0.07239494 -0.027927285 -0.012966019
000390 ed 0d eb bd 9f 51 0a bc 80 aa ae 3a 22 8f e4 bd
       -0.114772655 -0.008442312 0.001332596 -0.11160113
0003a0 85 fd d6 3d ce 4a 99 bc 9a b7 ac bc 2a 63 73 bd
       0.10497574 -0.018712427 -0.021083642 -0.059420742
0003b0 df d8 43 3c 99 c4 91 bd 98 c3 25 3d c4 5e c7 3c
       0.011953562 -0.07117576 0.040469736 0.02433718
0003c0 6e a2 de 3c f0 64 47 be 99 9d 83 be 24 26 89 3d
       0.027177062 -0.19472098 -0.25706175 0.06696728
0003d0 05 0c 46 bd 28 ff df 3c e0 8f aa bd 94 0a 4d 3d
       -0.048351306 0.027343348 -0.08328223 0.050058916
0003e0 34 71 c1 bc a0 34 36 3c e8 5a 38 bd 1b 9a 35 bf
       -0.02361355 0.011120945 -0.04500857 -0.7093827
0003f0 28 d0 d2 bd 98 b1 60 3c 96 44 e7 3c e2 38 b3 bd
       -0.10293609 0.013714217 0.028230947 -0.08751084

net.2.bias f4 [256]
000000 70 33 16 bc 93 99 33 3d 12 60 66 bc 25 b8 ea 3b
       -0.009167537 0.04384763 -0.014060991 0.007163065
000010 9b 01 51 3d 21 eb 99 3e 48 1f 86 bd bb 5c ef bd
       0.05102692 0.30062202 -0.06548935 -0.11687609
000020 2a dd 4b 3d d8 46 93 bd 46 f6 f8 3d 6b 0b 03 bd
       0.049771465 -0.07191247 0.12156348 -0.03199331
000030 30 54 31 3d c0 b2 53 bd f2 ed 04 3e 16 10 73 bd
       0.043293178 -0.05168414 0.12981394 -0.059341513
000040 7c 93 b9 3e be a9 91 bd 85 07 0d be b0 f9 8b bd
       0.36245334 -0.07112454 -0.137724 -0.068347335
000050 57 d7 6c bd 85 cf 4c 3e ff 64 06 3d 7a 5a d4 3d
       -0.05782255 0.20001037 0.03281116 0.103688195
000060 34 fa a0 3d b7 36 97 bd 33 84 3a 3c 3d 53 67 3e
       0.078602225 -0.07383483 0.011384058 0.22590347
000070 e1 49 52 bd 33 5e e3 3c d7 4d d4 3c 26 30 12 bd
       -0.051339988 0.027754879 0.025916023 -0.03569045
000080 03 57 98 bd 09 3b c6 3d 94 39 4a bd bb ab 07 3d
       -0.07438471 0.09679229 -0.049371317 0.03312276
000090 2e 7d 55 3e 39 0c 82 3d e4 c9 62 3d d9 64 52 be
       0.20848534 0.063499875 0.05536832 -0.20546283
0000a0 38 50 3e 3c 80 55 c7 3d 58 dc 1c 3d 90 0e 14 3e
       0.011615805 0.09733105 0.038296074 0.1445868
0000b0 48 b9 c9 3b be 35 3a 3d cd f6 85 3e e2 9e 93 3d
       0.0061561204 0.04546141 0.26164857 0.07208039
0000c0 15 b3 29 3e cf 73 8a bd 87 b1 42 3d 8c a7 9d 3d
       0.1657222 -0.0676037 0.047532585 0.07697973
0000d0 5a 2c 06 bd af 11 fe 3d 68 17 ab 3d 43 34 ee bd
       -0.03275714 0.12405717 0.08354074 -0.11631062
0000e0 89 96 5f 3d 01 b5 1a 3e 6e f0 11 3e 81 5d e7 3d
       0.05458692 0.1510811 0.14251873 0.11297131
0000f0 00 19 44 bd 33 25 90 3e 37 f5 10 3c 65 bd 29 bb
       -0.047875404 0.2815338 0.008847526 -0.0025900241
000100 79 95 5b 3d 24 8a 8e 3d 07 72 9d 3c 78 26 62 bd
       0.053609345 0.06959942 0.019219412 -0.055212468
000110 67 12 92 bd 45 fa b7 bc fd 3b 28 bd 17 8a 90 3d
       -0.07132416 -0.022458205 -0.041072834 0.070575885
000120 e6 83 1e bd c7 f2 b0 3d 8a 84 9b 3d f0 1f 82 be
       -0.038700007 0.08640056 0.07593639 -0.2541499
000130 9e ef 29 bd 58 db 28 3e 49 33 ea bc 4c 65 d6 bc
       -0.041488282 0.16489923 -0.028588908 -0.026171349
000140 43 5c a3 3d c5 f7 b4 3a 28 84 0b bd ad 23 19 3e
       0.07976582 0.0013806751 -0.03406158 0.14955015
000150 29 ec b3 3c 14 bf 05 3e 3f 15 9c 3e 07 a9 99 bd
       0.021963196 0.13061172 0.3048496 -0.075029425
000160 3e cc 34 3e 04 ad 8f bd af 77 39 3c 94 75 fd bd
       0.17656037 -0.07015422 0.011320039 -0.12375942
000170 04 2c d8 3d 97 c5 bf 3d ff f4 00 3d 76 e1 b6 3c
       0.1055527 0.09363859 0.031483646 0.022324305
000180 a5 3f 08 3e 15 37 8f bc b1 3e 0d bd 2f 3e c7 3d
       0.13305528 -0.01748232 -0.034483615 0.097286575
000190 41 a7 ef bc a8 10 27 3d 06 98 01 bd 09 6e bc 3d
       -0.029254558 0.04078737 -0.03163912 0.09200675
0001a0 f7 bb 9c 3c d1 b8 0e 3e 98 6d aa 3d 09 fd 23 3e
       0.019132597 0.1393769 0.083216846 0.16014494
0001b0 c0 b1 96 bd 3f e5 f3 3c 66 f6 09 3d ac d6 b6 bc
       -0.07358122 0.029772399 0.03368225 -0.02231916
0001c0 a9 54 04 3d d5 78 05 3e 0f f3 12 bd 1a 36 4d 3e
       0.0323073 0.13034375 -0.03587633 0.2004017
0001d0 5f 75 a4 bc 54 d6 f3 3d 37 6e f0 3b 3d 0e 73 ba
       -0.020075498 0.11906114 0.0073373574 -0.0009271836
0001e0 81 4f ab bd ff 0f 5f 3c 79 56 26 3d 61 e7 69 3d
       -0.083647735 0.013614654 0.04060981 0.057105426
0001f0 bd 2d 82 bd d1 e8 03 3e 70 3c 1d 3e 87 14 8e 3d
       -0.0635638 0.12881781 0.15355086 0.06937509
000200 e4 7c 2e be d8 c5 18 3e 0a 73 4b 3c a6 1e c6 3e
       -0.1703983 0.14919221 0.012417564 0.38695258
000210 8d 86 16 3e e7 76 b5 3e 77 90 b2 bd b2 96 00 3e
       0.14699765 0.35442278 -0.08718961 0.12557486
000220 d6 4e b9 3d 8d 49 94 bd 65 35 8e bd 18 9a 99 3d
       0.0904824 -0.07240591 -0.06943778 0.07500094
000230 1e ee 0c bd 8f f5 ae bd e6 45 45 bd 65 4a e1 3d
       -0.034406774 -0.0854293 -0.048162363 0.11000518
000240 56 a9 1b 3d ae c0 5e 3e 23 be 73 3d 60 f0 80 3e
       0.03800329 0.21753189 0.0595075 0.25183392
000250 4a 03 37 3d 09 b4 78 bc 92 c5 0d 3e 90 25 12 3d
       0.04468087 -0.0151796425 0.13844898 0.035680354
000260 c8 46 9b bb 34 91 3e bd f6 64 87 bc 44 6a 9c bd
       -0.0047386624 -0.046525195 -0.016527634 -0.07637456
000270 d9 01 3e bd 97 5a 17 3e fc 2e 44 3e e9 f3 1f 3e
       -0.04638848 0.14780651 0.19158548 0.15620388
000280 bb 41 24 3b cd 42 5c 3d db 63 1b 3b b1 b7 a5 bc
       0.0025063592 0.053774644 0.0023710642 -0.020229192
000290 74 12 98 bc b9 1f 6a 3e 7c 93 82 bd b6 1e 10 3e
       -0.018563487 0.22863664 -0.06375787 0.14074215
0002a0 d2 9e ad 3d b9 e7 1d bd 08 0c 58 3b 20 3b 97 3e
       0.08477558 -0.038551066 0.0032966156 0.29537296
0002b0 58 63 82 3e 73 b9 13 be ab ad 08 3e 8c d0 15 be
       0.25466418 -0.14426212 0.13347499 -0.14630336
0002c0 ed 11 4c bc a4 46 28 3e f7 81 4e 3c 3a 36 01 3e
       -0.012455446 0.16433197 0.012604228 0.12618342
0002d0 9e 5f e5 3d 18 f0 83 bd 18 9f 3a 3e 79 7d 54 3d
       0.11199878 -0.064422786 0.18224752 0.051877473
0002e0 b9 96 c2 3d 48 10 60 3c e6 a8 d6 3c 7a 2c 81 3e
       0.09501404 0.013675757 0.026203584 0.25229245
0002f0 3e 7b 3e 3d 34 b2 b3 3d 24 1a 35 3e ee 92 00 bd
       0.04650425 0.08774224 0.17685753 -0.031390123
000300 3c e8 21 3e 11 73 be 3d 63 38 d2 bb ca c4 cf 3c
       0.15811247 0.09299291 -0.006415413 0.025362391
000310 73 67 44 3b 8c 9c ec 3c 0d 54 ce bc ef 7e 08 bd
       0.0029968887 0.028883241 -0.025186563 -0.03332418
000320 d3 99 a1 3d 24 e2 8b 3e 2f b6 91 3d 9f 9a 2e 3d
       0.07890668 0.2732097 0.07114827 0.042627927
000330 ba e1 4f bc 62 c7 5e bd 88 70 2d bd 55 57 ad 3b
       -0.012688095 -0.054389365 -0.042343646 0.005289952
000340 fe 39 39 3e bb 0b b9 39 89 2d 69 3b 95 e4 88 bd
       0.18088529 0.0003529469 0.003558012 -0.066842236
000350 cc 17 ca 3b f9 99 ee 3d 29 92 f2 3d 1e 06 84 bc
       0.0061673876 0.11650462 0.11844284 -0.016116198
000360 32 36 04 be e7 0a 17 3c 5e a4 27 bd 2a d9 a3 3e
       -0.12911299 0.009218908 -0.040928237 0.3200162
000370 b3 36 54 3d b2 f7 33 3e de 33 a0 3d 51 d0 92 bd
       0.051809978 0.17574957 0.07822393 -0.071686395
000380 cf 9f e1 bb c7 65 53 3d eb 2f de bc b1 4b b6 3c
       -0.0068855057 0.051610734 -0.027122458 0.02225289
000390 d3 df 6b 3d 48 7b 3e bd 9e d3 ae 3c b6 2e 03 bc
       0.057586502 -0.04650429 0.021341141 -0.008006742
0003a0 18 5f c1 3d 89 69 02 be cb b9 7a 3e f4 88 70 3d
       0.09441966 -0.12735571 0.24484937 0.05872436
0003b0 5a e3 05 bd 7e 9f 87 3e 23 10 0f 3e 1a 55 2d 3d
       -0.032687522 0.2648887 0.13971 0.042317487
0003c0 f5 36 c9 3d 7b 90 7b 3e 74 64 a8 3d 62 29 bb 3d
       0.09824935 0.24566834 0.08222285 0.091387525
0003d0 c7 4f 38 bd 20 f1 da 3d 26 b2 ac bc bd fd e6 3d
       -0.044997957 0.10690522 -0.021081042 0.112788655
0003e0 14 5d 4e be 96 51 c7 3d fc cf b6 bd b0 ce 05 be
       -0.20152694 0.09732358 -0.089263886 -0.13067126
0003f0 90 21 e7 3d 35 fb 35 3e 33 b4 8a 3d 74 dd 9a 3c
       0.112856984 0.17771609 0.067726515 0.018904425

net.4.weight f4 [5, 256]
000000 9c e0 ab be 50 47 d3 3b 52 e4 31 bf 52 d8 56 3c
       -0.335698 0.00644771 -0.69489014 0.013113098
000010 97 0c 81 be 8e 84 72 3e a4 82 8d bd 29 6c 18 be
       -0.25204918 0.23683378 -0.06909683 -0.1488501
000020 76 bb 4d 3e 34 8b 3c bc 5f 71 b6 3e 39 11 97 bc
       0.20091042 -0.011507798 0.3563337 -0.01844083
000030 97 4f 16 bd 8c d5 30 3c 07 2a 4e 3e 51 aa 06 3d
       -0.036696997 0.010793101 0.2013322 0.03287727
000040 5c 0b 2a 3e 70 48 a4 bc f1 6d da be 67 f7 55 3c
       0.16605896 -0.020054072 -0.42662004 0.013059474
000050 9d e6 47 3c 8a 5d b5 3d 2c 90 8e 3c 75 0f e6 be
       0.012200979 0.08855732 0.01740273 -0.44933668
000060 9a 41 5c 3e ec 5e 11 bd cd 62 3d bd 1a 13 c7 bf
       0.215094 -0.035490915 -0.046236802 -1.5552704
000070 a2 79 74 3d 3f 7a 2c bd bd c7 0e bd 68 de 44 3d
       0.05968631 -0.04210877 -0.034858454 0.048063666
000080 ef 9c 98 bc c8 95 7e bf 93 b8 8b be b6 81 8b be
       -0.01862952 -0.994473 -0.27289256 -0.272474
000090 2e 17 d3 3d 66 91 a5 3e 65 2d af 3d 30 b5 bd be
       0.103071555 0.32337493 0.0855358 -0.37052298
0000a0 4c 3c 99 bc 92 b5 5c 3d 99 57 ad 3c 4c f9 3a bf
       -0.01870551 0.053884096 0.021159934 -0.73036647
0000b0 3d 63 e8 3d cf 8e e3 bc 18 53 b3 bf b7 28 4d bf
       0.11347053 -0.027778057 -1.4009733 -0.8014025
0000c0 80 de 18 3e d6 af ef 3c 7c 00 e6 be c8 65 6a be
       0.14928627 0.02925865 -0.44922245 -0.22890389
0000d0 b6 86 84 bb 06 93 e3 bc 22 2c 2f bf 90 46 7a 3e
       -0.004044379 -0.027780067 -0.68426716 0.2444098
0000e0 2e d1 1a be 42 56 09 3f d6 b9 72 3e b5 34 b6 3e
       -0.15118858 0.53647244 0.23703703 0.35587087
0000f0 7d 41 ca bc 89 eb 86 3e 0e 44 24 3d 49 50 d6 be
       -0.02468943 0.26351574 0.040103965 -0.41858128
000100 ea 0c 1f bf 72 7d 88 3e cc a7 bc 3e e4 a5 14 bd
       -0.6212908 0.26658207 0.3684677 -0.036291018
000110 63 a2 99 bb 88 9b f1 3c 42 2a 44 bd 2b 03 87 bf
       -0.0046885475 0.029493108 -0.047891863 -1.0547842
000120 4f 73 e2 3a b4 61 eb bd 08 c4 ed bd 37 c0 f9 bd
       0.0017276796 -0.11493245 -0.116096556 -0.12194865
000130 4e 6e 26 bd 07 f5 7a 3e 95 09 9b 3e e7 cf 1d bd
       -0.04063254 0.24507533 0.30280748 -0.03852835
000140 20 56 4a 3e 2e ec 11 3d 9f 9d 16 3d fa 4c 65 bf
       0.19759417 0.03562563 0.036771413 -0.8957058
000150 c7 4d 4a be 97 25 96 3e 4c ef ff 3d c2 6e 3c 3d
       -0.19756232 0.29325554 0.12496814 0.046004064
000160 4d c0 2f 3e 5b 83 e4 3b 6f c1 31 bd f7 f7 14 bb
       0.171632 0.0069736666 -0.043397363 -0.0022730806
000170 3d b4 18 3e d9 dc a3 3d 3a e8 0d 3d 5f 01 97 3c
       0.14912505 0.08001108 0.034645297 0.018433271
000180 40 e9 25 3d 97 83 b8 b9 01 19 1a bf 51 3a 51 3d
       0.040505648 -0.00035193257 -0.601944 0.051081005
000190 7e 78 92 3b e9 66 01 bf aa d4 81 bd a1 93 7d 3c
       0.00446993 -0.50547653 -0.063393906 0.015477092
0001a0 b6 e7 a2 be b6 4a d0 bc c1 ef b8 3d b2 eb 07 3e
       -0.31817406 -0.02542625 0.090301044 0.13273504
0001b0 64 68 27 3d 94 9f 5d 3d b0 d2 80 3e f4 d9 02 bd
       0.04087104 0.054107264 0.25160742 -0.031946138
0001c0 64 3c 7b bc 95 b7 29 3e 00 56 8a bb b6 ce ab 3c
       -0.0153342225 0.16573937 -0.004221678 0.02097259
0001d0 02 55 3b bf 44 a7 09 3d cc 0c ae be 5f 51 a5 3d
       -0.73176587 0.033606783 -0.33994138 0.08072161
0001e0 da 27 a8 bc 65 c5 89 bc e4 6d 2f 3d f1 3a 99 3d
       -0.020526815 -0.016817758 0.04282941 0.07481945
0001f0 a8 59 cd bc d0 b6 74 3e 21 f3 c5 3d a8 f5 34 bc
       -0.025067165 0.23897862 0.09665514 -0.011044897
000200 a5 61 26 be 0c 47 07 bf 38 dc 56 be 3a 14 39 3e
       -0.16248186 -0.52842784 -0.20982444 0.18074122
000210 d9 ec 1c 3e b9 8c ca 3d 92 12 2a be 5e 16 00 3e
       0.15324725 0.09890122 -0.16608647 0.12508532
000220 42 ea 97 be 4a d1 8e 3d b5 59 98 3b b9 92 4e 3e
       -0.29670912 0.069735125 0.004649366 0.20173158
000230 2a b2 45 3f 94 cb 43 bd e3 3c 77 be c8 0b 8c 3e
       0.7722498 -0.04780157 -0.2414432 0.27352738
000240 7c 19 72 bd 83 ee 19 3e a1 21 fc 3e 5b 5e 38 3e
       -0.059106335 0.15032391 0.49244407 0.18004744
000250 b7 bb 94 3d d8 2d 4b bd a9 88 0c bf 2e 60 72 bc
       0.07262366 -0.049604267 -0.54896027 -0.014793439
000260 b9 3f 33 bd 76 9b 97 3e 23 44 0a bc 5e 3a 1b bc
       -0.043761943 0.29610795 -0.008439097 -0.009474365
000270 ae ac 3e 3d 4e 63 32 3e e5 34 f1 3d e8 3f 2a 3e
       0.0465514 0.17420694 0.11777667 0.16625941
000280 28 9e 4e 3c 13 de 8d 3e 15 3a 23 3e 1a 00 2b 3d
       0.01261095 0.27708492 0.15940125 0.041748144
000290 61 f8 6e bd 68 8c 14 3e 3d b7 8b bc aa 14 98 3e
       -0.05834234 0.14506686 -0.017055148 0.29703265
0002a0 a8 85 1b 3e c0 65 62 bc 0e 88 55 bd 87 64 4a 3e
       0.15187705 -0.013818204 -0.052131705 0.1976491
0002b0 f9 41 14 bf 5c 35 82 be f9 67 01 bf 15 1b 0e be
       -0.57913166 -0.25431335 -0.50549275 -0.13877518
0002c0 39 ed 4a 3d fc f7 f0 3d f6 f8 20 bd b7 39 92 3e
       0.04954264 0.11766049 -0.039299928 0.28559658
0002d0 8b 30 e7 bb ea f1 71 bd 9e 5f 29 3f de 46 02 3b
       -0.0070553473 -0.059068598 0.66161525 0.0019878666
0002e0 c7 8d 11 3e 2b 0d 85 3e 54 7a 3c 3d e2 36 6a 3e
       0.1421424 0.2598661 0.0460151 0.22872499
0002f0 4b e4 97 3a 74 3d f2 3c 9d a0 b5 bf de 2b 33 3d
       0.0011588422 0.029570319 -1.418964 0.043743007
000300 b7 fb cf 3d 24 04 a1 bd 68 95 b0 be fb a7 c3 3c
       0.10155433 -0.07862118 -0.34488988 0.02388381
000310 61 93 1c 3c 76 1b 9b bf c6 04 00 bd 78 43 5a bd
       0.009556622 -1.2117755 -0.031254552 -0.053287
000320 85 c5 ef 3e 10 02 3e 3e ee d4 ea 3e b7 69 55 3e
       0.46830383 0.18555474 0.45865577 0.20841108
000330 92 cf 13 be f7 e5 90 3c 83 ea b3 bc 60 46 02 bc
       -0.1443465 0.01768778 -0.02196241 -0.007951349
000340 76 7c 70 bf 97 42 44 be 60 20 7a bc 99 96 95 be
       -0.9393991 -0.19166027 -0.015266508 -0.2921646
000350 4f 46 d2 3c 9b 73 30 3d 97 5e 00 3e 68 da 32 bd
       0.025668291 0.043079 0.12536083 -0.04366532
000360 f3 ad 49 be c4 63 22 3c f0 ab a2 bb 19 03 fc 3d
       -0.19695263 0.009911481 -0.004964344 0.12305278
000370 d5 0b f1 3e b7 18 ea 3d 9d c1 8a 3d 4e 85 27 be
       0.4707934 0.11430495 0.0677521 -0.16359445
000380 ce 3a 38 3d 4c 02 1b 3e d0 5a 91 3a 97 30 37 bd
       0.044977956 0.15137595 0.0011089686 -0.044724073
000390 f0 5d 12 3f 58 07 8b 3c 33 18 a9 3d f1 f3 a5 3e
       0.5717459 0.016971275 0.08256569 0.32412675
0003a0 a4 ab 10 3e 02 ff 03 bf 1c 08 24 3e b7 58 69 3e
       0.14127976 -0.51560986 0.16018718 0.22787748
0003b0 f6 61 15 3c 64 c2 e4 3e ab b8 8d bf 26 22 1d be
       0.009117594 0.44679558 -1.1071981 -0.15345058
0003c0 8a a1 65 3d 6e 74 16 bc 66 50 ee 3c e7 20 b5 be
       0.05606226 -0.009183032 0.029091071 -0.35376665
0003d0 c9 21 e0 3b 70 5e d5 3d 0f cc 4d 3c c3 e9 33 3e
       0.006839965 0.10418403 0.012560858 0.17569642
0003e0 3d de 53 be 19 7d 17 3e 41 fe 14 bd f4 eb 90 be
       -0.20690246 0.14793815 -0.036375288 -0.28305018
0003f0 48 9e 56 3e b8 70 66 be af 02 d4 3e 12 40 5c bc
       0.20958817 -0.22503936 0.41408297 -0.01344301

net.4.bias f4 [5]
000000 72 45 60 3e c4 6f 91 3e 87 5b 89 3e 7d 0d 87 3e
       0.21901491 0.28405583 0.26827642 0.26377478
000010 09 8f 97 3e
       0.29601315
