iteration(models)/10000 epi/dqn_highway.pt (torch, 342085 bytes, 6 tensors)

net.0.weight f4 [256, 70]
00000000: 2a8c c2be ae09 21bc 0c59 a83f ff01 bfbe
00000010: e871 ecbd 0b07 8bbe 382c 7ebd 4a8d 97bb
00000020: 40a7 4d3f e5cd 723e 8394 f3bc 8842 053f
00000030: 6133 20be 404e 343f 2dc6 893e 513c 253e
00000040: 4551 de3f 3eb3 97be 0993 df3f 9a96 803e
00000050: ff0a a240 8934 1a3e 0a46 ac3e 7f9f 5f3e
00000060: 5f5b 2ebd bb64 293f d0fd 2b3d c39c b53e
00000070: ed5d f1bd 62fa c63c fceb 293d 7505 44bd
00000080: c765 693e 5913 083c 7617 ba3f 4d90 803c
00000090: eb70 c6bc 5cbc dcbb f1f1 723b 291c 9f3e
000000a0: 965f 2bbd e9a5 ae3e 9e02 a5bc 16e4 e83c
000000b0: d86e 5b3d 7acd 2fbe ed9b c93d 83bb 8f3d
000000c0: 4723 6ebf a00a 29bd 4bd0 3abd 907d 3dbd
000000d0: 97c6 db3a 55bc 97bb 779e 043e d5d7 d8bd
000000e0: 3199 cebd b52f 0b3d 7308 b9bd b0cf e83d
000000f0: 8df1 2d3d 35aa c8bc 21ad 063f 67cb 80bc
00000100: 2de8 dbbb 35cf 34bd 316c 24be b93b b53e
00000110: fe87 e93c e675 113f 9464 3fbe 8fd1 4abd
00000120: 7452 bb3f 19ae 81be 70bc b53e cb76 44be
00000130: 821b d43e 1532 8bbc 50a2 06be 6436 e6be
00000140: 094d e33d 7011 093e 616d 1cbe 90ce 703f
00000150: ff71 8fbd 16f3 08bf a874 9bbe 1de0 233e
00000160: c9f9 0abe e13f 1abe bf7f 16bf 6549 173e
00000170: 6d22 ccba 772e af3c afda 77bd 0ac9 853e
00000180: edcb 0f3e 245d e93f 3661 c63b aaf0 383e
00000190: 2a1c a53e 9b5e 24be ce1e 733e 6950 973d
000001a0: 294f 0240 f643 773e 77a3 a23d b60e 1b3f
000001b0: cbe5 e5bd 4b42 b93e 4f33 b93d 223f b73f
000001c0: 7c1b 7bbc c6d7 bd3d 9763 4b3f 1904 4ebd
000001d0: a2f8 6b3d 2d92 2d3e 4c69 b6be 3c9a 2f3d
000001e0: 36c6 373e fe56 e43e 5e8b 23be 5774 b53e
000001f0: fad7 bb3d 422a 0f3f 1b3d 91bd dcc1 46bc
00000200: 6435 c13e 9844 a9bd 66f0 a93e 54d1 163c
00000210: 3b0a f43e bc85 34bc c3c3 05bd 3ae7 253e
00000220: 1fb1 873d 65ff 6f3e 2468 90bd ab6e aabf
00000230: 5956 01be 2585 e6bd d808 ddbd 4c88 87bc
00000240: 678b 8f3e 3adf f5bd c436 093e cff0 2dbe
00000250: b2ad 213e 62b4 8cbf 15af 5f3d fec5 bebe
00000260: 90c4 05be 7274 57bf 1355 aebb d4c1 a03d
00000270: 1d63 6d3d 5919 e13d 6370 5bbe e6df 27be
00000280: 2333 b73d 9e71 ab3c 452d 883d d21b 76bd
00000290: 2ed9 b03d dc25 65be ff39 24be b4d6 60be
000002a0: 277a 4b3c 17d9 773d baad a93d 2950 8f3d
000002b0: ae8d 79be 8cb1 8e3b 22ca 0b3e 0321 06bd
000002c0: 3a07 2e3d 45a3 63bc 866c ed3c 1db1 13be
000002d0: 0ee5 1cbe 9c5d 5cbe ac32 a1bb 68bb 69bd
000002e0: 9972 433d 6772 2c3d edf0 46be b852 e6bd
000002f0: dadf 5c3c 863e 423b 9ee2 843c 6698 20bd
00000300: 1492 e03d e7bf fdbd 3055 08be 4266 eebd
00000310: 98a8 e4bd ed1d 193d b849 0f3e e86b 543e
00000320: 72d0 9cbd 5f63 223d 8e56 563c f01a 64bc
00000330: 173a 80bc 51c5 a43d 881e 2d3e 6018 16be
00000340: dd41 593d 90a2 243e 59c0 793d 7e35 09be
00000350: cf9a 39bf c3c4 9fbd 4cc3 243e cd15 7dbd
00000360: a488 ad3e dffc d03d 154e c33f 67e9 8dbf
00000370: fc79 d2bb db4b 24bf ca09 cc3d a34b a6bf
00000380: e895 263d 961e 203e 6766 3dbe 8996 653c
00000390: 8dfa 50be b8d2 cfbd 1630 c13d 82f4 733c
000003a0: fb53 8fbc e71c eb3d 3e2f 5fbc ec26 11be
000003b0: f5bb 1abe c172 e6bd ae26 f9bd dd9a 0a3e
000003c0: bffa 3f3d a5e3 e13d 29fc d93c d8ac 913d
000003d0: 6d30 43bd 443f a8bd c2c6 d33d 9a29 253e
000003e0: 8b33 973d d1c9 b53d f11f 41be ebc2 f13d
000003f0: 6eef 053d 162e 04be dfdd d33d deed 003d
-0.37997562 -0.009828968 1.3152175 -0.3730621 -0.115451634 -0.2715381 -0.06205389 -0.0046249973
0.8033333 0.23711355 -0.029733902 0.52054644 -0.156446 0.704319 0.2690901 0.1613629
1.7368551 -0.29628938 1.7466747 0.251149 5.0638423 0.15059103 0.33647186 0.21838187
-0.042567607 0.6616933 0.0419901 0.35471162 -0.11785493 0.024289314 0.041484818 -0.047856767
0.22792731 0.008305394 1.453841 0.015693808 -0.024223765 -0.0067363214 0.0037070478 0.31076172
-0.041839205 0.34110954 -0.02014285 0.028429072 0.053572506 -0.17168227 0.098441936 0.07018187
-0.9302258 -0.0412699 -0.0456088 -0.046262324 0.0016767558 -0.004630605 0.12951075 -0.10588042
-0.10087813 0.033981044 -0.09034815 0.11367738 0.04246669 -0.024495224 0.52607924 -0.01572199
-0.006711027 -0.04414292 -0.16056897 0.35397127 0.028507229 0.56820524 -0.18690711 -0.049516257
1.4634538 -0.25328138 0.3549533 -0.19185941 0.41427237 -0.016991654 -0.13147855 -0.44963372
0.11098678 0.13385558 -0.152761 0.9406519 -0.07004165 -0.5349592 -0.3036244 0.16003461
-0.13571848 -0.1506343 -0.58788675 0.14774092 -0.0015574225 0.02138446 -0.060511287 0.26129943
0.14042635 1.8231549 0.006054069 0.18060556 0.3224805 -0.16051714 0.2374222 0.07388384
2.0360816 0.24147019 0.07941335 0.6056932 -0.1122547 0.3618339 0.090429895 1.4316142
-0.015326377 0.09269671 0.7944884 -0.050296877 0.05761016 0.16950293 -0.3562721 0.0428717
0.17946705 0.4459762 -0.15971133 0.35440323 0.09172054 0.55923855 -0.07091733 -0.012131181
0.37736046 -0.08265036 0.33191222 0.009205181 0.47664055 -0.011018213 -0.032657396 0.16201487
0.0662558 0.23437269 -0.07051113 -1.3315023 -0.12630595 -0.11255864 -0.107927024 -0.016544484
0.28036043 -0.12005468 0.13399798 -0.16986392 0.15788916 -1.0992548 0.05461033 -0.3726043
-0.13063264 -0.84162056 -0.0053202 0.0784947 0.05795585 0.10991163 -0.21429591 -0.16394004
0.089453004 0.0209282 0.066492595 -0.060085125 0.08635174 -0.22377723 -0.16037749 -0.21956903
0.01241926 0.060509767 0.08285089 0.06997711 -0.24370453 0.0043546613 0.13651326 -0.032746326
0.04248736 -0.013893907 0.028982412 -0.14423032 -0.15321752 -0.21520084 -0.0049193706 -0.05706349
0.04771671 0.04210129 -0.19427843 -0.11246246 0.013481105 0.0029639318 0.01622134 -0.03920784
0.10965362 -0.12390118 -0.13313746 -0.11640598 -0.11164969 0.037382055 0.13992965 0.20744288
-0.07656945 0.03964555 0.01308216 -0.013922438 -0.0156527 0.080454476 0.16906178 -0.14657736
0.053041328 0.16077638 0.060974453 -0.13399312 -0.72501844 -0.07801201 0.16090125 -0.06178837
0.3389331 0.10204481 1.5258204 -1.1086854 -0.006423233 -0.64178246 0.099628046 -1.2991832
0.040670305 0.15636668 -0.18496095 0.014012941 -0.20408078 -0.10147613 0.09433 0.014889838
-0.0174961 0.11480122 -0.013622103 -0.14175004 -0.15110762 -0.11252356 -0.12165581 0.13535638
0.04686999 0.11029748 0.026609497 0.071130455 -0.047653604 -0.08215192 0.103406444 0.16129151
0.07382878 0.08876384 -0.18859841 0.11804756 0.03269904 -0.12908205 0.10345053 0.031476848

net.0.bias f4 [256]
00000000: 2713 c3be 0d84 1fbe 9ed9 cdbd 44d5 e037
00000010: 73cf 96be 6011 c43d 69cb 29bc acd0 a03d
00000020: 29fe eebd bc8b 92bd 837b cdbe 8eac 8e3a
00000030: 1124 813d c0cd d13a d4dd 14be e814 a1bc
00000040: 71fd fcbc 2a1e 013f fc4b e7be 25cf 9abd
00000050: 3d2e bd3d 5bbd c13d 973c 23bd dec5 b5bd
00000060: e84b 8cbd 4ee3 993d f7df 86bd d92c 01bd
00000070: 9ae2 e93e 796b 07be 9d5f 04bd fa24 163f
00000080: 5955 8dbe 80ac b1bd 009a 35be afad b9bd
00000090: 46b3 7d3d b685 973d 7c2d 3fbd 553a a2bd
000000a0: 13a1 0cbd 0dab a13d 1846 6dbe a2e3 0fbe
000000b0: fe34 b4bd b183 0d3a 26fb 3ebe 54d0 d23d
000000c0: 9834 61bd 77c8 033c e773 a43e bc2e 80bc
000000d0: f757 7a3c 9cd9 10bc bc1c 9b3d b165 9cbc
000000e0: 5c41 d23c b947 08be e8c7 bdbd ba8d 06be
000000f0: b3f6 dfbc 41e8 58bd 019f 0bbe 169b 0abf
00000100: 3db6 05be 19c0 a9be 4024 293d f4ad eebd
00000110: 8407 be3e 8593 24be 07c3 513d f4d3 50bd
00000120: dbc1 cbbd 53b6 493d 1e83 46bd 673b c6be
00000130: d976 d0bd d1f7 503e b1aa 9cbd 3f66 4ebc
00000140: 678f 963c 6788 60be 6c4a 9cbe 96b1 533d
00000150: 05af cabd df40 8a3d c43e 06be 83d1 cb3d
00000160: 7bb8 9abd 43cf 9b3d e36a d13e 7070 62bd
00000170: 9505 a1bd eb26 313c 0ad9 bcbd 0781 e3bd
00000180: b18c 843d 41df 5e3c a60d 56be 4551 60be
00000190: 1b11 1fbe 8381 3abe 9ca7 38bf 8316 17bd
000001a0: 6fae 823d db9b 23bc 6d45 45be b58e ffbc
000001b0: ae47 dfbd 76da 6a3d 85a6 16be 7b35 94bd
000001c0: 0928 c7bd 7997 43be 0823 973d a5ed b8bd
000001d0: a793 e3bb 28c5 06bf 95cf 82bd 365d c5be
000001e0: fce9 bcbd dbe4 ffbd 860e 77be d6d1 dcbd
000001f0: db90 00be c2f1 253d b68e 84bc 2e59 ebbd
00000200: 623b 853b 8511 8c3d 5af7 81bd b275 aa3c
00000210: ab69 cebc 496a 17be 4c9c cdbd 1bf1 20be
00000220: 4e73 063d 3c82 9e3c e140 5ebe 8bfb bcbe
00000230: 7d74 14bd 07e9 613e 6caf 873d 3ec8 c5bc
00000240: d5f4 3bbe cc20 7e3c 91cf 13be abf9 293e
00000250: d897 11be 94b6 4abe d5e7 46bf 48dc 173b
00000260: b3ee 85be 9e26 073d d339 cdbd ebaa 30bf
00000270: c9d2 b63e 6499 f3bc 53ec ab3c 60a0 ae3d
00000280: 5165 cdbe 846d 7cbd 3697 16be d4e8 d6bd
00000290: ae5a 4fbd 00dd 38bf 8a90 3abe 5ef4 e9bd
000002a0: d95a fabd 7359 0abe 4068 b7bd adf7 f73d
000002b0: 5cce 4cbd 4b2a 2fbf 7acc 0d39 9451 ab3b
000002c0: 98d8 9cbd a37d a5bd 1e90 5a3d 9607 6c3b
000002d0: 74a1 b33d e874 cd3c 4bf5 7ebd 5fb6 cd3c
000002e0: e39a 9b3c c54b 1abf 6beb 5d3e 6ada 60bd
000002f0: acda 7cbe 379a 05bd 51a3 95bc c2be 1c3d
00000300: 806b d83d 1103 e6bd 5ac7 8bbb efbb e2bd
00000310: 20c5 b4bd 6c48 b13e 6db4 d1bd b457 a53e
00000320: d5ee 3b3d 1ddc d5bd 7c7f 773e 4655 9d3c
00000330: 3ecd 563c bea7 093f 99e4 cebd e7f6 e7bd
00000340: 7336 1bbf b067 69be 229b 1dbe ab32 fdbc
00000350: 4005 a2bd 3b1a e4bd 86ae 9fbd 294d f6bd
00000360: 0a6f 37bc e280 74bd 52ba fdbd 316b a9bd
00000370: ba32 63bd 082f 6c3d b2b8 883d cb43 83bc
00000380: a6ab ccbc 29f2 31be 1c41 4d3e 7a0b 2e3d
00000390: bbd9 74bd 4642 a0be 3ebd f8bc c16c 50be
000003a0: 59a5 23bd 283e 97be bdfa 15be d663 29be
000003b0: a940 81be e103 f5bd e64a be3d c15c a1be
000003c0: f95f 1ebe b0ad 24be 5e02 7b3d 9fc5 f2bd
000003d0: 579b 7dbd db18 32be 35ba 15bf e235 9fbb
000003e0: b629 4dbd e063 11be f661 393c 45e4 1c3d
000003f0: 65b4 9b3b 09cc 04be af5e 5b3d 6c79 abbe
-0.3810055 -0.15577717 -0.10051273 2.680219e-05 -0.29455146 0.095736265 -0.010363438 0.07852301
-0.11669571 -0.071555585 -0.40133294 0.0010885166 0.06305707 0.0016006753 -0.14537746 -0.01966329
-0.030882569 0.5043665 -0.4517516 -0.07559041 0.09237335 0.09459945 -0.039852705 -0.08875631
-0.068504155 0.07514058 -0.06585687 -0.03153691 0.45680696 -0.13224591 -0.032317746 0.5865017
-0.27604178 -0.0867548 -0.17734528 -0.09066331 0.061938547 0.0739855 -0.046674237 -0.07921282
-0.0343333 0.078939535 -0.2317127 -0.14051679 -0.0879917 0.00053983467 -0.18650493 0.10293642
-0.054981798 0.0080434 0.32119676 -0.015647285 0.0152797615 -0.008840945 0.0757384 -0.019091459
0.025665931 -0.1330861 -0.09266645 -0.13140002 -0.027339315 -0.05295587 -0.13634874 -0.5414289
-0.130578 -0.3315437 0.041294336 -0.11654273 0.3711511 -0.16071899 0.051211383 -0.050983384
-0.09949084 0.049246144 -0.048464887 -0.38717195 -0.101789184 0.20407034 -0.07649744 -0.01259762
0.018378926 -0.21927033 -0.3052553 0.05168303 -0.098966636 0.067506544 -0.1310988 0.099520706
-0.07554718 0.076078914 0.4090186 -0.05528301 -0.07862393 0.010812501 -0.092210844 -0.111085944
0.06472147 0.013603033 -0.20903644 -0.21906002 -0.15533869 -0.18213467 -0.7213075 -0.036886703
0.06380927 -0.009985889 -0.19264765 -0.031195978 -0.10902344 0.057337247 -0.1471196 -0.07236763
-0.09724433 -0.19100751 0.073797286 -0.09029702 -0.0069450918 -0.52644587 -0.063872494 -0.38547677
-0.092243165 -0.124948226 -0.24126634 -0.107822105 -0.12555258 0.04051376 -0.016181331 -0.11491619
0.004065917 0.06839279 -0.06346007 0.020808075 -0.02519687 -0.14786638 -0.10039577 -0.15716974
0.032824807 0.01934921 -0.21704437 -0.36910662 -0.036243904 0.22061549 0.06625256 -0.024143334
-0.18355115 0.015510749 -0.14434649 0.16599147 -0.1421808 -0.1979621 -0.776975 0.002317207
-0.26158676 0.032995813 -0.10020795 -0.690108 0.3570769 -0.029736228 0.020986712 0.08526683
-0.4011636 -0.06162788 -0.1470612 -0.10493627 -0.05062359 -0.7221222 -0.182192 -0.114235625
-0.12224359 -0.13510685 -0.08955431 0.12107787 -0.050001487 -0.6842391 0.00013522981 0.0052282307
-0.076584995 -0.08080604 0.053360097 0.0036015264 0.08771029 0.02508016 -0.06224565 0.025111375
0.018994754 -0.60271865 0.21671836 -0.054895796 -0.24692792 -0.032617774 -0.018266352 0.03826786
0.10567379 -0.112310536 -0.004265708 -0.11071002 -0.08826661 0.34625566 -0.102394916 0.32293475
0.045882065 -0.10442374 0.24169725 0.0192057 0.013110457 0.5377158 -0.10102195 -0.1132639
-0.6062996 -0.2279346 -0.1539121 -0.03090795 -0.079111576 -0.111378156 -0.077969596 -0.12026436
-0.011195907 -0.059693225 -0.123890534 -0.08272398 -0.0554683 0.05766204 0.06675853 -0.016023537
-0.024984192 -0.17377533 0.20044369 0.042491414 -0.059777956 -0.31300563 -0.030363675 -0.20353986
-0.03995261 -0.2953961 -0.1464643 -0.1654199 -0.25244644 -0.119636305 0.092916295 -0.31516078
-0.15466298 -0.16081882 0.061281554 -0.118540995 -0.06191572 -0.17392294 -0.58487254 -0.0048587183
-0.050088607 -0.14198256 0.01131486 0.038303632 0.0047517293 -0.12968458 0.053557094 -0.33491075

net.2.weight f4 [256, 256]
00000000: 971c cc3c 5373 81be 7298 70bd 9885 30bd
00000010: c132 97be 7a11 4e3e d8e1 4d3c a053 31bc
00000020: be57 7b3d d0cf cf3c 8b71 16be 11c7 09bc
00000030: e4cf 2ebf 0070 4a38 ea66 84bd 11ba 11bd
00000040: fde7 353d 7593 f2bd 8029 eabe db89 33bd
00000050: 764c 343d ea4a 663d a266 08bd 7981 a33c
00000060: 40e8 77bd 735d f13d 6397 d63b 1e32 d93b
00000070: 8bcb abbe c053 16bd b63f 22c0 e3d3 333e
00000080: bc8a c4be 7aef 6fbd c88f 21be 1681 373d
00000090: 7203 9ebc a49d 2d3d aece b53c 4a4b f63c
000000a0: 8ef9 493d d021 86bb 2443 bd3d a006 7e3d
000000b0: 596a 7bbd 6fd4 963e 2197 0bbe c607 27bd
000000c0: 1a5c 60bf 3002 1b3d c56c d9bd 804a 3e3a
000000d0: 8865 50bd 36f3 343d ee93 923e a89c 8f3c
000000e0: 6054 293c 8ab3 5ebd f4f7 493d 38d7 53bc
000000f0: 6d60 1c3d 28ac a53d 4996 c0bc c7d5 e6bd
00000100: c3a9 1bbe 37bd c8bf c55f 0ec0 bc67 29bd
00000110: 3f14 75bd 8b85 5e3a 2d9e 2b3d d6f1 1cbf
00000120: f45d 183d 5ecb 533d 247b 48bd 4d8a 29bf
00000130: f08b 45bd 43e1 86bf 028a 43bd ca5c 34bc
00000140: dce3 c83c 3ce8 72be 00d7 bfbf a714 96bd
00000150: 8d41 1b3e e81e 443d 89ee 08bf abbd 8bbf
00000160: b19e 40bd e365 bf3c 72b3 ab3b 4059 813b
00000170: 2dc3 c8bd b86c 1d3d c8a8 b2be f3fd d6bd
00000180: 6ed9 98bd b643 0ebd f2c7 36bd ee07 29bf
00000190: bdf0 c1be 8e13 9bbf eb3f 09bf aa20 9abd
000001a0: 0483 4a3d 3d07 ecba 7bfd 6ebf 24aa 15bd
000001b0: 7493 76be d9de 6dbf a1d0 65bc 7a86 23bd
000001c0: 636f 703f 35e5 3abd 185a e0bc 72d7 833d
000001d0: c809 5f3d 988d 3fbe db61 6bbd 6604 ef3d
000001e0: 4859 15bd 79b1 8cbb 08a2 febf 00a8 9c3c
000001f0: 47e9 e4bc b026 b6bb b899 073c b061 253d
00000200: 9e27 743c 9149 1ebb 35bd 7a3d 6e6d 82bd
00000210: 299b 22bd 2f3c 10c0 be01 85bc 1fc3 083c
00000220: ced8 27bd f3bc 23be 7b8c 85be 4888 4cbf
00000230: f8c1 1c3d cf75 3dbe d6c0 81bb 9450 80bd
00000240: 52dd 47bd 3f04 a93c b2c7 c2bf e870 18bf
00000250: f852 a7be 334d 8a3e fe5b 3bbf ccd7 32bd
00000260: 0125 d6be 4fdf 333c ce54 9bbd e88c debe
00000270: fef0 8f3e 0457 86bd d683 54bd b8d3 a1bc
00000280: 1c12 a0be 02d6 f7be ec2e 5c3d 573d 94bc
00000290: c411 3cbc 8a52 cdbe 071d 6fba b7c6 06be
000002a0: 2c10 ca3c 1bd4 85bd 7866 c6be 5841 ffbb
000002b0: 9844 e43b e86c b8be 6404 8cbd 7625 c83d
000002c0: 3ccf 8fbc a982 06be 62aa 043d 4831 573c
000002d0: 56e2 c53e 4b92 4b3c 0ff7 c9bc af2f 89bd
000002e0: 831b 523e ce34 8bbf 637e 933e 6907 e2bc
000002f0: 18fc c4be 39fa 6dbe c00f 77bc ac58 83ba
00000300: 604e a53b 3be0 48bf 0440 b33c f0de bf3b
00000310: b3c5 9a3d 03cc 5c3e 17a6 69bf 9c05 a0bd
00000320: e97d 2e3c 36f5 8ebd 2183 b6bd 9350 f8bc
00000330: 48ed b43c 98eb bc3e 07b4 4abd 90b7 5c3d
00000340: 27ea 72bf 3240 b73c 5f83 d3be fc90 713c
00000350: 74f5 d53c f472 0dbd 8f53 78be f412 03bf
00000360: af3b 7a3d 3c71 04bd 7833 06bc f9ec 023d
00000370: a891 6fbf 3226 16bf 618f ad3c 0a78 2dbd
00000380: f0c9 2dbf 510c 9a3b 87fe 1bbf 80b0 aab9
00000390: 2a37 3abf ad8c 06bf 8a02 883c 9c91 10bf
000003a0: 4098 f03a 250a a6bf 603f 0ebe c98a 0bc0
000003b0: 601b f4be d2fb 52bc 59fd 35bf ad33 1cbd
000003c0: 26c5 53bd cfa1 983c 23ef 0e3f ea0b 963b
000003d0: 474b 33bd df83 41bf 6862 f4be 153e 71bc
000003e0: 40c8 da3b fd43 35be 1925 fc3c 4e38 6dbd
000003f0: 8ada 853c e824 22be 6e51 393d e6d9 32bf
0.024915976 -0.25283298 -0.058739133 -0.043096155 -0.2953091 0.20123854 0.012566052 -0.01082316
0.061362974 0.025367647 -0.1469175 -0.008409278 -0.68285966 4.826486e-05 -0.06464942 -0.035577837
0.044410694 -0.118445314 -0.45734787 -0.04383264 0.04401823 0.056223787 -0.033301003 0.019959198
-0.060524225 0.11785402 0.0065488084 0.006628289 -0.33553728 -0.036700964 -2.5351386 0.17561297
-0.38387096 -0.058577992 -0.15777504 0.04480084 -0.019288752 0.042386666 0.02219328 0.030065197
0.04931026 -0.0040933862 0.09241322 0.062018037 -0.061380718 0.2945895 -0.1363187 -0.040778898
-0.87640536 0.037843883 -0.10616449 0.0007259026 -0.050878078 0.044177257 0.28628486 0.017530754
0.010335058 -0.05437044 0.049308732 -0.01292973 0.038177896 0.08089477 -0.023509162 -0.112712435
-0.15201478 -1.5682744 -2.2245953 -0.041358694 -0.05983376 0.00084885274 0.041898895 -0.6130651
0.037198976 0.051707618 -0.04894556 -0.66226655 -0.048229158 -1.0537494 -0.047739036 -0.011008451
0.024522714 -0.23721403 -1.4987488 -0.07328158 0.15161724 0.047881037 -0.53488976 -1.0917257
-0.04702634 0.023364013 0.0052398974 0.003947407 -0.09802852 0.03843376 -0.34894395 -0.10497656
-0.074633464 -0.034732543 -0.044624276 -0.66027725 -0.3787898 -1.2115343 -0.53613156 -0.075257614
0.049441352 -0.0018007528 -0.9335553 -0.036539212 -0.24079686 -0.92918164 -0.014026792 -0.03992317
0.9391996 -0.045628745 -0.02738671 0.06437577 0.054452688 -0.18706357 -0.05746637 0.11670761
-0.0364621 -0.0042936173 -1.9893198 0.019123077 -0.027943267 -0.005558811 0.0082763955 0.040376365
0.014902024 -0.0024152736 0.061215598 -0.06368528 -0.039698754 -2.2536733 -0.016236182 0.008347302
-0.040978245 -0.15990047 -0.2608374 -0.7989545 0.03827092 -0.18501972 -0.0039597554 -0.06265369
-0.048795052 0.020631908 -1.5217192 -0.5954728 -0.32680488 0.27012023 -0.73187244 -0.04366283
-0.41825107 0.010978534 -0.075845346 -0.43466878 0.2811355 -0.06559566 -0.05188354 -0.019754276
-0.31263816 -0.48405463 0.053755686 -0.018095655 -0.011478845 -0.40102035 -0.0009121452 -0.13161741
0.024665914 -0.065345965 -0.38750052 -0.007789772 0.006966185 -0.3602059 -0.06836775 0.0977277
-0.017554872 -0.1313578 0.032389052 0.013134308 0.38649243 0.012425016 -0.02465394 -0.06698548
0.20518307 -1.087549 0.28807363 -0.027591424 -0.38473582 -0.23239984 -0.015079439 -0.0010020933
0.0050447434 -0.7846715 0.021881111 0.0058554336 0.075572394 0.215622 -0.9126906 -0.0781357
0.0106501365 -0.06980364 -0.089117296 -0.030311858 0.0220858 0.36898494 -0.049488094 0.053885996
-0.9488854 0.022369478 -0.41311166 0.01474404 0.026118018 -0.034533456 -0.24250625 -0.51200795
0.061092075 -0.03233455 -0.008190982 0.031964276 -0.9358163 -0.5865203 0.021186532 -0.042350806
-0.6788626 0.0047011753 -0.6093525 -0.0003255643 -0.72740424 -0.52558404 0.016602773 -0.5647218
0.0018355921 -1.2971846 -0.13891363 -2.1803458 -0.47677135 -0.012877421 -0.710897 -0.03813522
-0.051701687 0.018631844 0.55833644 0.004579057 -0.043772962 -0.75591844 -0.47731328 -0.014724274
0.0066767037 -0.17701717 0.030779408 -0.057915024 0.01633956 -0.15834391 0.045243673 -0.69863737

net.2.bias f4 [256]
00000000: d9e6 c03e 85f2 bc3d cfe6 803f cbc2 92bd
00000010: 5047 643e a6f0 ce3e 1e32 75bd 1764 413d
00000020: 24f8 b8bd 3181 cbbc 0005 46bd 793e 1d3f
00000030: 9a21 f9bd 8ef1 0a3f cf4a aa3c 259e 34be
00000040: a58d c9bc 9e09 d2bd e4c8 afbd a0d7 8abd
00000050: 546e 6abd d116 b33d 57bf 10be a797 4bbd
00000060: afe8 eb3d a6b9 f1bc 1e5a 0c3f a4d4 f73e
00000070: 2d25 86bc 881c 08be fe43 383f 4dae c03e
00000080: 55e6 533e 789a f7bc ab6c e2bc 475c f83d
00000090: 5b56 9c3d 1059 f13c 7921 47bd a1f9 013f
000000a0: 8fea 173f 0e1e f93e bf39 14bd 7465 3abd
000000b0: fd64 043f 5c38 493e 1d5a afbc 46bf 413f
000000c0: decb c23b d37e 233f cfd9 bfbd c271 c13e
000000d0: cbd2 483f 1ad4 a1be 7d85 133b 13df a23d
000000e0: 0236 a13d 6639 98bd fb92 fcbd a6e0 c3bd
000000f0: 1219 0e3e a987 1cbf 1c05 4ebe 31c4 36be
00000100: 6830 68bd d88d bd3e 1810 80bd 8b12 68be
00000110: 2d31 703e 33a6 cd3e 42a0 5aba b3b4 163f
00000120: 454d b53e 0a0f 57bd 802b 6dbd be67 5e3d
00000130: 6d7a 933b d0a7 82ba 77b0 a73d 5d56 133f
00000140: b4f9 023d 41c6 c13e 7ac5 583f 4abf 59be
00000150: 5e86 393f b828 97bd 8d64 623f a01e 9e3e
00000160: ea3d 5dbd e807 66bd d428 9a3d 44be fabb
00000170: e63f 7c3c 34d2 503f 05b5 bcbd fbad 91bc
00000180: 9b74 1bbf f224 ddbd 165a 06be e6e9 4d3f
00000190: e5ac 1a3f e01f a0bd 355f 08bf fc56 253f
000001a0: 41bb 263f 5afa 1b3b fa57 213f aa09 35bd
000001b0: 2a1d 74be 2b99 343e c0db 773e 77b6 54bd
000001c0: 3eaf 9e3e 449a 3e3f 27ff 09bf 620f 84bd
000001d0: 22e9 2d3f 5d88 f5bc 290b b238 ee2a 71bd
000001e0: ef3f e43e 04d8 74bd 33c9 efbd 3ce6 4cbc
000001f0: 6688 9f3d 11b3 ea3d ef85 5c3c b5dd 353f
00000200: 7a1e 433f 1f8b e4be f1d1 bcbd 4c6d 8cbd
00000210: e029 b23e fe61 16bd 0fb5 98bd 33eb a4bd
00000220: e995 5b3e 2755 02bd 8a84 103c 0f4f adbc
00000230: 568c c1be 99cd d93e a733 343d 2544 92bd
00000240: c6e9 8dbd 66f4 1d3d d54c 663d 2254 a53d
00000250: 408c 563f aa48 ffbd aedf ccbd 017f 3b3f
00000260: a779 ddbd 9fee 8cbb a6f0 d63e fcf7 19bd
00000270: ae1b 1e3e 980d 92bd fa42 75bd a767 75bc
00000280: c596 213f 2fab aa3d 64aa cfbd 3037 37bd
00000290: 3084 573d 1dad 21be b9c6 0c3c 956a 883e
000002a0: e0a4 44bb 8edf e8bc 6b8e 0cbd 2041 9abd
000002b0: d515 8a3b 0fea bebc 37b4 123c 55a4 73bd
000002c0: a078 91be f825 413e 3d92 893d d5c5 ba3d
000002d0: c021 9a3e 7be7 6dbd 97c1 b13e d249 223c
000002e0: ab3a f3bd ea4f b0bd 9e66 40bd 2dec 093f
000002f0: 98f4 8fbe bdc7 d9be 16b2 da3d 6b66 cabe
00000300: 128e bebd c29b e8bd 8856 dabb 7e56 463d
00000310: 6414 bf3e 0531 4cbd 19e3 5b3f 78b9 de3c
00000320: 8424 a4bd 46b4 85bd 0ab4 043e 3f91 803f
00000330: 1bcc dfbd 3d62 cc3e 4013 073e e6dd b13e
00000340: 707b fc3e f43a 303f a3cf 11be 69d8 853e
00000350: 6142 84bb 21ed 303f 79fe f2bd 13cc ba3e
00000360: 3131 c93e 69ca 323f e114 4abe 993c 2d3c
00000370: 1200 23be 7494 d53e dd13 eabd 5f42 3fbd
00000380: 7091 dc3e ae6f d2bd 50fc c8bd 8db3 86bd
00000390: 7c5b debd 1f37 893d b44a 4bbe 183d 84bd
000003a0: b1e6 a8bd bbf1 c43a 221a 90bd 658d e6bd
000003b0: 2ca6 153f f848 f1bd a86b a03e 30b8 f13e
000003c0: f5e4 0f3f 5713 0a3e 1c9a 7a3f 24fb 183e
000003d0: 29d0 7dbd 7714 ac3c 3943 453f b52c b0bd
000003e0: 69fa d3bb 5526 a53e b77c 0fbd 9cb7 5dbd
000003f0: 40f9 05bc c4aa abbd 15f2 293d a2e9 573f
0.37676123 0.092259444 1.0070437 -0.0716606 0.22292829 0.40417975 -0.05986225 0.047214594
-0.09031704 -0.024841877 -0.048344612 0.6142345 -0.12164612 0.54274833 0.020787625 -0.17638452
-0.024603674 -0.102557406 -0.08583239 -0.067794085 -0.057234123 0.08744586 -0.1413549 -0.049705174
0.1151899 -0.02950747 0.5482501 0.4840442 -0.016375149 -0.13292134 0.7197875 0.3763298
0.20693333 -0.030225024 -0.027639708 0.121269755 0.076336585 0.029461414 -0.048615906 0.5077153
0.59342283 0.48655742 -0.036187883 -0.04550691 0.51716596 0.19650406 -0.021405274 0.75682485
0.005944713 0.63865393 -0.093677156 0.37782103 0.78446645 -0.31607133 0.0022509985 0.07952704
0.07871629 -0.07432823 -0.12332722 -0.09564333 0.13876751 -0.611445 -0.20119137 -0.17848279
-0.05668679 0.3702228 -0.0625307 -0.22663324 0.23456259 0.40165862 -0.00083399203 0.58869475
0.35410514 -0.052504577 -0.057902813 0.054298155 0.0045006783 -0.0009968225 0.08187955 0.57553655
0.031976417 0.37846568 0.84676325 -0.21264377 0.72470653 -0.07380813 0.8843468 0.3088274
-0.054014124 -0.056159884 0.075273186 -0.007652076 0.015396094 0.81570745 -0.09214214 -0.017783156
-0.607248 -0.107980624 -0.13120303 0.80435026 0.60420066 -0.0781858 -0.53270274 0.6458585
0.65129477 0.0023800344 0.63024867 -0.04419867 -0.2383925 0.17636554 0.24204922 -0.051931825
0.30993074 0.7445414 -0.53904957 -0.064482465 0.6793386 -0.02997225 8.48978e-05 -0.05887883
0.44580027 -0.05977632 -0.117082976 -0.012506064 0.07789688 0.114599355 0.013459667 0.71041423
0.7621838 -0.4463739 -0.09219731 -0.06856784 0.34797573 -0.036714546 -0.07456409 -0.08052673
0.21443905 -0.03181949 0.008820662 -0.021155862 -0.3780238 0.4253967 0.043994572 -0.07141904
-0.06929354 0.038563155 0.056225616 0.08072688 0.83807755 -0.124650314 -0.10003601 0.7324067
-0.10814219 -0.004300907 0.41980475 -0.037590012 0.15440246 -0.07131499 -0.059878327 -0.014978326
0.6312068 0.08333432 -0.10139921 -0.044730365 0.0526163 -0.15788694 0.008592301 0.26643816
-0.00300055 -0.028426912 -0.034315508 -0.07531953 0.0042140284 -0.023304967 0.008954099 -0.05948289
-0.28412342 0.1886214 0.06717346 0.09119765 0.30103874 -0.058082085 0.3471801 0.009905295
-0.118764244 -0.086089924 -0.046972863 0.53876 -0.28116298 -0.425352 0.106784984 -0.39531264
-0.093044415 -0.113578334 -0.0066631474 0.04842233 0.37320244 -0.049851436 0.858934 0.027188048
-0.08014777 -0.06528525 0.12959304 1.0044326 -0.10927602 0.399187 0.13190937 0.34739608
0.49312925 0.68839955 -0.14239363 0.2614167 -0.0040362333 0.6911183 -0.11864943 0.3648382
0.39295343 0.69840103 -0.19734527 0.01057353 -0.15917996 0.41714823 -0.1142957 -0.046694156
0.4307971 -0.102752075 -0.0981375 -0.06577215 -0.10857293 0.06699967 -0.19852716 -0.06456965
-0.08247126 0.0015025655 -0.070362344 -0.112574376 0.58456683 -0.11781496 0.31332135 0.47210836
0.56208736 0.1348394 0.978914 0.14939553 -0.061966095 0.021005852 0.770557 -0.08602277
-0.00646906 0.32255808 -0.035031047 -0.05413018 -0.008177102 -0.0838218 0.041490633 0.8434087

net.4.weight f4 [3, 256]
00000000: 3169 333f eb49 fa3e 5578 b93e 7736 09bd
00000010: b44f 8e3d d41d 493f e828 5ebd a0b4 253c
00000020: 002f 493b b8e9 91bc 54bd e23c 09dc 813d
00000030: c3cf e9bd f6bd 30bf b5a7 a6ba fcde 003d
00000040: 4b98 b73c 3330 ce3c 0809 90bd 6026 94bc
00000050: 1a7d 733b a8d8 8c3f 417a e0bd 28fc 1dbd
00000060: ae3d 073e ce0b 27bd 713e 7b3d 4eac 3a3f
00000070: ce12 b8bc 16a6 2fbe 2ed7 ae3e a581 303e
00000080: b5c7 6d3e 7966 d2bb fe0e d3bd 7437 cd3d
00000090: 18c8 db3e 6405 9e3e f9b8 abbe 1731 593e
000000a0: 3c63 4dbf 65c4 093e b053 2a3d 0668 073d
000000b0: dbc2 a43d a222 273d bd7c 0ebd 1598 063e
000000c0: 4edd 35bf a529 b23d b9b5 03bd 4140 e03e
000000d0: 4862 c03e ee21 f3bd 233f 14bd dd6a 173f
000000e0: 53e3 573f c3d4 72bd a738 acbe 80c7 373e
000000f0: db63 173e 63ac f7be b4ea 44bc b104 55bd
00000100: 9eaa d93c c581 6fc0 53fa 2abc 793a 15be
00000110: 0321 38be 8462 493e cde7 aebc 872e dabe
00000120: dfe8 0f3f a9c2 a0be ca4a 0bbd f551 3cbe
00000130: 831b bc3e 6ff3 fbbc 1fa4 b63e 618e d9bd
00000140: 2af9 67bc 7b39 5ebf 1bf7 bc3e 7d71 0ebd
00000150: 2773 963e 2fd6 ebbd dfde 983e 3a84 a63d
00000160: 78ea c3bd e440 53bd 9429 033e c3ef d23a
00000170: 2378 22bf 6e1d 353e 7396 efbd d299 91bc
00000180: 53dd ecbd d548 9ebd fd76 debc 5327 873e
00000190: f7ed db3e d7e9 d7bc a2ce a5be 7b3e c03d
000001a0: b77f 3a3e e711 af3b 7ac9 833e a9be 173b
000001b0: 6afb acbe 12c8 ecbf ad41 9dbe 033a e4bd
000001c0: 6753 a63d c8d0 3a3e 5446 d1be a242 0cbd
000001d0: 5b34 1e3e 925c 78bc 1117 1e3d 4eb2 0e3d
000001e0: d76b 2f3e 8c05 38bd 6954 2abe 8189 13bd
000001f0: 7328 bdbd f707 213e c383 d53b 19fb f33d
00000200: 4777 343e 08fb bbbe 83b7 70bd df6c 8e3c
00000210: def4 073e 2e4a 9ebc 636f f5be 3689 e5bc
00000220: f001 2f3f 7a79 e83c b2a8 1dbd 8c6f 6f3f
00000230: a306 63bf d19f fe3d 6591 6cbf aed0 253d
00000240: 4e46 52bd 23af 8a3e 2e09 20bd 5d0e 5cbf
00000250: a36d 8a3e 66d1 a2bd e37e 04bf 6cc5 d73d
00000260: c1dc efbd 313f d3be 23e5 d63e c217 29be
00000270: 821a 15be a803 22be 9b0a 2fbe 8c47 b73d
00000280: 6d60 bc3d e6ef 4c3f f465 9e3b fa89 0dbd
00000290: 689e 36bf dc81 c4be cd3c 7ebf 4e8b e23e
000002a0: 95a3 e53c aea9 88bd 9e3e 5bbd d514 8fbc
000002b0: 9227 7fbe 7cc0 0bbd dfb7 f9bb cdb5 703d
000002c0: 72b2 6cbe 3135 cf3e 51e2 0abe 748d 76bd
000002d0: 101e 8b3e cd2c 513d 0eec 8c3e 3e0b 223d
000002e0: 9fd6 23bd 535f 623d c0ab 133c f8e3 a73d
000002f0: c50d 75bf 7b9a 63be add3 d0be 9f98 64bf
00000300: da5d ef3b c5e3 60bd 8286 e03e 5744 8ebf
00000310: 4644 92be 391d 143e b091 c03e 15a1 2a3f
00000320: 8544 2fbd 3417 34be da53 743e 4229 b93e
00000330: dc35 58bd b966 4bbe 3430 ab3d d408 793c
00000340: 5e87 ccbf 4ab2 87bf eb52 713e 7147 61bf
00000350: f9f0 64bc 4633 af3e 24c7 2ebd fb92 8a3e
00000360: 7234 ee3e ed78 943e debb a8bd f4dc 473c
00000370: d782 5bbe ba34 6d3f 1a03 633f c5cd 623b
00000380: 929e f83e af00 f4bd ceff 7dbd 6c54 f8bc
00000390: c72d fabd f475 b3be 8ba9 89be 0a6f 07bd
000003a0: cab3 01bd 1ea2 aebe 3d24 e1bb 55c1 c9bd
000003b0: bf09 0f3f 124f 28bd e666 4f3f 2aee ac3d
000003c0: 6df5 913e 1dfa 57bf 8fe6 873e 3ce9 67be
000003d0: a858 313d c334 a1bf 3f11 b93e aac6 ecbc
000003e0: 39c1 e6bb f8b0 47be 0816 f03d df90 3c3c
000003f0: 89a6 403d 2f2c ddb9 2bbc b03e b096 df3d
0.70082384 0.4888452 0.3622462 -0.033499207 0.06948796 0.7856114 -0.05423823 0.010113865
0.003069818 -0.017811641 0.02767817 0.063407965 -0.114165805 -0.6903986 -0.0012714776 0.031462654
0.022411486 0.025169468 -0.070329726 -0.018084705 0.0037153424 1.1003618 -0.10960818 -0.038570553
0.13207123 -0.040782742 0.061338846 0.72919166 -0.022469904 -0.171532 0.34148544 0.17236955
0.23220713 -0.006420907 -0.10305594 0.100203425 0.42926097 0.30863488 -0.3353956 0.21210133
-0.80229545 0.13453825 0.041583717 0.03305819 0.08044978 0.040804513 -0.03478693 0.13143952
-0.7104081 0.08699349 -0.032155726 0.43799022 0.37574983 -0.11871706 -0.036193024 0.59147435
0.84331244 -0.059284937 -0.33636972 0.17947197 0.14784186 -0.48373708 -0.012018848 -0.052006427
0.026570614 -3.7422955 -0.0104356585 -0.14573087 -0.17981343 0.19666487 -0.021350766 -0.42613623
0.5621471 -0.31398514 -0.03400687 -0.18390639 0.3673974 -0.030755727 0.3567209 -0.1062286
-0.014158526 -0.8680646 0.36907277 -0.0347762 0.2938473 -0.11515462 0.29857537 0.08130689
-0.09566206 -0.051575556 0.1280883 0.0016093183 -0.63464564 0.17687008 -0.11698618 -0.017773543
-0.11565652 -0.07728735 -0.027156347 0.2639719 0.4295499 -0.02635662 -0.3238421 0.09386917
0.18212782 0.0053427103 0.25739652 0.0023154414 -0.33785564 -1.8498557 -0.3071417 -0.11143877
0.081213765 0.18243706 -0.4087397 -0.034243234 0.1544966 -0.015158789 0.038596217 0.034838013
0.17130981 -0.044927165 -0.16633762 -0.036019806 -0.09236231 0.15725695 0.0065159514 0.119131275
0.17623626 -0.3671496 -0.05876876 0.017385898 0.13277003 -0.019322481 -0.47936544 -0.028019529
0.6836233 0.028378237 -0.03849096 0.9352958 -0.88682 0.12432826 -0.92409354 0.040482216
-0.05133658 0.27086744 -0.039071254 -0.85959417 0.2703677 -0.07950096 -0.51756114 0.10535702
-0.11712027 -0.4125915 0.41971692 -0.16512969 -0.14560893 -0.15821707 -0.1709389 0.08949193
0.09198079 0.80053556 0.004833931 -0.034555413 -0.7133546 -0.38380325 -0.99311525 0.44246906
0.028032104 -0.06672989 -0.053526513 -0.017465988 -0.24917439 -0.034119114 -0.007620796 0.05876713
-0.23114946 0.4047027 -0.13562895 -0.060193494 0.27171373 0.051068116 0.27523845 0.039561503
-0.0399996 0.05526669 0.009013116 0.081977785 -0.95724136 -0.22226898 -0.40786496 -0.8929538
0.007304889 -0.054904718 0.4385262 -1.1114606 -0.28567713 0.14464273 0.3761115 0.6665204
-0.042789955 -0.17586976 0.23860112 0.3616429 -0.05278574 -0.19863404 0.083588034 0.015199859
-1.5978811 -1.0601285 0.23566787 -0.87999636 -0.013973468 0.34218806 -0.042670384 0.27065262
0.46524388 0.2899851 -0.08238958 0.012198675 -0.2143663 0.9265858 0.8867661 0.0034607511
0.4855848 -0.11914193 -0.062011532 -0.030313693 -0.122157626 -0.3505093 -0.26887164 -0.03306488
-0.0316656 -0.3410806 -0.006870775 -0.09851328 0.55874246 -0.041091032 0.81016386 0.08443864
0.28507558 -0.8436602 0.2654309 -0.22647566 0.04329744 -1.2594227 0.3614597 -0.028903324
-0.007042077 -0.19501102 0.11722952 0.011509149 0.04703382 -0.00042185324 0.3451856 0.10917413

net.4.bias f4 [3]
00000000: 3fd7 373f 0661 8c3f 6ead 173f
0.71812814 1.0967109 0.5924901
