iteration(models)/adaptingCars/dqn_highway_adaptingCars.pt (torch, 342085 bytes, 6 tensors)

net.0.weight f4 [256, 70]
00000000: 0e16 a3bd 5f8d a63d 6353 a5bd 5422 f7bc
00000010: f6db 8e3c 2646 2ebd ef84 423d acfa 9e3d
00000020: b2a6 e1be e075 55bd 56a9 6dbe 2c01 5a3d
00000030: a05b 19be 800d 84bd 3489 dcbd e83e b33d
00000040: 9c3f bc3a f30b 3abc 97c1 afbc 75b3 6ebd
00000050: e3f0 06be d630 8c3d 8176 043e f2ad 4fbd
00000060: d047 a7bc a563 b5bd 721f 62bd a9fe 88bd
00000070: a993 15be 7c5b fc3c 6912 abbd e677 0437
00000080: b22b 6b3c 886d 703c 29cb dabb eee2 b53c
00000090: 0486 83bd 81e5 863d 87c0 6abd 2d0b bebd
000000a0: 3f35 743d f801 1ebe 8771 6abd 743d a4bd
000000b0: 7948 6f3d 552b 02bd 6303 e8bd bd10 f6bc
000000c0: 6afd 643d 2c56 aebd 5992 2e3d 161d 8b3e
000000d0: dd9f 16bb ae43 74bd dca4 2cbd 0dc7 473d
000000e0: 5dcb 19be b439 053c 2e22 a4bd 3a17 153e
000000f0: 4b0a 6cbb 9140 453d c9e0 893c 6406 903b
00000100: 9392 d93d 31c6 a63d 5f9c 163e 5a4c 00be
00000110: b353 663d 9615 a63d 5c16 92bd b080 eebd
00000120: 9175 f2be d7a2 34be f104 67be 60a5 ddbd
00000130: becb dcbd 6d58 bbbd bea9 263f 57ff b5be
00000140: c4c1 223e e8b7 3dbb f39f 8f3d e5c5 48be
00000150: 684a 61bd 1556 6e3d d21c 95be 619f 783e
00000160: e610 063e bc15 3ebd 75e0 e83e 26e8 d43c
00000170: 3027 a63d fe0b 903c 2600 2c3e a426 193e
00000180: 84b9 0fbe 61aa 43bd a39b f6bd 1ac5 8f3d
00000190: 1d2c df3c 9ea4 533e c714 703e 181a c9ba
000001a0: 632c 9f3e 3b4c dfbd 100e b23c e598 043e
000001b0: d54e 823e b479 b33d 53cc 07bd f19f ff3d
000001c0: f141 84bd d39a ef3c eb87 3f3e 99b6 de3d
000001d0: e1a2 313e beb3 5e3c bb14 a43e af5b ddbd
000001e0: 510d 3f3d 4e10 993d bf2a fa3d a118 ac3e
000001f0: 45c7 9b3c 1121 c93e 43ee 223c 6f44 ab3d
00000200: 5581 463e b0fd e63b 21c7 813e efba 52bc
00000210: 36b4 0d3e 5d31 efbd f842 523d 2bca 4a3d
00000220: 9608 653e 5bd7 7e3e 21d2 81ba 06f7 c63e
00000230: 8cbc 0d3e 52c7 c63d 2065 2abe bdd1 0d3e
00000240: 9435 933d b68f 033e 8cc3 2b3d 64b7 1e3e
00000250: dfa3 3fbe ce55 c03c bedb ccbe d8c7 37bd
00000260: 5fae 163e b7ea 6ebc 7d68 363d 9184 83bd
00000270: 8882 5ebd 20de 2ebd 71ef a23c 1322 eabc
00000280: d0ad 553d 8f2a 82bd 3831 3d3e f60d 503d
00000290: fa84 46bc c9ee 10bd cb05 0c3e 315d 9cb9
000002a0: 8db2 173d 8e8c 823e 2120 ca3d e841 99bd
000002b0: f5ec f53d 08ec 18bd 6dae da3d 7b2d 92bc
000002c0: f735 f03d aaf2 1cbd 5a63 863d 5406 e53d
000002d0: 9edc 083d cca1 dcba 91d2 2abd ae4a 1e3e
000002e0: 38ba f03b 17da 973d 73ed 953d 625f f53d
000002f0: 24a5 07bd a569 063e bcb2 08bd d8fe 16bd
00000300: 8b10 d8bd 4529 5cbd 5ef1 953d e42a 083e
00000310: 321c 533d 9b25 cc3d a92a c9bd b80b 61bb
00000320: 3f64 df3c e1e7 bb3d 64b1 eabd 97aa 89bc
00000330: 8300 bbbc bd0e acbd 7e8c 193e ca36 c0bb
00000340: 7081 97bc cbdb c93d 4e9e 593b d2e4 fd3b
00000350: 7559 e53d c049 8ebd 92ec 12bd 1e07 06bd
00000360: 3b92 a1bd 515b 91bd 1910 9bbf 4757 53bf
00000370: 9711 01be fa29 953d ff24 243d e3a7 d9bd
00000380: 95f4 c23d 2c73 82be 0270 70bd 0779 08bc
00000390: 6cb6 043d 6a05 b4bd 7666 91be 946e 5c3d
000003a0: 3fbc 0fbe b776 99be 64a1 83bd e75c f03d
000003b0: ac8b aebd b67f a8bd 31ff a4bd 28fa bebd
000003c0: c8a0 8f3d f7df 3b3d ff39 103e f70b 9cbc
000003d0: de28 c53d 807e f4bd 9a47 1bbe d48f 1ebe
000003e0: f95e 1fbd 4101 563e f571 bdbd b8ef 2d3f
000003f0: 509c 92bd 8e2b 15bd af0c bfbd 7dcc 2abe
-0.07963191 0.08132433 -0.080725454 -0.030167736 0.01743887 -0.042547368 0.047490057 0.077626556
-0.4407249 -0.052114367 -0.23209128 0.053223774 -0.14976358 -0.064478874 -0.10768357 0.08752233
0.0014362219 -0.011355388 -0.021454616 -0.058276612 -0.13177828 0.06845252 0.1293583 -0.050702997
-0.020419985 -0.08856896 -0.05520577 -0.066891976 -0.14607109 0.030805342 -0.08353121 7.895729e-06
0.0143536795 0.014674552 -0.0066770506 0.022202935 -0.06422046 0.06586743 -0.057312515 -0.09279475
0.059621092 -0.15430439 -0.057237174 -0.08019534 0.058418725 -0.031779606 -0.11328771 -0.030037278
0.055905737 -0.0851253 0.042620037 0.27170628 -0.002298347 -0.059634857 -0.04214941 0.048773814
-0.15018983 0.008131433 -0.08014332 0.14559641 -0.0036016877 0.04815728 0.016830819 0.004395293
0.1062366 0.08143271 0.14708088 -0.12529126 0.056232166 0.08109586 -0.07133171 -0.11645639
-0.4735532 -0.17640243 -0.22560479 -0.108225584 -0.10781048 -0.09147725 0.65102756 -0.3554637
0.15894228 -0.0028948728 0.0701293 -0.19606741 -0.0550026 0.058187563 -0.2912355 0.24279548
0.13092384 -0.046407446 0.45483747 0.025989603 0.08112943 0.017583843 0.16796932 0.14956146
-0.14035612 -0.047769908 -0.12041404 0.07020016 0.027242715 0.20668265 0.23445426 -0.001534286
0.31088552 -0.10903212 0.021735221 0.1294895 0.2545077 0.087634474 -0.033153843 0.12481678
-0.0645789 0.02924863 0.18704192 0.108746715 0.1734729 0.013592659 0.32047066 -0.10808503
0.04664356 0.07473813 0.122151844 0.3361254 0.019015918 0.3928304 0.009944501 0.08362662
0.19385274 0.007049285 0.25347236 -0.012861951 0.13838276 -0.11679337 0.051333398 0.04950921
0.22366557 0.24886839 -0.0009904542 0.3886034 0.13841456 0.09705986 -0.16640139 0.1384954
0.071879536 0.1284779 0.041934535 0.15499645 -0.18714856 0.023478415 -0.400114 -0.04486832
0.14714955 -0.014582328 0.04453324 -0.064217694 -0.054323703 -0.042692304 0.019889565 -0.028580701
0.052167714 -0.06355774 0.18475807 0.050794564 -0.012116665 -0.035383973 0.13674085 -0.00029824072
0.037035514 0.2549786 0.09869409 -0.07483274 0.120080866 -0.037334472 0.106778 -0.017843952
0.11729043 -0.03831736 0.065619186 0.111828476 0.033413522 -0.0016832887 -0.041704718 0.15458176
0.0073464178 0.07414644 0.073206805 0.119810835 -0.033116475 0.13126238 -0.03337358 -0.03686413
-0.1055003 -0.053750295 0.07321428 0.13297611 0.05154056 0.0996811 -0.0982259 -0.003433926
0.02726948 0.09175087 -0.11459616 -0.016804976 -0.022827392 -0.084012486 0.14995 -0.0058659064
-0.018494338 0.09856375 0.003320593 0.007748225 0.11198703 -0.069476604 -0.035870142 -0.03272163
-0.078892194 -0.07097495 -1.2114288 -0.8255505 -0.12604366 0.07283397 0.040074345 -0.10627725
0.095193066 -0.25478494 -0.05870057 -0.008329636 0.032400534 -0.08790095 -0.28398484 0.053816393
-0.14036654 -0.29973385 -0.06427267 0.1173647 -0.08522734 -0.08227484 -0.080564864 -0.09325057
0.070130885 0.045867886 0.14084624 -0.019048674 0.096269354 -0.119381905 -0.15164033 -0.15484554
-0.038908932 0.20898916 -0.09250251 0.67943907 -0.071587205 -0.03641849 -0.09328591 -0.16679569

net.0.bias f4 [256]
00000000: 9a80 44bd 62ea 2238 0d62 df3c f865 6e3d
00000010: 9032 253d f9b1 353c ecf1 803d 800a 56bd
00000020: f3d0 453c 35c0 8b3d 12a8 82bd 87a2 4e3c
00000030: 15dc bfbc a533 12bd d543 35bd d930 8b3d
00000040: 4667 8e3d 98e5 e93d f5f6 513d 716a 96bc
00000050: 9cf2 473d fe1c bbbd 8d76 10be 279e 09bd
00000060: 0402 43bc 7fe5 133d bfd0 92bd b368 aa3d
00000070: d9c4 73bd 2d8a 49bc e5ae dcbc ecaa 03be
00000080: e10d 0e3e b0fe 8b3d c70c 093e 8568 59bd
00000090: 0bc5 4e3d e0f2 8e3d 7efa a1bc 7bf4 703c
000000a0: 9e66 aa3d d9e4 6b3c 9833 9dbc 8adc 0f3d
000000b0: db0e b3bd 8abf 9ebd 0d11 e53d 58a1 f73c
000000c0: ea06 a83d 71d2 a8bd 5308 e6bc 7f38 2cbd
000000d0: 904c a6bd 7c2a 643d 31d3 79bd 2304 bdbd
000000e0: b8ce 5fbd 4189 cc3d 2069 b63d b165 dabd
000000f0: ff0d 85bc cc3e 993d cae0 9cbd b315 9e3c
00000100: d3a0 d6bd ae3d 513d eec8 a93d 84d3 eabd
00000110: 5334 cebd 7b07 ac3c bc96 ff3c 535e 323d
00000120: 2bcd 44bd c711 cd3d 2a89 0bbd 20a2 85bd
00000130: 46db 5c3c 4d18 b3bd ef34 ae3c 7f9b 94bd
00000140: 9bc1 34bd c9d0 753c b1f4 753d 9b64 2d3d
00000150: d0a4 373e 8df9 a7bc e329 163d a62e 1a3d
00000160: 4ebb 613d 5b77 39bd c5ee a2bc 7a7f 11bd
00000170: c702 cc3d 5b7f 31bd ed38 e23a 9c27 f0bd
00000180: bcdb cabd 847c 373d 2f95 c33d 548b d8bc
00000190: 4c6b 3bbd 0fcc 5fbd a89d dabd d736 d2bd
000001a0: 54b9 e43c 129b 1e3d fe08 be3c 1672 873d
000001b0: f0d2 dd3d a25f 66bc c0ac 0e3d 40c3 443d
000001c0: f9ca 97bd 181c 143d a933 dbbc 4a2b 73bc
000001d0: c654 f13d afb8 61bc 6ab0 9dbd aa31 b7bd
000001e0: 1014 073d 0945 6e3d f894 293d a932 a33d
000001f0: 1f47 dfbd a6b8 b2bd 5178 a63d 3a04 413d
00000200: 5ed2 c93d 44ed 9fbd c7e3 d83d 5f7a 803d
00000210: 9434 143d 6f6b 65bd dc15 6d3b c7f8 f1bb
00000220: e9d2 e4bc ac24 e7bd bbc1 59bd e633 afbd
00000230: 7df0 c13d 550f 643d 788c 173e 8461 5fbc
00000240: 1e9d d23d 7f06 853d 3860 9c3c 47b8 8e3d
00000250: 2c5a debc 64b3 c63c fb9a a13d 43be 8e3c
00000260: 5491 9f3d 17d1 84bc 46f9 f7bc 9680 843d
00000270: 8708 ffbc 26af d23d d1a7 e3bd 62c0 e9bb
00000280: a673 a2bd 9379 80bc 97e0 8fbd f216 c53d
00000290: 7a29 b5bd a2a0 6e3d 5d8a 333c 1f2f aa3b
000002a0: 6089 a7bd 0b34 b6bb d0e0 6cbd b5c1 c33d
000002b0: a82f 9b3d cd4b 973c 09e1 b0bd 42e0 58bd
000002c0: 5704 153e 484c 2c3e be2d b43d 40e9 aa3d
000002d0: c5c0 a13c 74a0 e63c c63d 7c3d 3b6c df3d
000002e0: 3806 b9bd 7bce 7b3c 4ae7 1d3b c93d 813d
000002f0: cada 013b 0eb5 ed3d c463 543d 1630 b33d
00000300: 5b0b c13b a2df 6f3d 0266 61bd 05e5 f03d
00000310: 5daf 783d c851 bc3d c352 41bc 3ac4 fc3d
00000320: 66a1 cfbd 92cc 4f3c 6039 7d3a 9a07 af3b
00000330: fae1 8abc fbc8 cb3b 01ee 1f3d 8762 473d
00000340: 2195 8a3d 2b01 85bd 4e41 973c 8a88 4abb
00000350: 0dcb 98bd 9ded 903c 2b2a ed3d d09e e93d
00000360: e084 6a3b 5f48 23bc 933a 08bb 01fc e03c
00000370: 1449 a9bc b9b9 7cbd 780f 1f3e 0146 6cbd
00000380: 9a5e 463d 3b68 763a f0f3 c2bd 5845 a3bd
00000390: 4dcc 83bc da96 c53d ced5 d1bd 6e46 8fbc
000003a0: 2b3f ae3d 4e0b 5b3c c418 643d 1bdb a1bd
000003b0: 8f1c 7cbd 0d52 153e ec5d 52bd 9e41 78bd
000003c0: 26d4 473c a214 8bbd c196 9e3d fce9 6ebd
000003d0: 69d0 0ebd 91f7 8bbd e9be 00be 0bf4 b0bd
000003e0: 9b5b f1bc 2eba e03d 6185 1c3d 45b5 db3d
000003f0: 2d1a 203d bddd 3ebd 3446 113b 697b a7bd
-0.047974207 3.8842096e-05 0.027268434 0.058202714 0.040331423 0.011089795 0.06296143 -0.052256107
0.012073743 0.0682377 -0.06379713 0.012611992 -0.023420373 -0.035693783 -0.044254143 0.06796426
0.069532916 0.11420745 0.051260907 -0.018361302 0.048815355 -0.09136389 -0.14107724 -0.03359809
-0.011902336 0.036107536 -0.071687214 0.08320751 -0.0595139 -0.01230101 -0.026938865 -0.1285817
0.13872482 0.06835687 0.1338378 -0.053078193 0.050480884 0.069799185 -0.019772764 0.014706726
0.08320354 0.014397823 -0.01918964 0.03512243 -0.08743068 -0.07751377 0.11184893 0.030228302
0.08204444 -0.082432635 -0.028080141 -0.042046066 -0.08120072 0.05570458 -0.060992423 -0.09229305
-0.0546405 0.099871166 0.0890677 -0.10663927 -0.016242025 0.07482681 -0.076600626 0.019297456
-0.104798935 0.051084213 0.082902774 -0.11466125 -0.10068574 0.02099966 0.031199805 0.043546986
-0.048047226 0.100131564 -0.034066357 -0.065250635 0.013480013 -0.087448694 0.021265475 -0.07256221
-0.04412995 0.015003392 0.06004781 0.042332273 0.17933965 -0.020504737 0.03666104 0.037642144
0.05511027 -0.045279842 -0.019889245 -0.03552196 0.09961467 -0.043334346 0.0017259397 -0.11726305
-0.09905192 0.04479648 0.09549939 -0.026433624 -0.045756623 -0.054637965 -0.10674602 -0.10264366
0.027920403 0.038722105 0.023197647 0.06613557 0.10831249 -0.014060887 0.034832716 0.048037767
-0.07411761 0.036159605 -0.026758032 -0.014841864 0.117837474 -0.013776942 -0.07699664 -0.089450195
0.032978117 0.058171306 0.041401833 0.07968647 -0.10902237 -0.08726625 0.08128417 0.04712317
0.098545775 -0.07808927 0.1059032 0.062733404 0.036182955 -0.05601066 0.003617636 -0.007384393
-0.027932601 -0.112862915 -0.05316327 -0.08554821 0.094696976 0.055678684 0.14799678 -0.013634089
0.10283874 0.0649538 0.01908885 0.06968742 -0.027142607 0.024255462 0.07890888 0.017424708
0.07791391 -0.016212983 -0.03027023 0.06469838 -0.031131996 0.10287313 -0.11115993 -0.0071335295
-0.079322144 -0.015682971 -0.07025259 0.09623517 -0.08845802 0.05825866 0.010958281 0.0051936056
-0.08180499 -0.005560403 -0.057831585 0.09558431 0.07577449 0.018468762 -0.08636672 -0.052948244
0.14552437 0.16825974 0.08797787 0.0834527 0.01974524 0.028152682 0.06158235 0.10909315
-0.09034389 0.015369053 0.0024094158 0.06310613 0.0019814246 0.11606799 0.051852956 0.08749406
0.0058912463 0.058562882 -0.055028923 0.11762432 0.060714114 0.09195286 -0.011799517 0.12342115
-0.10138206 0.012683051 0.00096597336 0.0053414823 -0.016953457 0.006219027 0.039045338 0.048677947
0.06766725 -0.064943634 0.018463757 -0.0030904138 -0.07460604 0.017691428 0.115803085 0.11407244
0.0035784766 -0.009965985 -0.0020786866 0.027463915 -0.02066473 -0.061700556 0.15533245 -0.05768395
0.048430063 0.0009399687 -0.09519184 -0.07972211 -0.01608863 0.09647913 -0.10245858 -0.017489638
0.08508142 0.0133693945 0.05568768 -0.07903119 -0.061550673 0.14582081 -0.051359102 -0.060609452
0.012196576 -0.06791045 0.07743598 -0.058328614 -0.034866724 -0.06834329 -0.12572826 -0.086402975
-0.029462626 0.10973011 0.038213138 0.10727934 0.039087463 -0.046598185 0.0022167088 -0.081778355

net.2.weight f4 [256, 256]
00000000: f562 ddbc 3c48 aebc febd 24bd 82d0 473d
00000010: 745d 85bd 2154 d3bb f0af 893c f64c 313d
00000020: f673 5d3d df7d 8bbd 0a8e 543d dd02 2cbd
00000030: 6919 a7bc fc54 01bd 4041 7c3b fcdc 3bbd
00000040: cac3 8dbc 988f 053d 0e03 c8bb 68d8 d43c
00000050: d741 093d c008 27bd d02b d33b 8624 abbb
00000060: 2f86 4a3c 1ff7 6ebd 559a 33bc 4ace 0e3d
00000070: 2074 77bc 15a9 6dbd 2c94 403c c931 813b
00000080: a301 363c 9a3a fcbc 404e c5bc 65be 0d3d
00000090: d469 2f3d 8b06 543d f45e 8bbc 8051 923c
000000a0: 103b a5bb 6eff 3d3d 8ba7 d9bc 0f58 83bd
000000b0: 2e2c 043d d03d 0f3c 5e12 6ebd 2815 2fbc
000000c0: 9f56 63bb d7e6 58bd c84f 9bbc 58d3 f13c
000000d0: 4086 7dbc 02b6 b6b9 dd72 1b3d 9dab 70bb
000000e0: 1abd 0bbd 0c16 1fbc dd83 453d d092 b33b
000000f0: d6ce 333d d683 37bc 7073 3c3c 50a2 e1bc
00000100: fc58 f8bc e418 c43c b442 8bbd 44f2 633c
00000110: e281 a4bc 033c 6a3d feb9 64bb 62f8 81bc
00000120: 5e3e 8dbc bf2e 6cbd 323e f139 09ed f0bc
00000130: 2edd 633d 892a 54bd 98ad 3f3d 23a7 1ebc
00000140: e01e 3abd 6048 873c df81 8b3c 8aa5 55bd
00000150: 1b54 fabc c60c 503d ac16 ea3c 48af 7a3d
00000160: 8a9c 79bd 3e2e 08bd 602c 80bc e2ee 82bd
00000170: 33b9 38bb f33c 053d b038 df3c 97cf 263d
00000180: 6bba 03bd 709c f7bc 50f9 d7bc 468b 5e3a
00000190: e04b 21bc 5ce4 983c e398 7f3c 486b 0a3c
000001a0: 1f04 f5bc 2abf 293c eb54 8cbd ae62 533d
000001b0: 0a2e 8bbd 008e c7bc 5b7c 35bd 94ae 0cbd
000001c0: c8a6 eabc f712 c2bc 8f7e a7bb 9263 88bd
000001d0: 3a1a 9b3b 8b11 33bd 98b7 2bbc 5057 1dbc
000001e0: 0722 04bc 283d 33bd 4e51 8bbd a5a6 39bc
000001f0: d7b1 523d e6fa 663d e01f 89bd 760a 60bc
00000200: 27c8 cdbc ea3e 09bd fb83 de3c d9ca 16bd
00000210: 948b f83c 0cbf 053d d2aa 48bd 65d2 6a3d
00000220: 066a 1cbd 872c 54bd 28c6 383d f016 7fbc
00000230: e023 e73c b7b7 e6bc a650 2b3d fb81 173d
00000240: a50d cd3c 2be2 34bd a4c7 343c bc30 c9bc
00000250: 99de e33b 3216 253d 824e 4dbd f6d7 3c3d
00000260: fa84 4a3d bc61 74bd 9847 77bc b936 61bd
00000270: 3e24 6a3d 4655 0c3d fbd0 74bd 5043 10bd
00000280: 74fd 3fbd a31f f03c 97ee 02bc 4587 c93b
00000290: f80e 93bc 1806 65bd 2a8f 1abd f07a b03c
000002a0: 6afd 7abd d626 243c 5558 0a3d 6e22 2dbd
000002b0: eedd 9e3c 14f8 fe3c 4f6c 56bd 7191 373d
000002c0: 63ae 393d 0b3c 66bd c626 84bd 4d7a 4cbd
000002d0: 507d 3cbd 7bc1 bfbc 62f4 4e3d 21c0 32bd
000002e0: d786 3bbd 00ca 103d 667a 8fbd 1033 42bd
000002f0: 5d3c 51bd cd73 ab3c 355a 123c bcad cb3b
00000300: decf 48bb d142 133d 257e b9bc f847 c7bc
00000310: ec8d 06bd 50c8 e63b 0b40 b63c 8bc6 5b3d
00000320: 2077 6fbc bf97 53bd 4241 713d e06e f0bc
00000330: 70e5 1d3d 2a55 7e3d f06f cbbb d4b6 4dbd
00000340: 583c 303c c2d9 b1bc 2838 253d 0ed0 66bd
00000350: 3007 203c dcc2 0dbd 5609 aabc 9c68 b53c
00000360: 9e8a 833d 5892 143d 921f b03c 8412 fc3c
00000370: b424 aeb8 309e 4d3c 5578 17bd 7198 fb3c
00000380: 9486 2cbd 97f2 9a3c c054 423d 0904 153c
00000390: 34f6 b8bc 8ac6 acbc 79fb df3c 5472 c43c
000003a0: a64c 643d 468b 10bd 4085 17bd 100a c33b
000003b0: f35a 91bb 213a c03c 1c50 0abd 59c1 103c
000003c0: d476 aa3c 509b 393d 3bb6 683d 50f1 683c
000003d0: 6665 b2bc 689a 77bc 00fa d5bc a25e acbb
000003e0: 0e80 29bc 71b2 c0bc 291b 74bd b25b ab3c
000003f0: 6258 0cbb f4bd 8e3d 3f03 a5bc 8c73 bebc
-0.027024725 -0.021274678 -0.040220253 0.048782833 -0.065119654 -0.006449238 0.016807526 0.043286286
0.054065667 -0.068111174 0.05189327 -0.04199492 -0.020397859 -0.031575188 0.003849104 -0.045865044
-0.017305274 0.032607645 -0.00610388 0.025982097 0.033510055 -0.04077983 0.006444432 -0.00522286
0.012361093 -0.05834114 -0.010962089 0.0348647 -0.01510337 -0.058022577 0.011754077 0.0039427024
0.011108789 -0.030789662 -0.024085164 0.034605402 0.042825535 0.051764052 -0.01701305 0.017861128
-0.005042441 0.046386175 -0.026569149 -0.0641328 0.032268696 0.008742765 -0.058122985 -0.010686196
-0.0034689081 -0.05295452 -0.018958941 0.029519722 -0.015473902 -0.00034849352 0.03795134 -0.0036723383
-0.03411589 -0.009709846 0.048221458 0.005480148 0.043898426 -0.011200866 0.011502132 -0.027543217
-0.030315869 0.02393765 -0.06799832 0.013912741 -0.020081464 0.057186138 -0.00349009 -0.015865508
-0.017241653 -0.057661768 0.0004601344 -0.029409902 0.055630855 -0.051798377 0.04679641 -0.009683403
-0.0454396 0.016514003 0.0170297 -0.052159823 -0.030557683 0.05079343 0.028575264 0.061202317
-0.060940303 -0.033247225 -0.01564616 -0.063932195 -0.002818656 0.03252883 0.02724871 0.040725317
-0.032160204 -0.030225962 -0.026363999 0.0008489381 -0.00984475 0.018663578 0.015600416 0.008448429
-0.029909192 0.0103605185 -0.06852134 0.05160778 -0.06795891 -0.024359703 -0.044308048 -0.03434618
-0.02864398 -0.023690684 -0.0051115225 -0.066596165 0.004733351 -0.043717902 -0.010480784 -0.009603336
-0.008064753 -0.043759495 -0.06802617 -0.011331235 0.051439133 0.05639162 -0.06695533 -0.013674369
-0.025119854 -0.033507265 0.027162543 -0.036814544 0.030339994 0.0326529 -0.048991032 0.057329554
-0.03818705 -0.051800277 0.04511085 -0.015569434 0.028215349 -0.028163774 0.04182496 0.036989193
0.02503092 -0.044161003 0.011033926 -0.024559371 0.006954026 0.04030437 -0.0501237 0.046104394
0.049443223 -0.05966352 -0.015092753 -0.05498383 0.05716347 0.03426101 -0.05976961 -0.035220444
-0.04687257 0.02931196 -0.007991455 0.0061501586 -0.017951474 -0.055914015 -0.03773419 0.021542996
-0.06127683 0.010019025 0.033775646 -0.042269163 0.019392934 0.031124152 -0.052349385 0.044816438
0.045332324 -0.056209605 -0.06452708 -0.049921323 -0.046017945 -0.023407688 0.05052603 -0.04364026
-0.04578289 0.035348892 -0.070057675 -0.04741198 -0.051082958 0.020929242 0.00893264 0.006215779
-0.0030641477 0.035952393 -0.022643158 -0.02432631 -0.03285019 0.007042922 0.022247335 0.053656142
-0.014615804 -0.05165839 0.058900125 -0.029349744 0.038548887 0.062092938 -0.0062084123 -0.050223187
0.010756575 -0.02171028 0.040336758 -0.05635076 0.009767339 -0.03460966 -0.020756405 0.022144608
0.064229235 0.036272377 0.021499429 0.030770548 -8.303803e-05 0.012549922 -0.036979992 0.030712338
-0.04212053 0.018914504 0.047444105 0.0090952 -0.022578336 -0.021090765 0.027341591 0.023980297
0.05573716 -0.03528907 -0.03699231 0.0059521273 -0.004435891 0.023465218 -0.033767805 0.00883516
0.020808615 0.045314133 0.056814414 0.01421769 -0.021776866 -0.015112497 -0.026120186 -0.0052603045
-0.010345472 -0.023522587 -0.059596214 0.020917747 -0.0021414985 0.069698244 -0.02014315 -0.023248456

net.2.bias f4 [256]
00000000: 31e9 4f3d ba4d 1e3e 568b d73d c334 813d
00000010: c02c 74bd c80e e73c 1a06 cf3c 92d4 c9bc
00000020: 8361 10bd 7773 16bc 6401 99bc 6d63 51bd
00000030: 6e2f 76ba 3941 f33c f020 04bd c334 1fbd
00000040: 4a02 123e 31a0 603d 2cb8 cdbc 8f95 1d3e
00000050: 44db 17bc 3fb3 80bb f48f be3d 3ac0 5c3d
00000060: 8dce 033e bff5 513d 48cf 59bc be18 fd3d
00000070: 88e6 e03b 3e31 8f3d 2f48 e23d e08b 69bc
00000080: 1970 46bc 16ea 243e d17a 5fbd aca8 263d
00000090: d409 85bd c116 47bd a050 e53d f856 d13d
000000a0: 7c5e 633d 3eb5 41bd 002e 4c3d 7c00 cb3d
000000b0: 503b 9d3d 6f28 de3d 76ef 063d ae36 563d
000000c0: 5b3d d73d 3a32 8c3d 1c2a 903c c6c1 0d3d
000000d0: 90cd 943d 8c95 e23c 0f59 4ebc 1c44 e23d
000000e0: ec94 443d c577 a4bb 2d5e 3e3c ec6c 46bd
000000f0: 85a5 d73d 9ba1 86bc 09c5 173e 4f36 22bd
00000100: c1e2 fc3d 0762 153d 154f b83c c596 8aba
00000110: 9718 74bd 1206 cd3d fd67 53bd 62e4 d53d
00000120: 8641 2abc e808 13bd 7481 7ebd 88fe 183d
00000130: f9bb 1d3d c4a0 ffbc 227d 5d3c 5635 113e
00000140: 1af1 d63d 060d 163c d703 00bd 67d0 b83d
00000150: 52aa 3c3a fcc5 bdbc 7a78 5d3d a4ed e13b
00000160: e03a ffbc f45f 8f3d d86a 2a3c 4735 f73d
00000170: 3f23 fa3c 8b4f c4bc a473 823c a797 40bd
00000180: f015 b13d 6c33 b3bb 7cc7 b13d cedc 193d
00000190: d025 813d 3ceb 223e 27c2 123e b857 b8bb
000001a0: a0f3 613d 9047 d13b be63 fd3d 5e6e b13d
000001b0: 0077 fb3d 2bdd c03b 81c8 2d3d 61a4 a83c
000001c0: 56d2 643d e76d 883d 89b1 fb3c 5bb6 833d
000001d0: de43 5b3d 75ea 263e c632 1eba 845c 10bd
000001e0: 001a a33d 6d3e 1ebd 2627 7b3d 18d3 173d
000001f0: e035 e93c 8ce3 5a3d e8d5 8cbd 6580 24bd
00000200: a759 0fbd 28cc 13bd d968 72bc c8db c8bc
00000210: ad45 2bbd 1036 fb3d b2ea 8bbc 79d2 5a3d
00000220: c1e3 333d a712 113d 3ce9 cc3d cddf 013e
00000230: b94d f73c 5580 88bd e72f cbbc 49b5 8fbd
00000240: c633 f53d 19e1 25bd 4310 80bd b0f1 193d
00000250: 6e85 b13d 31a6 0c3e d4b4 ae3d 887d e93d
00000260: cac6 213d 3bf9 873d 64dd 8fbb 2814 6a3d
00000270: 3e01 afbc fc0e efbc 9624 1bbd b7ed e03d
00000280: 94e2 b73d 2869 983c 199c 68bd feab ce3d
00000290: b91c 0b3e cf7b 5f3d c66a 03bd 7230 293e
000002a0: 4e2a ee3b dd1e 24bc 5de5 383c 8837 98bc
000002b0: 2cd3 203d cb74 40bc 5449 c03d 5613 85bc
000002c0: 6767 723d 46da ed3c cc32 2b3d a8b2 70bc
000002d0: 2869 bb3c a593 1d3e d99a 4bbd 421f 673c
000002e0: 64f6 1c3e 453c a6bc ea60 d13c 673a 243e
000002f0: 1408 903d 237c e93d ec54 b8bc 9c89 a03c
00000300: 74b4 2abc 61ba 77bd 2b1f 0e3d 9a35 72bd
00000310: d6a3 da3d b844 1bbd 2080 e53c ef42 cc3c
00000320: 3add a13c 458a 30bd 5f25 78bd 1fe6 033e
00000330: fef4 9b3b b876 d23d d0ff 373d 7e75 6c3d
00000340: 6d00 66bd dd57 05bd a54e 5cbd 91c9 87bd
00000350: 0258 113e d93e 4cbd 6abb 033e 755d 93bd
00000360: 18d0 543c 35eb 863b 1c95 093d 1026 253e
00000370: 44db fabc dbe5 e73c e121 86bb 8901 603c
00000380: 45d2 be3b cb47 f03d 2517 423d de43 523d
00000390: 4ec8 9d3c 4fd9 a83d 8ec7 183e 4c3b 30bc
000003a0: 2eeb a53d 8e8f 163e d6ba 393d 3815 a33c
000003b0: ccc5 b43d ac03 0b3d 00e8 05bd accb 33bd
000003c0: 787d 19bd 005d 61bd 3565 e83d 1744 82bd
000003d0: a2e5 743c abdf e53d da90 91bd 8921 b73d
000003e0: 0456 0c3d 70e6 b6bc 4f59 d83c 1bcf 223e
000003f0: f66d e93d e634 393d 96d3 97bd 9caa e73c
0.050759498 0.15459338 0.10524623 0.063088916 -0.05961299 0.02820529 0.025271464 -0.024637494
-0.035249244 -0.009182802 -0.01867742 -0.05112021 -0.0009391223 0.029694187 -0.032257974 -0.038868677
0.14258686 0.05484027 -0.025112234 0.15389083 -0.009268586 -0.003927618 0.09304801 0.05389426
0.12871762 0.051259752 -0.013294049 0.12358235 0.006863419 0.06991814 0.11048924 -0.01425454
-0.012111687 0.16104922 -0.054560486 0.0406882 -0.06496015 -0.048605684 0.111970186 0.10221666
0.05551003 -0.047291987 0.049848557 0.09912202 0.076773286 0.10847556 0.03294321 0.05229824
0.105097495 0.068455175 0.017598204 0.034608625 0.072657704 0.0276592 -0.012594475 0.11048147
0.047993585 -0.0050191605 0.011619133 -0.04844372 0.10529617 -0.016434481 0.14821257 -0.039602574
0.123479374 0.03647044 0.022498647 -0.0010573497 -0.059593763 0.100109234 -0.051612843 0.10443951
-0.010391599 -0.035897166 -0.062135175 0.037352115 0.038509343 -0.031204589 0.0135186035 0.14180502
0.10495205 0.0091583785 -0.031253662 0.090241246 0.00071970106 -0.023165695 0.054069974 0.006894784
-0.031156003 0.070007235 0.01040145 0.12070709 0.030534385 -0.02396371 0.015924282 -0.047019627
0.08646762 -0.0054687764 0.08680627 0.03756409 0.0630604 0.15910047 0.14331876 -0.0056256913
0.05516398 0.0063867047 0.1237254 0.08663629 0.12278557 0.0058857403 0.042427544 0.020586194
0.055864654 0.06661587 0.030724304 0.06431266 0.05353152 0.16300376 -0.00060347875 -0.03524448
0.079639435 -0.038633753 0.06131663 0.03706655 0.028468072 0.05343966 -0.06876737 -0.04016151
-0.03499761 -0.03608337 -0.014795505 -0.024518862 -0.041814495 0.12266171 -0.017079685 0.05342338
0.043918375 0.03541818 0.100054234 0.1268303 0.030188428 -0.066651024 -0.024803115 -0.07016999
0.119727656 -0.040497873 -0.06253102 0.037584007 0.08668028 0.13735272 0.08530584 0.11400896
0.03949622 0.06639334 -0.0043904055 0.05714813 -0.021362897 -0.02918195 -0.037876688 0.109828405
0.08978763 0.01860483 -0.05678949 0.10091399 0.13585176 0.054561432 -0.03208425 0.16522387
0.0072682267 -0.010017124 0.011285153 -0.018581167 0.03926389 -0.011746596 0.09388986 -0.016244572
0.059180643 0.029034745 0.04179649 -0.0146910325 0.02287729 0.15388353 -0.04970822 0.014106574
0.15328366 -0.02029241 0.025558908 0.16037904 0.07032791 0.1140063 -0.022501431 0.019596867
-0.010419 -0.06048048 0.034697693 -0.05913315 0.106757805 -0.037907332 0.028015196 0.02493426
0.01975881 -0.043100614 -0.060582515 0.12880753 0.00475943 0.1027655 0.044921696 0.057729237
-0.05615275 -0.032554496 -0.05378594 -0.066302426 0.14193729 -0.049864624 0.12864462 -0.0719556
0.012989067 0.0041173943 0.033589467 0.16127801 -0.030622132 0.028307846 -0.004093394 0.013672241
0.005823406 0.117324434 0.047385354 0.051334254 0.019260552 0.08244573 0.14919874 -0.010756325
0.081014976 0.147032 0.045344196 0.019907579 0.08826789 0.03393905 -0.032691956 -0.04389541
-0.037473172 -0.055020332 0.11347429 -0.06360643 0.014947327 0.11224302 -0.07107706 0.08941943
0.03426172 -0.022326678 0.026409773 0.15899317 0.113979265 0.045216464 -0.07413404 0.028279595

net.4.weight f4 [3, 256]
00000000: d311 d23c 2608 613e eaa8 fd3d 7535 273e
00000010: 9a5b 3fbd 3116 44bd 0bde 0bbd 3b4d d8bc
00000020: 79f2 153d b361 acbc 2cec 6fbd 0742 03bd
00000030: f61a b03a f405 4dbd 12fa ae3b dcc0 e3bb
00000040: fcd0 4f3e 84b2 11bd c43f 93bc 928c 4e3e
00000050: 0247 b33c e0e0 203d 2f2e 4d3e 05a8 5bbf
00000060: 0bee 903e 2c99 76bb 702c 6d3c c020 bf3d
00000070: af21 1ebd 7d55 de3d be66 a13e 5063 1fbd
00000080: b3d8 b23c 106a 303e 23ae 1bbd 571e 8c3d
00000090: 2e11 61bd 1900 11bd 17e1 083e 4e59 4e3e
000000a0: 3e89 4c3e c0b3 aeba 009a eeba 03ba 063e
000000b0: d738 183e adbf 2e3e 9022 873b b607 34bd
000000c0: 93e8 173d be01 493e c027 f43c d8c0 bd3c
000000d0: 263b 953d 4705 16bd 3e61 76bd 7eb7 753e
000000e0: 5029 65bd 6031 3a3b 8872 163c 6c7e 453d
000000f0: d146 643e df52 313c afb5 333e c4c7 2cbc
00000100: 0499 693e 82ad b13c e7d5 3bbd 3201 bb3c
00000110: 4af2 3fba 14e5 e63d 996c 293d bad5 123e
00000120: b177 debe ca25 0a3d 00b8 da3a 48ec 203e
00000130: 83e4 b23d 58dc e8bc b483 23bd 4239 4c3e
00000140: 21a5 50bf e98e 793d e6d4 123d db0c 683e
00000150: 5c9e 92bc 2aef 05bd 5495 5d3d 8e30 67bd
00000160: d03b 3b3c 47cc 573e cf01 bd3d 9ed3 0a3e
00000170: e92d d0bc 0fa8 e5bc 725c 6cbd 1868 5dbc
00000180: d898 2d3e 4e51 9cbc 12d3 db3d de82 4b3e
00000190: 0cfb ad3d ab5e 523e 3332 083e 8151 b9bc
000001a0: a0df d03d c2b9 683d 626a 3d3e ef34 5a3e
000001b0: 9fed 843e 0a9c 303d 095d ca3c 2041 1dbd
000001c0: 3f6e f03d 3085 573e d8ce 3dbc 1553 773e
000001d0: 15b3 1b3e ed8c 413e c0cd 0dbd be8d cfbc
000001e0: 62d1 313e f138 ba3c c478 d2bc 34a1 8fbe
000001f0: 41fc 32bd e2c2 51bc f2ad a93c e146 ae3c
00000200: 60ca 89bc c60e f2ba ab3f 113d cdf0 4dbd
00000210: f25f 29bd 6fa3 483e 10ba c8bc fd1c 5d3e
00000220: 0e32 fd3b 98c7 3ebd ff26 2a3e 9b1d 603e
00000230: bb46 1bbc 7499 44bd 11b2 1fbd f2f8 69bd
00000240: 0dde 863e 6381 e73b 8ea0 c9bc 64b4 273e
00000250: 962b 523e 8b41 463e 20d0 5b3e 4f7e 413e
00000260: fc21 43bd 09ba 763e ef88 32bc ea14 5f3d
00000270: cd73 143d b074 f73b 16f6 7bbe dfcd 173e
00000280: 43d9 1f3e eaea 4e3d 0bfb dabb 19e2 503e
00000290: bbb5 673e 710e 6f3e 706d 62bd 76c2 373e
000002a0: c133 283c fcfd b239 87e2 4fbd 3438 f6bc
000002b0: 20ad 7b3e a96c 30bd 7a6b 2ebe af78 a8ba
000002c0: fed8 413e 61a1 9a3d 9db4 3dbd d06a 17bd
000002d0: d8cd 17bc d590 3f3e 98dc 51bd ac92 2bbb
000002e0: 633a 323e cc65 9e3c 3c2d 0cbc 8c78 703e
000002f0: c72e f73d d687 523e 1405 1a3c e844 33bd
00000300: d1d8 d4bc bb2f 43bd 09aa f43d 4095 653d
00000310: 7e61 153e 7e0b f0bc 3b15 cdbc 06a9 c9bc
00000320: d340 fc3d 0ba4 1e3d d115 4abd 49eb 4f3e
00000330: 88a1 11bd e4f9 8e3e b6e6 7d3e 324a 883e
00000340: 31db d73c 6819 693d 81db 8dbc 2432 923b
00000350: f3c6 313e c561 4a3d 5d4e 903d aaf7 3b3d
00000360: 1429 44bd a01b 0fbd 3657 57bb 699c 543e
00000370: 9848 6b3d 1d6f f1bb 42ef 8abc 0a60 36bc
00000380: e6ea 44bd 8d3e 403e ee18 f1bb ae78 66bd
00000390: f265 24bd 370b 4b3e 5490 3d3e aa04 243d
000003a0: ed13 503e 34de 403e 00b7 143c ee72 203d
000003b0: fd1d 3f3e ca43 b3bb aa64 7e3c d14a 233c
000003c0: aba9 55bd 7f94 58bd 918f 553e a727 0dbd
000003d0: 81f1 23bd 9959 4c3e 3cb6 41bd 3bba 143e
000003e0: ab17 4f3e dacb 213d 0660 b53b 4916 533e
000003f0: 6f64 5e3e 8450 23bd 8dec 9a3c 8e3c 29bd
0.025643265 0.21975765 0.123857334 0.16328986 -0.046718217 -0.047872726 -0.034147304 -0.026404014
0.036608193 -0.02104268 -0.05857484 -0.03204539 0.0013435769 -0.050054505 0.0053398693 -0.006950481
0.20294565 -0.035570636 -0.017974742 0.20170811 0.021884445 0.039276958 0.20037149 -0.8580325
0.28306612 -0.0037627919 0.014475927 0.093324184 -0.038606342 0.10856149 0.315237 -0.03891307
0.021831846 0.1722796 -0.038007867 0.06841724 -0.054948024 -0.035400484 0.13367115 0.20151255
0.19974229 -0.0013328716 -0.0018203855 0.13156895 0.14865433 0.17065306 0.004123993 -0.043952666
0.037087034 0.19629571 0.02980411 0.023163244 0.07286672 -0.036626127 -0.06015133 0.23995778
-0.0559476 0.0028410777 0.00918258 0.04821627 0.2229264 0.010822981 0.17549776 -0.010545675
0.22812277 0.02168918 -0.04585829 0.022827718 -0.00073221757 0.11274162 0.041363332 0.14339343
-0.43450692 0.033727445 0.0016686916 0.15715134 0.087349914 -0.02842538 -0.039920524 0.19943717
-0.81501967 0.060927305 0.035847567 0.22661154 -0.017897777 -0.032698788 0.05409749 -0.05644279
0.011427835 0.2107402 0.092288606 0.13557288 -0.025412517 -0.028034238 -0.05770535 -0.013513587
0.16952837 -0.019081738 0.10733618 0.1987414 0.08495149 0.20543925 0.133004 -0.022621872
0.10198903 0.056817777 0.18497613 0.21309255 0.2596254 0.04311756 0.024702566 -0.038392186
0.11739778 0.21046901 -0.01158496 0.24152787 0.15205033 0.18901415 -0.034620047 -0.025336143
0.1736503 0.02273223 -0.025692351 -0.28052676 -0.0436976 -0.012802811 0.020712826 0.021274032
-0.016820133 -0.0018467538 0.03546111 -0.050278474 -0.041351266 0.19593595 -0.024502784 0.2159309
0.0077269142 -0.046577066 0.16616438 0.21886294 -0.009477313 -0.047997907 -0.038988177 -0.05712218
0.26341286 0.0070649846 -0.024612691 0.16377407 0.20524439 0.1936094 0.21466112 0.18895839
-0.047639832 0.24094404 -0.010896905 0.054463305 0.03624325 0.007551752 -0.24605593 0.14824627
0.15610223 0.050517 -0.0066827587 0.2039875 0.22627918 0.23345353 -0.05528015 0.17945275
0.010266245 0.0003414004 -0.050753143 -0.030056097 0.2457776 -0.043072376 -0.17033187 -0.0012853349
0.18930432 0.07550312 -0.046314824 -0.0369671 -0.009265386 0.18707593 -0.051235765 -0.0026179953
0.17405085 0.01933565 -0.008555707 0.23483485 0.12069469 0.2055963 0.009400625 -0.043766886
-0.025982292 -0.04765294 0.11946494 0.05605054 0.14587972 -0.029302355 -0.025034538 -0.02461673
0.12317052 0.038730662 -0.049337212 0.20304598 -0.03555444 0.27925026 0.2479504 0.26619107
0.026349636 0.056908995 -0.017316582 0.0044615436 0.1736105 0.049409647 0.070461966 0.045890488
-0.047890738 -0.034938455 -0.0032858378 0.2076279 0.057442278 -0.007367982 -0.01695979 -0.011131296
-0.04807558 0.18773861 -0.007357708 -0.056267433 -0.040136285 0.19828497 0.18512088 0.04004351
0.20320101 0.18834764 0.009076834 0.039172105 0.18663783 -0.0054707276 0.01552693 0.009966568
-0.05216376 -0.052875992 0.20855547 -0.034461644 -0.040025238 0.19956054 -0.047292933 0.14524166
0.20223872 0.03950105 0.0055351285 0.2061397 0.21718 -0.039871708 0.018911624 -0.041317515

net.4.bias f4 [3]
00000000: b6f8 083e aac6 3d3d 6763 fa3c
0.13376126 0.04633204 0.030564977
