iteration(models)/dqn_highway_nolanechangingreward.pt (torch, 342085 bytes, 6 tensors)

net.0.weight f4 [256, 70]
000000 16 fb 1c 3c fc 92 4e bd 21 0c 7f bd 26 cd af bd
       0.009581348 -0.050433144 -0.062267426 -0.08584051
000010 25 f3 9d 3c 5e 71 df 3d 2a 13 bb 3c f8 b3 e4 bc
       0.01928098 0.10910295 0.022836287 -0.027917847
000020 42 27 ce 3c 02 f3 a8 3d f9 50 a4 bc f1 3f 9d 3c
       0.025165204 0.08249475 -0.020058142 0.019195529
000030 4c bc b6 3d 77 0b 2b bd 15 70 1e 3d d1 5b a9 3a
       0.089226335 -0.04175898 0.03868111 0.001292104
000040 55 fe fc 3c bb 63 d4 3c e8 06 dc bc 19 21 6e bd
       0.030882994 0.025926461 -0.026858762 -0.058137033
000050 98 a4 24 3c 38 f9 4f bd 07 08 00 be ec 63 b3 bd
       0.010049008 -0.050774783 -0.12503062 -0.08759293
000060 84 ed ce bc 77 c0 e7 3d 4e 50 99 3d b6 5e e6 3b
       -0.02525974 0.11316007 0.0748602 0.0070303334
000070 b7 b2 e5 bd 59 66 9d bd b8 69 cc bd 79 dc e5 3d
       -0.11215728 -0.07685537 -0.09981102 0.112236924
000080 87 cd 82 bc 50 ea c3 3d c8 47 83 3d af ed f7 bd
       -0.015967144 0.09566176 0.064101756 -0.121058814
000090 e8 fa 12 3d b0 5a f5 bc b9 38 90 bb 31 45 c8 bd
       0.035883814 -0.02995047 -0.004401293 -0.09778822
0000a0 92 b3 9b 3d a9 ea 10 bd e2 59 df 3c 43 59 e7 bd
       0.0760261 -0.03538004 0.02726454 -0.11296322
0000b0 93 df ec bd 93 25 81 bc 77 5e 74 3c 77 e2 b7 bd
       -0.11566081 -0.015764987 0.0149151 -0.089787416
0000c0 7b a8 55 3d 63 df b8 bc d2 74 92 bd ee ac b6 3b
       0.05216263 -0.022567457 -0.07151188 0.005574814
0000d0 65 0f 39 bd 9b 13 d2 bb 97 47 97 3a 0d 47 c1 3d
       -0.045180697 -0.0064110286 0.0011541721 0.0943738
0000e0 c7 74 2a 3c b8 f6 06 bd 03 15 c5 bd da 6f 39 3d
       0.010403818 -0.032950133 -0.09623148 0.045272686
0000f0 7a c1 f9 3c 98 29 ac bc 86 f4 c3 bd a7 32 b3 3d
       0.030487765 -0.021015927 -0.095681235 0.087498955
000100 a4 57 27 bd e4 75 d0 bc 3e d3 9b bd b3 2b 74 bc
       -0.040855065 -0.02544684 -0.076086506 -0.014902997
000110 2d af fb 3b 79 bc 7a 3d ef 1e 33 bd 6a 03 3c bc
       0.0076807947 0.061214898 -0.043730672 -0.011475423
000120 d0 32 91 bc 9c 40 45 bd 24 2d b0 be ec 60 ec 3d
       -0.017724425 -0.04815732 -0.3440944 0.11541924
000130 50 7f 8e be 7b 45 22 bd 28 70 3a 3e b0 9d 10 bf
       -0.27831507 -0.039617043 0.18206847 -0.5649061
000140 48 13 11 be 54 43 73 3e 4c 8b a9 3d 8c d0 c0 ba
       -0.14167511 0.23756152 0.08278522 -0.0014710589
000150 cb b7 89 bd ff 55 ef 3d 85 34 a5 3e d6 7e e7 bc
       -0.06724509 0.11686324 0.32266632 -0.028258722
000160 16 9c fc 3e e9 46 e0 bd d7 9a 1b 3f 56 54 bd bd
       0.49337834 -0.10951025 0.6078314 -0.092446014
000170 cd 10 c4 3d 5a 4d 20 3e 90 28 07 3d d4 4d 9f 3e
       0.09573517 0.15654507 0.032997668 0.31114066
000180 05 9c a9 3d c1 53 df 3e 9a 5c b4 bd b5 bd a2 3d
       0.082817115 0.43618587 -0.08806725 0.0794634
000190 85 0d bf bd c8 c4 17 3e 83 f3 02 3f 73 d5 57 3b
       -0.093287505 0.1482116 0.5115282 0.0032933622
0001a0 19 b0 a1 3e 93 e1 de 3d 98 b7 c2 3c 64 37 88 3d
       0.31579664 0.108828686 0.023769185 0.0665119
0001b0 ea b7 c7 3c 32 7c b2 3e 75 09 a8 bc d5 a6 f0 3e
       0.02437969 0.34860379 -0.020512322 0.47002283
0001c0 16 51 1c 3c 04 ab 5a bd 0d e9 c2 3d dd 03 fe 3c
       0.009540817 -0.05338575 0.09517107 0.031007702
0001d0 c5 4b b5 3e f4 de a5 3d 1f 76 2f 3e 76 62 8a 3b
       0.3540937 0.080991656 0.17134903 0.0042231632
0001e0 af 51 bf 3a 3f b0 98 bd 0a 24 13 3e 40 32 bd 3e
       0.0014596487 -0.07455491 0.14369217 0.369524
0001f0 e9 ec 51 bc 86 1a 26 3e e7 8e 31 3c 0d 82 33 3d
       -0.012812831 0.16221055 0.010837293 0.043825198
000200 2c 44 64 3d 76 96 4c 3e 18 c6 e1 3e 35 15 c9 3c
       0.055729076 0.19979271 0.44096446 0.024546245
000210 c3 93 22 bd 78 b9 06 3c 38 80 9a bd ca 0b 7a be
       -0.039691698 0.00822293 -0.07543987 -0.2441856
000220 b9 a2 09 3d b3 6b 8c 3e ad 7e 9d 3d 78 50 05 bd
       0.03360245 0.27425918 0.07690177 -0.032547444
000230 6a 58 fd bc d1 51 58 bc a1 46 97 3e e1 5f b6 bd
       -0.030925948 -0.0132031 0.29546073 -0.08905006
000240 98 7d 21 be 9b 27 98 3c 5f 08 48 be 48 ad 95 3d
       -0.15770566 0.018573573 -0.19534443 0.073084414
000250 90 7b 01 3f f3 02 83 3f 40 b7 0a bd 21 fd a8 3e
       0.50579166 1.0235275 -0.033866167 0.33005622
000260 f8 63 cd 3a fe 54 63 3f 56 33 d5 bb b1 27 f2 3a
       0.0015670052 0.8880156 -0.006506364 0.0018474964
000270 e2 fe 08 3e 84 3c 7a bd e9 f7 6a 3d 1d 72 b0 3b
       0.1337848 -0.06109287 0.05736533 0.005384697
000280 13 7b 21 3d 8e c8 f6 bd 94 0b 90 39 ad 5c a3 3d
       0.039424013 -0.120499715 0.00027474447 0.07976661
000290 e1 10 2f 3d c2 ee 52 3c d4 c9 95 3d 6e 23 9a 3d
       0.042740706 0.012874307 0.07313886 0.07526289
0002a0 8f 95 b7 bd 3b d7 88 3d f4 a3 91 3b 63 f0 18 3e
       -0.08964073 0.06681677 0.0044445936 0.1493545
0002b0 c4 87 00 3e 9e 2b db bd 83 0c f5 bd 01 06 a7 3d
       0.1255179 -0.10701679 -0.11965277 0.08155442
0002c0 9f 6e b3 3c dc 94 f2 3c 11 9b f4 bc a4 34 40 3d
       0.021903334 0.029611997 -0.029859098 0.046925202
0002d0 40 b0 47 3c e4 73 8c 3e 9a 31 30 3d 1c 01 37 3d
       0.012188017 0.27432168 0.043016054 0.044678792
0002e0 83 86 44 bc 75 8e d2 3d 87 aa 03 3e 70 46 79 3d
       -0.011994961 0.10281078 0.1285802 0.06085819
0002f0 9b 04 20 be 6e b7 c4 3d 71 42 f7 bb 27 4b 1a bc
       -0.15626757 0.09605299 -0.007545762 -0.009417332
000300 a9 c4 0d 3e 9a d1 35 3e 35 48 fd bd 88 36 b5 3c
       0.13844551 0.17755738 -0.12367288 0.02212073
000310 c5 c8 b9 ba 5e dc 70 bd 91 3d ce bb 3f 14 3a 3e
       -0.0014174214 -0.05880391 -0.0062939604 0.18171786
000320 27 d4 06 3e 09 8b af bc 50 06 af bd a1 6a fe 3c
       0.13166867 -0.021428602 -0.08546126 0.031056704
000330 87 8c 99 3d 28 e6 34 3d 94 7f e2 3d f8 bf 2c bd
       0.074975066 0.044164807 0.1105949 -0.042175263
000340 6c c7 fa bd 5e 2b 0a bd 17 9f b9 bd 45 a7 dc bd
       -0.12245068 -0.033732764 -0.09063547 -0.10774092
000350 39 65 8e bd 10 a8 0a 3d b8 08 5a 3e 8e fe 0e 3d
       -0.069529004 0.033851683 0.21292388 0.03491073
000360 ca 4c bf 3c af 9e b5 bd 66 f8 06 bf 0f 20 96 bd
       0.023352046 -0.08868157 -0.52722776 -0.073303334
000370 35 8b 40 be e9 cc a2 bd ef 78 d8 bd a3 7a b8 3d
       -0.18803103 -0.0794924 -0.10569941 0.09007766
000380 bd ff a3 bd 0f e0 17 3e 91 d9 01 bf 22 89 e7 3d
       -0.080077626 0.14831565 -0.50722605 0.11305453
000390 78 98 f0 bd 12 d6 c5 3d 1f d2 c4 be 6f 5a b5 3d
       -0.11747831 0.09659971 -0.3844156 0.088551395
0003a0 60 04 e0 bc f9 43 6d be 2f 84 fc 3d 57 bf f9 bd
       -0.027345836 -0.23170461 0.123298995 -0.12194698
0003b0 16 f8 36 3d 31 f8 3d 3d c7 05 ef 3d 26 e7 0d 3e
       0.044670187 0.046379272 0.11671024 0.13857707
0003c0 0e 67 82 be 14 74 3e 3d 1c 7f 4f be d4 64 e7 3c
       -0.2546925 0.04649742 -0.20263332 0.02824632
0003d0 f0 eb d0 3d d8 65 3e bd 5f 79 2e 3d 64 d6 9a bd
       0.102012515 -0.046483845 0.042596217 -0.07560423
0003e0 26 d4 8b 3d 6b 1a b9 bd b2 32 a2 bd a1 fd ae 3c
       0.068275735 -0.09038242 -0.079198256 0.021361174
0003f0 ed ea 91 bd 55 1f 47 3d ee 74 34 bc 88 a1 e0 3d
       -0.07124887 0.048613865 -0.011014206 0.1096831

net.0.bias f4 [256]
000000 d0 dd 62 3c 59 bc 31 bd f4 7f 8c bd 66 bf f8 3d
       0.0138468295 -0.043392513 -0.068603426 0.12145881
000010 22 7a 1d ba 1d c3 89 bc d3 49 dd bc 39 3a 06 3e
       -0.0006007274 -0.01681667 -0.027012741 0.13108148
000020 e6 29 18 bd af 37 b4 bd d5 49 0e 3d 74 f4 b3 bc
       -0.037149332 -0.08799683 0.03473838 -0.02196715
000030 f0 33 b5 bb ab 28 0f bd 9d 3f b5 bd c7 0d 9c bd
       -0.005529873 -0.034950893 -0.08850024 -0.07619815
000040 37 be db 3d a5 3e ac 3b 8d cc 81 3c 90 5c 2a bd
       0.1072964 0.0052564912 0.015844608 -0.04159218
000050 c7 ba cd 3d 74 bc a6 3d 62 cd 8d bd 98 fd c9 bd
       0.100453906 0.08141413 -0.06923939 -0.09862822
000060 18 2f ed 3d 11 67 d3 bd da 3e 90 3d 32 95 83 3b
       0.11581248 -0.10322393 0.07043238 0.004015588
000070 59 47 f8 bd d2 39 01 3e e8 4e c7 3c 90 37 9a 3d
       -0.121229835 0.12619713 0.024329618 0.07530129
000080 15 d5 26 bc e9 01 bd bd f8 f5 95 3d 3e bd 0f 3d
       -0.010182639 -0.0922888 0.073223054 0.035092585
000090 a4 73 81 bd e7 f2 21 3d ff 0b ba 3d a1 b5 b7 3c
       -0.06320885 0.03953829 0.09084319 0.022425475
0000a0 18 7b cc bc bc be b5 bd ee e2 c9 bc 59 46 69 bd
       -0.02496104 -0.0887427 -0.024644341 -0.056951854
0000b0 91 0d 01 3e 4f 54 be bd e5 27 16 be 4a d0 81 3d
       0.12602831 -0.09293424 -0.14663656 0.06338556
0000c0 ec b0 d2 bd 54 8f b0 bd e5 31 f9 bd cc 07 2f 3d
       -0.102876514 -0.08621088 -0.1216772 0.042732045
0000d0 d4 90 02 bd 6f d0 af 3c 13 f6 31 3e a3 3a 2f bd
       -0.0318764 0.021461694 0.17379026 -0.04278053
0000e0 b6 42 63 bb ae 08 bc bd 6b 0e a2 3d b7 2e f7 bd
       -0.0034677214 -0.09181343 0.07912906 -0.12069457
0000f0 a2 16 aa bd 9f e1 1b bd 15 86 a0 3d ef 89 82 3c
       -0.08305098 -0.038056966 0.07838074 0.015934912
000100 e3 4c 89 bd 32 10 ed 3d 20 22 d5 bd d3 87 c8 bd
       -0.06704118 0.11575355 -0.104068995 -0.097915314
000110 a7 53 05 bc aa 47 f9 3d f4 ac 9c bd 90 aa 3f bd
       -0.00813762 0.12171872 -0.07650176 -0.04679352
000120 c5 64 1d 3c 69 40 c4 3d b0 04 7e bd 52 8a 30 3e
       0.009606545 0.09582598 -0.06201619 0.17240265
000130 75 2e 85 bd 36 30 03 3e b8 d9 b4 3c c1 65 d7 bb
       -0.065030016 0.1281136 0.022076473 -0.0065734093
000140 69 80 0c 3d a0 09 17 3e f7 73 d6 bd 6b 56 93 bd
       0.03430215 0.14749765 -0.10471337 -0.07194217
000150 d1 e3 37 3e 59 a1 e5 bd 6f 4d 92 3d c0 38 5f 3d
       0.17957999 -0.11212415 0.071436755 0.05449748
000160 da 06 18 3e 04 1c c8 3b 11 90 70 3d bf 3a e8 3d
       0.14846364 0.0061068553 0.058731142 0.1133933
000170 3b 4e 64 3d 4b da 77 3d 3f c2 fc bc 72 42 23 3d
       0.05573867 0.060510915 -0.030854343 0.03985829
000180 df cf 26 3e 1e 22 c8 3d 85 a9 ff bd e1 3e 0e 3d
       0.16290234 0.09772132 -0.12483505 0.034727935
000190 12 d5 ca bd ea 70 4b bd b4 ad 0a 3d 33 0c df 3d
       -0.09903921 -0.04966823 0.033857062 0.10890999
0001a0 67 91 85 bd 31 47 ff bd fa f1 02 be 89 fe dd bc
       -0.06521874 -0.124647506 -0.12787619 -0.02709891
0001b0 27 00 23 3e fe e5 5a 3d 5a 0b 21 3e 4b c8 c9 bc
       0.15918027 0.053441994 0.15726987 -0.02463164
0001c0 66 3f 8f bd c9 30 8c bd d4 4f dd bd cb 9a 36 ba
       -0.06994514 -0.068452425 -0.10806242 -0.0006965815
0001d0 bd 6f 48 bd 71 22 c2 bc c3 b8 e9 3a 18 5c 86 bd
       -0.048934687 -0.023698064 0.0017831553 -0.06560534
0001e0 90 1a 5d bd eb 98 85 3d 6e 54 0c 3e 02 31 d9 bd
       -0.05398041 0.065233074 0.13704082 -0.106050506
0001f0 68 f3 6d 3d 63 57 fe 3b e0 7a 37 3d 80 e4 62 3c
       0.05809346 0.007761882 0.044794917 0.013848424
000200 2c 94 07 bb 32 ce 37 bd 74 83 45 bc db 5d 1b 3b
       -0.0020687683 -0.044874378 -0.012055267 0.0023707065
000210 c0 fe 4e bd cb 1c 0c 3e 7a 3c 91 3d f3 00 93 3d
       -0.050535917 0.13682859 0.07091613 0.071779154
000220 da b2 a1 bc 02 72 88 3d a6 8d c6 bc 26 24 38 3d
       -0.019738603 0.0666237 -0.024237465 0.04495635
000230 c6 51 2a bd 4a cd a7 bc 0e e0 4e 3b a6 4f c8 bd
       -0.04158189 -0.020483632 0.0031566652 -0.09780817
000240 f0 ac 29 3c 3d df 3e 3d 3a 5c 01 3e 2c 98 c4 3d
       0.010356173 0.046599615 0.12632838 0.09599337
000250 dd 8a 02 3e 15 ea 4b bd e1 97 74 bd 99 5e 4f 3d
       0.12748285 -0.049783785 -0.059715156 0.050627325
000260 de 52 ce bd 53 e7 02 3d ba 6e 1c bd 42 fd aa 3d
       -0.100743994 0.03195889 -0.038191535 0.08349086
000270 fd f9 3d 3d ff 56 44 3d 1c c7 e6 3c 6f d6 98 3c
       0.046380986 0.04793453 0.028171115 0.018656937
000280 37 7b 47 3d b5 d7 c3 bb 52 f5 f1 3d a3 f2 bc bd
       0.04870149 -0.005976642 0.11814369 -0.09225967
000290 08 f5 f9 3d 6a 96 17 3e 39 5f d1 3c db d7 3f bd
       0.12204939 0.14803472 0.025558101 -0.046836715
0002a0 f3 37 85 3c 58 27 f9 3d 2e ff 41 3d 80 9a 6d 3d
       0.01626203 0.12165707 0.0473625 0.05800867
0002b0 3a 08 02 bd e1 ec cf bd 46 bb ec 3d d9 d1 db bd
       -0.031746127 -0.10152603 0.11559157 -0.10733385
0002c0 fc 30 08 be 98 f5 15 be cb 4f 1e bd 35 e4 7e bd
       -0.13299936 -0.14644468 -0.038650315 -0.062229354
0002d0 64 b2 4b 3d 1b 4f df 3c 2c 9f 31 bd 6a 01 45 bd
       0.049730673 0.0272594 -0.04336469 -0.04809705
0002e0 bf 6a d8 3d e9 1d ed bd 2e ef 31 bd d4 87 a2 3d
       0.10567235 -0.115779705 -0.04344099 0.079360634
0002f0 97 e5 94 3d fd 28 27 bc 80 4d bb 3d 97 c9 e5 3d
       0.07270353 -0.010202643 0.09145641 0.11220091
000300 3a 4e f4 3d 46 cf 09 3e 47 2e 04 3e e4 93 a4 3d
       0.11928983 0.13457975 0.12908278 0.080360204
000310 e0 20 b5 bd de 16 ed 3d 86 3f 0e bd ac bd b5 bd
       -0.08844161 0.11576627 -0.03472855 -0.08874068
000320 43 0e 72 bc 0a 24 94 bd 41 2b b7 3d 9e 9d 9f 3d
       -0.014773908 -0.072334364 0.08943797 0.07793735
000330 e5 aa 18 bd 67 d8 bd bd 64 58 c9 bc b8 83 33 bd
       -0.037272353 -0.09269791 -0.02457828 -0.04382679
000340 6f 7d ea bc 88 67 c8 bd bc c1 df 3d 0a 83 49 bd
       -0.028624265 -0.09785372 0.10925624 -0.049197234
000350 b6 e8 f1 bc 7b 9e 76 bd e6 3a b2 3b 12 64 5e bb
       -0.02952991 -0.060209733 0.00543915 -0.0033934158
000360 78 db 6c 3c 87 a6 ef bd 94 1e 91 bd 6e 32 ef 3c
       0.014456622 -0.117016844 -0.070859104 0.029198851
000370 d1 56 e0 bd 12 eb 85 bd 3f 2e a4 3d a8 69 53 3b
       -0.10954059 -0.06538977 0.08016633 0.003225902
000380 14 da ac 3d 21 dc ee bc 1e 80 e1 3d 24 2f 89 3d
       0.084400326 -0.0291577 0.110107645 0.066984445
000390 c1 e5 fe 3d d3 cc cc bd 64 6e a0 bd ca 38 20 bd
       0.12446166 -0.100000046 -0.07833555 -0.03911666
0003a0 ff a2 af bd cd ce cb 3d cc 7d 32 bd c4 f9 12 3e
       -0.08576011 0.099515535 -0.043577 0.1435309
0003b0 82 f2 54 bd 12 40 df 3d fe f8 02 3e 75 96 1c 3d
       -0.051989086 0.10900892 0.12790295 0.038229425
0003c0 ae eb ee 3d 42 c2 0e bc b1 80 b7 3d 1e c7 92 3c
       0.11666046 -0.008713307 0.08960093 0.017917212
0003d0 33 f7 86 3d 70 e8 1c 3e fd 66 d0 bd fd 32 bd bd
       0.06590118 0.15323043 -0.101758935 -0.09238241
0003e0 a0 1d b8 3d ae 72 07 3d b9 24 e3 bd 19 2c d2 bc
       0.089900255 0.03306835 -0.11090989 -0.025655793
0003f0 74 99 fc bb a3 80 e0 3d 1a 22 06 3e 81 a7 6a bd
       -0.0077087227 0.109620355 0.13098946 -0.05728865

net.2.weight f4 [256, 256]
000000 a6 ec 09 3d 6e d4 08 bf 92 e1 53 3e 7f 63 89 3e
       0.03367295 -0.5344914 0.20691517 0.26833722
000010 6b 28 4f bf 28 32 8d 3e 99 98 a3 be 8a bf fd bc
       -0.8092105 0.2757733 -0.3195236 -0.030975122
000020 00 18 8c 3d 09 a1 bc be 84 8f 03 bd ff 30 a5 be
       0.06840515 -0.3684161 -0.03211929 -0.32263944
000030 30 4e 8e bd 52 f0 36 bd 7b 26 fe be 30 d8 8b 3d
       -0.06948507 -0.04466278 -0.49638733 0.06828344
000040 8d bd 49 bd 39 cc 49 3a b8 30 97 3d e4 06 2a 3d
       -0.049253035 0.0007697973 0.07382339 0.041510478
000050 d0 45 d2 3b 2e 5c 42 3d bd eb 03 bc 43 51 f6 3d
       0.0064170137 0.04745119 -0.00805181 0.12027218
000060 c8 81 0f 3d 92 ef 24 3e e3 e8 c7 3d 4a b8 1f 3d
       0.03503588 0.16107014 0.097612165 0.03899411
000070 3e 88 15 3d fa 2d 27 bc 47 c9 fb bc 58 31 12 3e
       0.036506884 -0.010203833 -0.030735625 0.14276636
000080 d8 ec 8c 3c b6 e8 e6 3d a3 9e 5b be 94 26 4a 3d
       0.01720278 0.11274855 -0.21447234 0.049353197
000090 7e 4f 47 bc 6a c1 8f 3d 6a 4b 84 3d 27 57 38 bd
       -0.0121649485 0.07019313 0.064596966 -0.04500499
0000a0 43 7e b6 be b5 40 07 bc 07 b9 bc 3d 42 03 77 3d
       -0.35643205 -0.008255173 0.09214979 0.06030584
0000b0 9e 52 80 3e c8 a1 23 3d 5b c3 a1 3b b0 fa ca bc
       0.25063032 0.03994921 0.0049366183 -0.02477774
0000c0 84 42 70 bd ef 23 54 bd 6f 8e 77 3b 92 cc d2 be
       -0.058657184 -0.05179208 0.0037774106 -0.411717
0000d0 1e 1d 90 3e ce 38 60 3e 07 a1 13 bc 14 76 1e 3d
       0.28147215 0.2189667 -0.00901056 0.038686827
0000e0 30 a8 21 3d 16 75 50 be 0c eb c4 ba a8 18 ad 3d
       0.039467037 -0.20357165 -0.0015023663 0.084519684
0000f0 5e b3 5f bd 27 22 47 3d ec da 42 bd 2d 4e 91 3e
       -0.054614417 0.048616555 -0.04757206 0.28379956
000100 d0 e0 f2 bc d8 2b 52 3d d8 29 5b 3e 97 27 c5 3c
       -0.029648215 0.051311344 0.21402681 0.02406673
000110 45 4f 5d 3c b0 00 9c bd 45 01 89 3e 23 67 59 bd
       0.013507669 -0.07617319 0.2675878 -0.053076874
000120 6b 5c 39 3c 92 20 54 bd 75 f6 3c bd 15 8b 08 3d
       0.011313538 -0.051788874 -0.046133477 0.033335764
000130 f9 67 4b bd b5 c6 92 bb c8 b6 4a bc 17 68 6f bd
       -0.049659703 -0.004479254 -0.01237268 -0.058448877
000140 0a c0 e6 bd e1 3d 7e bc 13 be 88 bf aa 16 24 3d
       -0.11267097 -0.015517683 -1.0683006 0.040060677
000150 22 b7 d6 3b 24 d4 bf 3d 7e 8d 51 3d c0 38 c1 ba
       0.006552593 0.093666345 0.051160328 -0.0014741644
000160 59 34 4d 3d 5a 85 87 be 63 9e 1a bd ae 37 3d 3d
       0.05009875 -0.26468927 -0.037748706 0.04619568
000170 6f 3c 83 bd 80 d1 92 3d b4 cb 0f bc 68 7c d5 3d
       -0.06408011 0.07168865 -0.008776594 0.10424119
000180 e3 dc b4 bd 28 56 03 3d 69 6d be 3c 10 4b 9c bc
       -0.08831193 0.032064587 0.02324553 -0.019078761
000190 5a 3a 64 3d 66 2f 3d 3e bb a4 a3 3d 03 ed 2c bd
       0.05571971 0.18475112 0.07990404 -0.04221822
0001a0 8b e1 b8 be 3f 1f f1 3d 8a fd 61 3d ca c7 17 bd
       -0.36109576 0.11773538 0.055173434 -0.037055768
0001b0 f8 a5 af 3d d3 bb 48 be 18 62 af 3d 72 12 37 3e
       0.08576578 -0.19602899 0.08563632 0.1787813
0001c0 0d 27 73 3e 8a 15 0c 3d 34 e8 cb 3c 13 0d 46 3e
       0.23745365 0.03420023 0.024890997 0.19340925
0001d0 c2 df 06 3e 20 22 70 3d 52 ca d7 3d a0 52 6d 3b
       0.13171294 0.058626294 0.105366364 0.0036212578
0001e0 f2 41 6f 3d a7 45 56 bc 56 01 e4 bc 56 39 9c 3d
       0.0584125 -0.01307813 -0.027832668 0.076281235
0001f0 8c 4a 68 be 04 e2 e6 bc 83 d1 57 bd 7d 34 06 3d
       -0.22684687 -0.028183945 -0.05269004 0.0327649
000200 de 93 7a 3d bc 0c 0e 3d 71 d1 85 bf fe f3 14 bf
       0.061176173 0.034680113 -1.0454541 -0.581848
000210 ce b5 a7 3c 0b a8 75 bc f4 39 0c 3d b8 29 80 3d
       0.020472433 -0.014993678 0.034234956 0.06257957
000220 f7 ad 6c 3e 7c 82 8b bb 48 33 2a bf bd 38 17 bb
       0.23113237 -0.0042574983 -0.664845 -0.002307459
000230 da b3 e1 be 44 14 7e be de 59 ba be c2 d4 8b bd
       -0.44082528 -0.24812418 -0.36396688 -0.0682769
000240 78 04 eb 3c ba 2c 0e 3d 76 77 9c 3e e9 4d 2e be
       0.028688654 0.034710623 0.3055989 -0.17021908
000250 25 8d 20 3d 1d 45 41 3d 5e 69 91 bf b8 5d 68 be
       0.039197106 0.047185052 -1.136028 -0.22692001
000260 16 5a 38 3e b3 de f9 3d 0b 30 65 be 58 1d 67 3c
       0.18003115 0.1220068 -0.22381608 0.014106117
000270 c6 2f 24 3d 09 55 5e 3c ed a2 b2 3c 29 e1 6d 3d
       0.040084623 0.013570079 0.021806205 0.058076058
000280 04 33 eb be 7c 53 ae bc 0d 54 98 3c e2 0d ea 3e
       -0.4593736 -0.021280043 0.018594766 0.45713717
000290 ff 14 cb 3c 80 b5 65 bd df 20 e0 be 82 c0 ea bd
       0.024790285 -0.056081295 -0.4377508 -0.11462499
0002a0 50 ab 4e 3e 2a 9a a6 3e d9 9b 12 3e 44 e2 0e 3d
       0.20182538 0.32539493 0.14317264 0.034883752
0002b0 58 bc f5 bc 7a e7 23 3d 4c cc 0b bd 3e 08 bf bf
       -0.029997036 0.040015675 -0.03413038 -1.492439
0002c0 3b d7 5a bd 27 b0 13 3e 5e 93 f5 bc 20 6b c8 3b
       -0.053427916 0.14422666 -0.029977497 0.006116286
0002d0 4a 97 97 bf 23 3b 71 3d f5 5e af 3d 04 18 1e 3d
       -1.1843045 0.058894288 0.085630335 0.03859712
0002e0 ac 81 5e 3d 6e 16 bf be b4 0c ce b9 c2 cd 7c bd
       0.054322883 -0.373218 -0.00039300846 -0.061719663
0002f0 6d 72 12 be 99 59 2d bd 61 4c 0b 3c 6b b7 10 3d
       -0.14301462 -0.042321775 0.008502097 0.03533117
000300 2c c7 a5 bc ec 4b 70 3d 08 09 eb be 68 2c 8a bc
       -0.020236574 0.058666155 -0.45905328 -0.016866878
000310 e8 3e 88 bf 24 5a 99 3d 60 c7 60 bc d8 30 7c bc
       -1.0644197 0.07487896 -0.01371941 -0.015392505
000320 fc 52 82 3d e4 1e 72 be 11 b3 93 3e 70 eb 7e bd
       0.06363484 -0.23644596 0.28847554 -0.06223625
000330 b7 e0 74 3e c0 d2 15 3b 39 85 3e bd 80 fa 0e bc
       0.23913847 0.0022861212 -0.04651377 -0.008726716
000340 c1 36 65 3e a8 0b a8 3d e0 d7 f8 3c 14 e1 14 bc
       0.22384168 0.08205348 0.030376375 -0.009086866
000350 e0 a0 04 3d 79 0a fa bc 9e 0c 51 3d a0 9e c6 bb
       0.032379985 -0.030522572 0.051037423 -0.00606139
000360 17 27 76 be b0 b8 b8 3b ae 8d 22 3e e0 40 74 3b
       -0.24038349 0.005637251 0.15874359 0.0037270114
000370 08 0a 1b bc 4c 5c 84 3c 8d 37 9b 3d ec 5a 8f 3d
       -0.009462841 0.016157292 0.07578955 0.06999764
000380 9b 88 24 be 91 d0 9c bd 94 73 ed bd 01 bf b8 bb
       -0.16067736 -0.076569684 -0.115943104 -0.005638004
000390 8a 53 6b 3d 28 5d f1 3c 3d 3f 8b bd 23 b9 0c be
       0.057452716 0.029463366 -0.06799171 -0.13742499
0003a0 3d 03 04 3f 66 64 da 3c 32 73 25 bb a8 b1 8e 3d
       0.5156744 0.026659202 -0.0025245664 0.06967479
0003b0 14 d8 49 3d db 3a 82 bf 42 cd 72 3c c4 5a bd 3d
       0.049278334 -1.0174211 0.014819445 0.09245828
0003c0 96 70 2d 3b bb e0 0b 3d d8 32 25 3e ca 1e 6d bd
       0.0026464812 0.034149867 0.16132677 -0.05789069
0003d0 6a d6 2f bd 9e ab a4 bc ee f4 82 bf ac df ce bc
       -0.04292909 -0.020101365 -1.0230997 -0.02525314
0003e0 80 aa 1b 3b b1 b6 8a 3d 2d b8 0e 3d 07 97 4c 3d
       0.002375275 0.06773127 0.034843612 0.04994872
0003f0 6c 82 5a 3d 1a c0 c8 3d 48 fe fe 3c 73 a4 58 bf
       0.053347036 0.098022655 0.03112711 -0.8462593

net.2.bias f4 [256]
000000 5f e2 30 bc f7 c7 fe bc 20 fc b0 3d dd 71 d0 3d
       -0.010796159 -0.03110121 0.08641839 0.10177968
000010 e8 68 b3 3d 16 cf 4d 3c b9 f5 de 3c 74 84 d4 bc
       0.08760244 0.01256158 0.027216779 -0.025942065
000020 7b 28 88 bc c0 3f 1b 3e 2f 1a 2f 3e 6e b8 02 3d
       -0.016620865 0.15161037 0.17099832 0.031914167
000030 fe 42 b1 3d b0 fa 87 3d 22 cc 73 bd 42 ef 17 3d
       0.08655356 0.06639612 -0.059520848 0.03709341
000040 5f 7e 23 3e a4 c2 81 bc 50 75 99 bc 7e 5d 81 3d
       0.15966175 -0.015839882 -0.018732697 0.0631666
000050 17 a2 54 bc 94 b5 b8 bc d3 a8 4b bd 38 86 88 bd
       -0.012978098 -0.02254752 -0.04972155 -0.06666225
000060 e0 7a 36 bd 33 a8 d9 3d 21 8e f1 3a f0 a5 7d bc
       -0.044550776 0.106277846 0.0018429199 -0.015481457
000070 cd e2 2c bb 78 26 40 bd 3d c5 e8 bb c1 60 dc bc
       -0.00263803 -0.046911687 -0.0071035908 -0.026901605
000080 ff 6c 2a 3e 5a cb fe 3d e6 b9 92 bd fd 62 59 3d
       0.16643141 0.1244113 -0.071643636 0.05307292
000090 06 4c 42 bd 50 a9 c7 bc 20 01 99 3c 27 da a9 bc
       -0.047435783 -0.024372727 0.018677294 -0.020733906
0000a0 e2 40 6f bd 87 75 2a 3c 2a 5e 93 3b c0 9c 1a bd
       -0.058411486 0.010403997 0.004497309 -0.037747145
0000b0 58 77 54 bd f7 ec 72 3d 24 3f 95 3d c3 cf 38 bc
       -0.051871628 0.05930802 0.07287434 -0.011280003
0000c0 ef d3 4d bd cc c7 0a 3e d9 d2 56 bc d5 8c 85 bb
       -0.050250944 0.13552779 -0.013111793 -0.0040756264
0000d0 02 0b 23 3e 63 8a e1 3d 96 ad 33 bd e2 9e 85 bd
       0.15922168 0.11012723 -0.043866716 -0.06524445
0000e0 cc 0a 27 bd 02 b8 14 3e 29 99 77 3d a3 ad d8 3b
       -0.04078178 0.14523318 0.0604488 0.006612496
0000f0 32 35 26 bd 54 99 fe 3d f8 25 53 bd 9e 2d 1d 3d
       -0.040578075 0.12431589 -0.05154988 0.038373582
000100 c3 10 61 bd f8 4b d4 3d d2 aa 2d bd 11 88 19 3e
       -0.054947626 0.103660524 -0.042399235 0.14993311
000110 cb d7 31 3d e4 d5 8a 3c a7 b1 da 3d d0 86 0c 3d
       0.043418687 0.016947694 0.10678416 0.034308255
000120 02 e0 b7 3d d6 b8 60 3c c4 d3 89 3c 0f c7 68 bd
       0.08978273 0.013715943 0.01682461 -0.056830462
000130 d9 f1 e0 3d 7b 03 ac 3d f3 dc 28 bd c1 42 71 3c
       0.10983629 0.08399101 -0.04122634 0.014725388
000140 55 79 21 bd a1 c3 7a bd 2b 76 9f 3c 30 58 4d bc
       -0.039422352 -0.061221723 0.019465527 -0.012533233
000150 38 31 05 3e a2 ed 99 bd a5 eb 32 3d bd fc d9 bc
       0.13007057 -0.07516028 0.04368176 -0.026609773
000160 80 da ef 3c c7 5a 30 3d f3 26 38 bd 1b 81 44 bd
       0.029278994 0.043055322 -0.04495902 -0.047974687
000170 b1 a3 2b 3e f1 d9 48 bd be b4 37 3c b9 06 b8 bb
       0.16761662 -0.04903597 0.011212526 -0.005616036
000180 bc c0 b4 b8 7e 23 97 3d 38 dd 8d bd 43 79 80 3d
       -8.6189684e-05 0.073798165 -0.0692696 0.06273129
000190 4c fe 15 bd 74 6d 03 3e 75 c7 a3 3d 68 ec 0b 3e
       -0.03661947 0.12834722 0.07997028 0.136644
0001a0 2c b8 22 bd 30 6f 7b 3d 34 d2 d0 3d 8c dd 7b bd
       -0.03972642 0.061385334 0.10196343 -0.06149058
0001b0 20 f5 0b 3e 5f ad 92 bd da 43 86 3a 64 9d 9b bc
       0.13667727 -0.07161974 0.001024361 -0.018995948
0001c0 45 62 af 3b fd 1b d5 3c 34 2d 7a 3d 52 6b 94 bd
       0.005352291 0.026014322 0.061078265 -0.07247032
0001d0 9b a3 e1 3d ee f8 80 bd 85 e9 05 3d b8 8e 5e 3d
       0.110175334 -0.062974796 0.032693405 0.054335326
0001e0 29 b3 80 3d 7c 1c 85 bc 4f 4b 77 bd 2c c5 bb 3b
       0.06284172 -0.016248934 -0.060374554 0.005730292
0001f0 9e 5b 68 3d 8b 64 8d bd dc a4 81 bc 46 bf 72 bd
       0.056727998 -0.06903943 -0.015825681 -0.059264444
000200 d4 a4 87 bd c8 07 83 3c 68 a3 6a 3d 0c 05 d6 3c
       -0.06623235 0.015994921 0.057284743 0.026125453
000210 b8 5e 6d bd b6 c8 c0 3d e8 75 2d 3d 23 07 6d 3d
       -0.05795166 0.094132826 0.042348772 0.057868134
000220 be 19 0f 3e 2a a2 9f 3d d0 5b 07 bd 71 b0 d5 3c
       0.13974664 0.07794602 -0.033046544 0.02608511
000230 80 c8 01 3e c2 c3 d9 3d 11 45 17 3e 4d 3f 57 bd
       0.12674141 0.10633041 0.1477244 -0.052550603
000240 fb 4c 6d 3c e1 b5 28 3c 9d bb 1e 3e c2 93 76 3d
       0.014483686 0.01029727 0.15501256 0.060199507
000250 62 ef e4 3d 86 7f 54 3d cc eb 69 3c f7 46 10 3e
       0.11178471 0.05187943 0.01427741 0.14089571
000260 1b e2 3a bd 19 a5 92 3d 12 e7 85 3d b3 9b 3e 3d
       -0.045625787 0.07160396 0.06538214 0.046535205
000270 25 d4 01 3e 0f 47 73 bd 55 89 e8 3d b5 15 92 3d
       0.12678583 -0.05939394 0.11354319 0.071330465
000280 6f e8 78 bd 18 cb 62 3c 4e 7e 02 3c 2d 5c 8c bc
       -0.06076854 0.013842367 0.007964684 -0.017133797
000290 0a 8b 56 3c 91 41 46 3d 8d 98 11 3d 78 2c 9d 3d
       0.013094673 0.048402373 0.035545874 0.07674497
0002a0 5f d5 65 3d 65 0f 1f 3e 65 a8 07 3e 1e f8 82 bd
       0.05611169 0.15533216 0.13247831 -0.06394981
0002b0 bb 72 8e 3d 2a 1e 39 3d bd 1f 42 bd 7a 1b 34 bd
       0.06955477 0.045194782 -0.04739355 -0.043971516
0002c0 0f ff e9 3d f1 a7 1d bb 0c 5d 59 bd 4e a4 c0 3d
       0.11425602 -0.00240564 -0.053067252 0.09406339
0002d0 fd 92 09 3d 91 b9 61 3d 31 6c 02 3e 9e 37 84 bd
       0.033587445 0.05510861 0.12736584 -0.06455921
0002e0 5c b8 8a bd 68 e8 23 bc 13 24 34 3e db f0 cd 3c
       -0.06773445 -0.01000414 0.17591886 0.025139263
0002f0 55 3c 18 bd 09 b8 f2 3d af 2d 2d bd 9b 27 21 3e
       -0.037166912 0.11851508 -0.042279895 0.15737765
000300 98 ba 6f bd f3 eb 56 bd f6 40 34 bd 8d 4f 94 3d
       -0.05852756 -0.052471112 -0.044007264 0.072417356
000310 09 e2 f2 3d 22 40 a1 3c 52 9d e0 3d ca c0 04 bd
       0.11859519 0.019683901 0.109675065 -0.03241042
000320 99 d7 97 bc e5 d9 5b 3d 72 e4 0f 3c 9c ae af 3d
       -0.018535422 0.053674597 0.008782493 0.08578226
000330 12 59 cc 3c 2d dc 9c bd 61 45 5a bd 7e 0d 01 3d
       0.024944816 -0.07659183 -0.05328882 0.031507008
000340 05 a1 ec 3a af 2a 06 3e bb 5d 5f bc 27 5a 77 bd
       0.0018053359 0.1310222 -0.013633187 -0.06038871
000350 28 52 51 bd 23 d1 8e bd ac 0c 68 3d be 79 f5 3d
       -0.05110374 -0.069734834 0.05665271 0.11986111
000360 56 36 98 3d c3 c1 10 3c 8b d5 fe 3c 81 bf 46 bd
       0.07432239 0.008835259 0.031107685 -0.048522476
000370 a5 d4 76 bd 7e 86 88 3d 4f 63 43 3c bf db 07 bd
       -0.060261387 0.06666277 0.0119255325 -0.03316855
000380 29 13 0e bd 75 72 92 bc 83 20 96 bd 43 c9 f5 3d
       -0.03468624 -0.017876843 -0.0733042 0.12001278
000390 03 a1 4b bd b2 28 71 3d a0 26 0c bd 82 42 04 bd
       -0.0497141 0.0588767 -0.034216523 -0.03228999
0003a0 1b e1 0c 3c b1 74 d9 3c 9a 4a 70 bc c1 d2 38 bd
       0.008598591 0.0265449 -0.014666224 -0.045122866
0003b0 de dc 3f 3d 38 8d 81 bb 7a d6 8c bd 29 33 26 3e
       0.046841495 -0.003953602 -0.06876846 0.16230454
0003c0 1c 09 3d 3d 7b 28 48 3d bb 0b 06 bd 92 3a 37 3d
       0.046151266 0.04886673 -0.03272603 0.04473359
0003d0 6c 0b 2c bc d0 62 f9 3b 77 4c 04 3e a3 e9 88 3d
       -0.01050077 0.0076106563 0.12919794 0.06685188
0003e0 bf 49 3a bd 22 06 5b bd 99 3b 25 3e 35 a5 f9 bc
       -0.045480486 -0.053472646 0.16136016 -0.030474285
0003f0 b8 eb 30 bd 3d b7 0d 3e db c9 c6 3d 2d e0 47 bd
       -0.04319355 0.13839431 0.097064696 -0.048797775

net.4.weight f4 [3, 256]
000000 99 4e 63 be 34 2b 8b bc 60 7a 21 3e 85 3d 1f 3e
       -0.22197951 -0.016988374 0.15769339 0.15550812
000010 32 ed 21 3e 6d 35 bc bc 3e d7 43 3e 00 e6 8a 3a
       0.15813139 -0.022974694 0.19125077 0.001059711
000020 2a 07 81 bd e2 21 0b 3e 30 45 1d 3e d1 c6 9e bc
       -0.063001946 0.13587144 0.15358424 -0.019381912
000030 74 05 34 3e 83 96 b6 3d 3c 8b d6 bc 95 52 25 bd
       0.17580205 0.089154266 -0.026189439 -0.04036196
000040 13 09 e3 bf a0 c7 0d bd 48 55 5a 3d e0 b7 a7 3d
       -1.7737144 -0.034614205 0.053303987 0.08189368
000050 25 9b e0 3c cd 76 3c 3d 9a 43 af bc 14 cb 81 3c
       0.027417729 0.046011735 -0.02139454 0.015843906
000060 54 ad 30 bd c5 28 3f 3e fe d0 6b 3c ef 3f 91 3c
       -0.04313405 0.18667896 0.014393089 0.017730681
000070 b0 86 b2 bc 59 e6 1b bd 1c 85 0a bd 85 54 b8 3c
       -0.02179274 -0.038061474 -0.03381835 0.02250124
000080 8a eb 06 3e 58 c4 b5 3d 10 c4 3d bc cd bf 8f bc
       0.13175789 0.0887534 -0.0115823895 -0.017547512
000090 dc 8b 52 3d 92 3c 05 3d 5a 87 29 bd 3e 7c 9c bb
       0.05140291 0.032528467 -0.041388847 -0.004775553
0000a0 c4 8b 51 3b e7 a6 a4 3d 10 cd 5f bc 00 8a ef b9
       0.0031974176 0.080396466 -0.013659731 -0.0004568845
0000b0 4f db a0 3c ee 01 c3 3c 15 d4 22 3e ed 0f 5e bd
       0.019635824 0.023804631 0.15901215 -0.054214407
0000c0 18 bd 97 bc 8b 88 09 3e 47 f8 66 3b 51 3d 47 bc
       -0.018522784 0.13430993 0.00352432 -0.012160615
0000d0 10 6a 12 3e a9 0e 29 3e 30 85 36 3d 49 aa 73 bd
       0.14298272 0.16509499 0.04456061 -0.05948857
0000e0 d4 c5 10 bd ad d2 38 3e 97 39 cc 3d 42 bc f6 b8
       -0.035344914 0.18049116 0.09971922 -0.0001176526
0000f0 b2 34 b2 3c f7 22 8a 3d fd 90 27 3c 04 9a 6e 3d
       0.021753643 0.0674495 0.010227439 0.05825235
000100 f9 af b2 bc 20 7f 25 3e b8 34 6e bd 2e 54 eb 3d
       -0.021812426 0.16161776 -0.058155745 0.114906654
000110 de 26 36 3d 40 0a 5b bc 47 16 da 3d be f3 ca 3c
       0.04447066 -0.013369143 0.1064878 0.024774428
000120 1e d5 d7 3d 9f c8 67 bd 6d bb a2 bc 59 72 c6 3c
       0.10538696 -0.05658781 -0.019864762 0.024224447
000130 61 7a 11 3e 8a 84 1d 3e 30 ef ac 3c 47 40 e6 bc
       0.1420684 0.15382591 0.021110147 -0.028106822
000140 58 d1 31 bc ce e1 e7 3c 6e 40 27 3c 20 57 c9 bb
       -0.010853134 0.028305914 0.010208232 -0.0061444193
000150 7b 82 48 3e ce 41 ef bc f2 c1 71 bd b0 08 15 bc
       0.19581024 -0.029206183 -0.05902285 -0.00909631
000160 b5 79 5f 3d 9e 0c f1 3d 8f 49 17 3b 11 df 1e 3d
       0.05455943 0.11769985 0.0023084616 0.03878695
000170 95 37 18 3e c6 1e 09 bc b9 5d 6e 3d aa 32 39 3d
       0.14864953 -0.008369153 0.05819485 0.045214333
000180 17 c9 ae 3b 46 17 d3 3d 22 a9 ea bc e1 95 95 3d
       0.0053340304 0.103071734 -0.028645102 0.07303978
000190 88 d3 22 bd ed 0b f2 3d 14 aa 3d 3e 2d 88 05 3e
       -0.039752513 0.11818681 0.18521911 0.13040228
0001a0 45 2d 8b 3c 60 9e ae bb 54 9f 38 3e 18 b6 8f bc
       0.01698936 -0.0053289384 0.18029529 -0.017542884
0001b0 6c ce ca 3d 5b 68 2a 3e 49 4b a9 3b 34 64 d5 3c
       0.09902653 0.16641371 0.0051664454 0.026048757
0001c0 d1 f4 da 3c 90 a3 eb bb 8f 8b 12 3e e2 94 09 3d
       0.026728066 -0.007191129 0.1431105 0.03358925
0001d0 b2 b4 94 3d e8 b7 58 3c f3 0e 2e 3d 6d da a6 bc
       0.072610274 0.01322744 0.042494725 -0.020367825
0001e0 94 d7 25 3e 27 bd 5e bd 67 8d c4 3a 9a a0 95 3e
       0.16195518 -0.05437961 0.0014995754 0.29224092
0001f0 9f 4b 5b 3e da 05 2a 3d 0a ca 0e 3d 3e 81 21 bd
       0.21415566 0.041509487 0.03486065 -0.039429896
000200 bf 95 32 3c 99 61 38 bd 22 97 a0 3d 1f 0b e2 bc
       0.01089996 -0.04501495 0.07841326 -0.027593194
000210 a0 44 4f bd cc 70 3f 3e cf 0c 6a bd 3f 80 10 3e
       -0.050602555 0.18695372 -0.05714112 0.14111422
000220 e9 7e d9 3d bd fb 3a 3e 84 29 f4 bc fe a7 04 3b
       0.10619909 0.18260093 -0.029804952 0.0020241733
000230 a0 e8 2c 3e 42 58 33 3e e9 53 ff 3d 10 13 98 bb
       0.16885614 0.17514136 0.124671765 -0.0046409443
000240 88 3a b6 bc 53 8b 3c bd fb c9 4b 3e 65 04 03 3e
       -0.022244707 -0.046031307 0.19901268 0.12794645
000250 03 93 3b 3e 1e 7b c8 3d 62 74 78 3d d6 89 49 3e
       0.183178 0.09789108 0.060657866 0.19681486
000260 da 31 12 bd f0 eb f9 3d a8 ef 16 3e 90 ed b7 3d
       -0.035692073 0.12203205 0.14739859 0.08980858
000270 ba 9e 3e 3e 68 e0 23 3a 3b 38 54 3e 11 c3 d3 3d
       0.18615237 0.00062513957 0.20724575 0.1033994
000280 0a d2 bc bc b6 98 57 3d 4a 04 0a 3c 82 f0 b8 bc
       -0.023049373 0.05263587 0.008423874 -0.02257562
000290 46 44 04 bc 8a 26 3f 3e e2 73 14 3d 05 03 13 3e
       -0.008072918 0.18667045 0.036243327 0.1435662
0002a0 d4 a0 37 3e 46 ef 42 3e 90 9e d1 3d 90 91 cd bc
       0.17932445 0.19036588 0.102353215 -0.025093824
0002b0 65 5b 0d 3e 88 9b 0e 3c 15 e2 65 3b 4a df 02 3d
       0.13804395 0.008704074 0.0035077382 0.031951226
0002c0 a2 dc b6 3d 57 73 1f 3c 00 2e 47 bb 23 f9 2b 3e
       0.08928801 0.009732089 -0.0030392408 0.16794257
0002d0 cc f2 cc 3c b8 30 47 bc e9 88 40 3e 10 aa 24 bc
       0.025018118 -0.012157612 0.18802227 -0.010050312
0002e0 87 f5 44 bd 63 b2 17 bd 7f 0e 30 3e c0 f4 0d bd
       -0.048085716 -0.037035357 0.1719303 -0.03465724
0002f0 19 dd 18 bd b5 70 e2 3d 50 18 3a bc e6 36 21 3e
       -0.03732023 0.110566534 -0.011358336 0.15743598
000300 14 d1 8b bb ea b9 65 3d d5 6a 06 3d 11 23 4b 3d
       -0.0042668674 0.056085505 0.032816727 0.04959399
000310 6f f0 c0 3c 6a 92 48 bd 72 25 e9 3d 13 8c 6d bc
       0.023552148 -0.048967756 0.11384095 -0.014498728
000320 ef 25 06 bd 96 92 4b bd e7 2f 43 bd ad fb 09 3e
       -0.03275102 -0.049700342 -0.047653105 0.13474913
000330 93 e8 2a 3c 4d 49 54 bf 24 08 37 bd 08 48 82 bc
       0.010431427 -0.8292435 -0.044685498 -0.015903488
000340 8d 0f 1f bd a4 35 9a 3d 86 2d ae be 15 ec 58 3b
       -0.03883319 0.075297624 -0.34019107 0.00330997
000350 59 48 23 bd 07 15 82 bc 6f 87 06 3e 86 6f d4 3d
       -0.039863918 -0.015879167 0.13137601 0.10372834
000360 9c fa 09 3e 1a 54 64 3d 32 03 0c bd 3f 9f ab bc
       0.13474506 0.055744268 -0.034182735 -0.020949958
000370 0d 48 6b bd d2 44 23 3e fc 94 2c bd 32 c5 b8 3c
       -0.05744176 0.15944222 -0.04213427 0.022554968
000380 c3 39 fe 3c 1d 96 60 bc 2f aa 9e be fb 8a c7 3d
       0.031033402 -0.013707665 -0.30989215 0.09743305
000390 de 3e 3e bd 88 22 01 3e 95 3b 5d 3d 2b 6b 87 3b
       -0.046446674 0.12610829 0.0540119 0.0041326485
0003a0 a4 a0 2c bb 48 28 34 3c 98 21 39 bd c6 46 e4 3b
       -0.0026340866 0.010995932 -0.045198053 0.0069664447
0003b0 81 e1 80 3d 50 2c 1b bd 1f 20 5f 3c 93 ee 24 3e
       0.062930115 -0.037884057 0.013618498 0.16106634
0003c0 c5 c5 77 3e 36 5f ef bc 8b 3c dc bc ea 0b 84 bb
       0.24196537 -0.029220205 -0.026884338 -0.0040297406
0003d0 46 88 5d 3c 10 ff 29 3d d1 83 31 3e ef fc 8a bf
       0.01352126 0.041503012 0.1733544 -1.0858439
0003e0 c9 48 03 3d f4 89 84 3d 12 de 40 3e 83 b1 ad 3d
       0.032051835 0.06471625 0.18834713 0.08481123
0003f0 d0 9a 21 bc d8 12 69 3d be 74 66 bd 6f ec 2c bd
       -0.00986357 0.056902736 -0.056263678 -0.04221767

net.4.bias f4 [3]
000000 97 3f 2c 3e 3d d0 fb 3d 66 7b e2 3c
       0.16821133 0.12295578 0.027646732
